BDG2/TimeSeriesTransformer-BDG2.pt (torch, 641170 bytes, 47 tensors)

embedding.input_proj.weight f4 [64, 4]
00000000: 4a2f dc3d f858 37bf d209 183b b20a d73e
00000010: 089f 083f 4e37 2b3f 93f3 a93e a6b7 9abd
00000020: 2eeb 2fbe 8799 523e 4297 cebe d978 1f3e
00000030: 7534 07bf eb40 2fbe 8faf 0abf 9818 233f
00000040: 7e6d 243f 2889 293e 037b 193f 7e38 d0be
00000050: c9d0 f8be 23bb b33e b041 9abd cbde a2be
00000060: 5488 67be 5334 213f 5a39 c13e eccf 8cbd
00000070: b8ee c73e 0c2d 94bd f868 203f 190b 1cbf
00000080: 78ac 7ebe cfe3 d6be 7576 72be 8d6d e63e
00000090: 6d0b 7f3d db99 a43f 0bc1 813e a981 ebbd
000000a0: 71f0 97bd c64b 943f 39ba cc3e 46e9 913e
000000b0: 274e a4be 6780 47bf 58ce d9be e2ba 5b3d
000000c0: 934d 19be 9aa7 b93f af0c 393d a075 8fbe
000000d0: 2422 aa3e ab3c a03f 266c bf3e d2b1 a1bc
000000e0: 1c48 e3be 7ef8 3abf e752 31be b014 d2bc
000000f0: e09a 2bbe 1053 27be 4891 a9be f3a7 19be
00000100: 5e0c 433e 5ebe 96bf 6751 d1bb ab18 bdbe
00000110: 6e53 a53d 37a0 95bf d992 243e a66b 503f
00000120: 68e2 023e de6a 8f3f 3fca 013f 4389 88be
00000130: 93c3 d3be f2da 87bf 173f 723e 3d2b e13e
00000140: 3916 273d cc6e 853f e8eb 753e 7863 3bbf
00000150: 1549 0b3f 522f 383d 72a8 0a3f 230c 70bc
00000160: 0d04 1a3e d2ae c8bf 8742 943e 46c9 a83d
00000170: cce2 a23e 8ffe 023f 7e1e 0cbf a126 4abf
00000180: 7991 ef3e 2bd1 703f cafb c33e b1ca 0fbf
00000190: 2340 cabd a13b b1bf 4241 f2be 1522 083e
000001a0: bc3a bf3e 95a6 653f 3cae 233d b1d6 70be
000001b0: b47a d1be 4040 8bbf 4b82 8e3e 810c 393f
000001c0: ab2c f2bd eebe b1bf b679 25be f53c 2b3c
000001d0: 2112 d93c 7862 88bf a9c4 933e b97e e9bb
000001e0: 669e cabe ea34 9dbf d0be 93be 37aa a73d
000001f0: 018f 6d3d c2d2 2dbf 9dad 05bf 74eb fc3e
00000200: aecc 6cbe 5999 613f 9f7e b73e 22eb 83bb
00000210: 4ffe c03e b46c a1bf 1219 0dbf 5ae0 c63d
00000220: dbaa 2cbf fe1a 50bf 6b0b cd3d 6a50 a13d
00000230: 241c c0be 4b50 acbf 3d4d b33e 359f 013f
00000240: b374 fe3e f9fb 733f 515b 323e 61ea 57bf
00000250: b736 e63e ed76 293e b607 943d 50c0 043d
00000260: 884f 183f 4f6b 063f f8c1 0a3f 2503 603d
00000270: cc6f 10bf f974 d73f e54f 28be be34 233f
00000280: feae b93d 0626 1d3f 3b3a c83e 0596 c4be
00000290: f50c 55be a048 a8bf 17ad 313e 7cf3 91be
000002a0: 3059 80be 7767 e6bf 7763 e3bd 6f30 0a3e
000002b0: 5eb8 07bf da28 a5bf 4862 833e fedf 08bf
000002c0: 4cc9 40bd 8975 903f 7955 013f 38f0 57be
000002d0: 99ae d1be 33bb bfbf 1173 8f3e d6ab ccbc
000002e0: aaa7 cbbe 8ad3 43bf dd9b 9abe d511 573e
000002f0: 9888 933d 6f21 403f a648 e03e 70ff 1b3d
00000300: e413 013e 9784 d53f 260b f6bc 73a3 8e3d
00000310: 7724 a8be 927a 06c0 efa7 5ebe b4d6 98be
00000320: e31e 0e3f 3145 0340 c5bf e8be ca9e 613e
00000330: 3ddb 36bf ed00 6ebf d64a aabd 5081 b2be
00000340: 4ca4 ec3e e518 c4bf 3edb 7dbe 1d0c b6be
00000350: 5eba 493e 23c5 a6bf 36c6 00bf aa3d e9be
00000360: e90b d93e 1e94 ce3f 87aa e73d eeae efbe
00000370: 7e35 3fbf 348f b3bf 48fd f4bd c373 f3be
00000380: 056c 0abf c1b4 84be 7779 8cbd deb1 dd3e
00000390: 9455 d33e f71d 1a3f a420 31be ab2f 943e
000003a0: 5349 5fbe c89a 9abf 36a0 063f 7d21 f73d
000003b0: d04a 4bbe 7e8b 593f 6183 85be 8bc1 863d
000003c0: 417c dabe 5e9b a1be ae93 b1be 9326 37be
000003d0: 43b0 15bf 2639 6ebf 0d15 f8be 8a61 b7be
000003e0: 3237 003f 2d16 e63f c8e5 32be f50d 0c3e
000003f0: 3fd4 1c3e 2bd7 cbbf dde5 22bf 9962 87bd
0.10751207 -0.7162013 0.0023199213 0.42000347 0.5336766 0.66881263 0.33193645 -0.075545594
-0.17179558 0.20566379 -0.40349776 0.15573443 -0.5281442 -0.17114608 -0.5417413 0.637094
0.6422957 0.16556227 0.59953326 -0.406681 -0.4859679 0.3510371 -0.0753206 -0.31810603
-0.22610599 0.62970465 0.37739068 -0.068755955 0.39049315 -0.072351545 0.6266017 -0.60954434
-0.24870479 -0.4197068 -0.23678 0.45005456 0.062266756 1.2859453 0.25342593 -0.1149934
-0.074189074 1.1585624 0.39985827 0.28498286 -0.32090876 -0.779303 -0.4254024 0.053645022
-0.14970998 1.4504273 0.04517811 -0.28019428 0.33229172 1.2518514 0.37387198 -0.019738112
-0.44390953 -0.7303542 -0.17316781 -0.02564463 -0.16758299 -0.1634028 -0.33118653 -0.15005474
0.19047686 -1.1776845 -0.0063878777 -0.36932883 0.080725536 -1.1689519 0.16071643 0.8141426
0.1278168 1.1204488 0.5069923 -0.26667222 -0.4136015 -1.0613692 0.2365688 0.439783
0.040792678 1.0424438 0.24015772 -0.7319865 0.5440839 0.044967003 0.5416328 -0.014651331
0.15040608 -1.5678351 0.28957006 0.08241515 0.31813657 0.51169676 -0.5473403 -0.78965193
0.46790674 0.94069165 0.38278037 -0.5616866 -0.09875514 -1.3846322 -0.47315413 0.13294251
0.37349498 0.8970731 0.039961085 -0.23519398 -0.40913928 -1.0878983 0.2783378 0.72284704
-0.11824926 -1.3886392 -0.1615971 0.010451545 0.026497902 -1.065505 0.28860977 -0.007125702
-0.39573973 -1.2281773 -0.28856516 0.08186763 0.057997707 -0.67899716 -0.5221804 0.49398386
-0.23124954 0.88124615 0.35838792 -0.0040258327 0.37694022 -1.2611299 -0.5511638 0.097107604
-0.67448205 -0.81291187 0.100119434 0.07876666 -0.3752147 -1.3462003 0.35019866 0.50633556
0.4969841 0.95306355 0.17417647 -0.8434201 0.4496362 0.16549273 0.07228033 0.032409966
0.59496355 0.5250749 0.5420222 0.0546905 -0.5642059 1.6832572 -0.16436727 0.63752353
0.0906658 0.61386144 0.39106926 -0.38395706 -0.20805724 -1.3147163 0.17351185 -0.28506076
-0.25068045 -1.8000325 -0.11102956 0.13495038 -0.53015697 -1.2903092 0.2566092 -0.53466785
-0.04706697 1.1285869 0.50521046 -0.2108773 -0.4095352 -1.4979004 0.28017476 -0.024984282
-0.39776355 -0.7649466 -0.3019704 0.21002896 0.072037876 0.75051016 0.43805426 0.0380854
0.12605244 1.6681088 -0.030034613 0.06964769 -0.3284032 -2.101231 -0.21743749 -0.29851305
0.5551588 2.051098 -0.4545881 0.2203323 -0.7142828 -0.9297016 -0.08315055 -0.34864283
0.462191 -1.5320097 -0.24790666 -0.35556117 0.197 -1.3028911 -0.50302446 -0.45554858
0.423919 1.6138952 0.113118224 -0.46813148 -0.74691 -1.4028077 -0.11962372 -0.47549257
-0.54071075 -0.25919154 -0.06859105 0.43299764 0.41276228 0.6020197 -0.17297608 0.28942618
-0.21805315 -1.2078485 0.5258821 0.12066934 -0.19852757 0.84978473 -0.26076797 0.06579884
-0.42672923 -0.31563848 -0.34682983 -0.17885809 -0.5847208 -0.9305595 -0.4845356 -0.35816604
0.5008422 1.7975518 -0.17470467 0.13677199 0.1531534 -1.5925039 -0.63631994 -0.06610603

embedding.input_proj.bias f4 [64]
00000000: f703 6d3e 254c 0d3d 40ff 61be 88f1 72be
00000010: fa33 a9be b539 0a3f e208 e43d bc0f af3e
00000020: ac12 f7bc ba5f 973e 2f57 423e 486a 24be
00000030: 0675 cdbe 3c7c a53e 5ded 1d3e f5ae ad3e
00000040: f320 b43e d9b7 ba3e 69c6 c43e 7ca6 ac3e
00000050: 3754 f9be 9beb b93e bd6d 3a3e 09e7 20be
00000060: c64f b33e 87d6 72bc d346 9e3e 6cc8 c03e
00000070: e88a 9cbd c67a a83e 0569 0f3e 88b6 043f
00000080: ba2a aabe 16c4 d73e 16b8 a7be f434 803e
00000090: 4b95 1fbd d465 27be ce38 ffbe da09 92ba
000000a0: ef8e 733e eb12 ff3d 080a a03e 856f 18bf
000000b0: 9b3a dbbe b97d 5fbd 20b0 79be 4eca 48be
000000c0: 13cf 823e 272c b2be 202f 0abe 369e bcbe
000000d0: dd08 003b a003 b7bc 342c 98bd 014c dabe
000000e0: 002b abbe 73d9 9e3e 02d6 08be a5e8 cebe
000000f0: ae5b d3bd 0a29 723e 9f61 5cbe 1eeb 093e
0.23146044 0.034496445 -0.22070026 -0.2372495 -0.33047467 0.53994304 0.11134507 0.34191692
-0.03016027 0.2956522 0.1897857 -0.16056168 -0.40128344 0.32321346 0.15422578 0.33922544
0.35181388 0.3646839 0.38432625 0.33720767 -0.48697063 0.36312565 0.18205924 -0.15713133
0.350218 -0.014821655 0.3091341 0.3765291 -0.07643682 0.3290617 0.14004906 0.5184102
-0.33235723 0.4214179 -0.32757634 0.250404 -0.038960736 -0.16347438 -0.49848026 -0.0011141852
0.23784994 0.1245478 0.31257653 -0.59545165 -0.4281815 -0.054563258 -0.24383593 -0.19608423
0.2554861 -0.3479931 -0.1349454 -0.36839455 0.0019536533 -0.022340596 -0.07430306 -0.4263611
-0.33431244 0.31025276 -0.13362888 -0.4041187 -0.10320221 0.23648468 -0.21521614 0.13468596

embedding.pos_encoder.pe f4 [1, 500, 64]
00000000: 0000 0000 0000 803f 0000 0000 0000 803f
00000010: 0000 0000 0000 803f 0000 0000 0000 803f
00000020: 0000 0000 0000 803f 0000 0000 0000 803f
00000030: 0000 0000 0000 803f 0000 0000 0000 803f
00000040: 0000 0000 0000 803f 0000 0000 0000 803f
00000050: 0000 0000 0000 803f 0000 0000 0000 803f
00000060: 0000 0000 0000 803f 0000 0000 0000 803f
00000070: 0000 0000 0000 803f 0000 0000 0000 803f
00000080: 0000 0000 0000 803f 0000 0000 0000 803f
00000090: 0000 0000 0000 803f 0000 0000 0000 803f
000000a0: 0000 0000 0000 803f 0000 0000 0000 803f
000000b0: 0000 0000 0000 803f 0000 0000 0000 803f
000000c0: 0000 0000 0000 803f 0000 0000 0000 803f
000000d0: 0000 0000 0000 803f 0000 0000 0000 803f
000000e0: 0000 0000 0000 803f 0000 0000 0000 803f
000000f0: 0000 0000 0000 803f 0000 0000 0000 803f
00000100: a46a 573f 4151 0a3f ce7a 2e3f b054 3b3f
00000110: ba7d 083f 0d94 583f f090 d13e c792 693f
00000120: 3e39 9f3e 6b4e 733f 258f 703e f1d5 783f
00000130: 3a23 353e 83f6 7b3f f325 083e 28ba 7d3f
00000140: 7675 cc3d 98b8 7e3f 366f 993d d147 7f3f
00000150: ae36 663d 6898 7f3f faac 2c3d bdc5 7f3f
00000160: 5b81 013d 3cdf 7f3f a53e c23c 93ed 7f3f
00000170: 42ab 913c a3f5 7f3f 497a 5a3c 2cfa 7f3f
00000180: 57d6 233c b9fc 7f3f 16b9 f53b 28fe 7f3f
00000190: 5a44 b83b f7fe 7f3f 5a2e 8a3b 6bff 7f3f
000001a0: 1c3e 4f3b acff 7f3f 0369 1b3b d1ff 7f3f
000001b0: 2015 e93a e6ff 7f3f 8ac9 ae3a f1ff 7f3f
000001c0: 6d12 833a f8ff 7f3f 8994 443a fbff 7f3f
000001d0: 136a 133a fdff 7f3f 2117 dd39 ffff 7f3f
000001e0: 61cb a539 ffff 7f3f 0da8 7839 0000 803f
000001f0: 5377 3a39 0000 803f 6dd4 0b39 0000 803f
00000200: b7c7 683f 3311 d5be d95a 7f3f 534d 913d
00000210: 0af2 663f b2e8 dc3e 1135 3f3f 0339 2a3f
00000220: 1b54 173f ec7b 4e3f b5d3 e93e 69be 633f
00000230: f647 b23e a6fa 6f3f 82f0 863e f5f2 763f
00000240: f86f 4b3e a5e5 7a3f d300 193e 4f20 7d3f
00000250: 86d9 e53d f361 7e3f ae85 ac3d 0e17 7f3f
00000260: c870 813d f97c 7f3f aa30 423d 4eb6 7f3f
00000270: 5ca5 113d 8ed6 7f3f 5075 da3c b1e8 7f3f
00000280: 3ed4 a33c e5f2 7f3f 51b7 753c a1f8 7f3f
00000290: 9b43 383c dbfb 7f3f 0a2e 0a3c abfd 7f3f
000002a0: d83d cf3b b1fe 7f3f e768 9b3b 43ff 7f3f
000002b0: 0815 693b 96ff 7f3f 7fc9 2e3b c4ff 7f3f
000002c0: 6812 033b dfff 7f3f 8594 c43a edff 7f3f
000002d0: 126a 933a f5ff 7f3f 1f17 5d3a faff 7f3f
000002e0: 60cb 253a fdff 7f3f 0ca8 f839 feff 7f3f
000002f0: 5377 ba39 ffff 7f3f 6dd4 8b39 0000 803f
00000300: c381 103e 2670 7dbf de3c 473f cebf 20bf
00000310: d745 7e3f ab7f edbd 6321 743f 6318 9a3e
00000320: c209 503f 582f 153f b724 273f a2e7 413f
00000330: 6c2f 023f 296d 5c3f a768 c73e 37c9 6b3f
00000340: 6c4e 973e ef90 743f e26d 643e 928c 793f
00000350: d7ee 2b3e 9e5d 7c3f 2c33 013e 43f4 7d3f
00000360: c0ff c13d 4fd9 7e3f 0693 913d 3a5a 7f3f
00000370: 4e69 5a3d c3a2 7f3f c5d1 233d 90cb 7f3f
00000380: 1fb9 f53c 83e2 7f3f 4747 b83c 6bef 7f3f
00000390: c631 8a3c adf6 7f3f 4644 4f3c c1fa 7f3f
000003a0: 0d6e 1b3c 0dfd 7f3f 131d e93b 58fe 7f3f
000003b0: a8cf ae3b 11ff 7f3f 1317 833b 7aff 7f3f
000003c0: 929b 443b b5ff 7f3f 606f 133b d6ff 7f3f
000003d0: 171f dd3a e8ff 7f3f 56d1 a53a f3ff 7f3f
000003e0: 10b1 783a f9ff 7f3f 097e 3a3a fcff 7f3f
000003f0: 7ed9 0b3a feff 7f3f a4be d139 ffff 7f3f
0.0 1.0 0.0 1.0 0.0 1.0 0.0 1.0
0.0 1.0 0.0 1.0 0.0 1.0 0.0 1.0
0.0 1.0 0.0 1.0 0.0 1.0 0.0 1.0
0.0 1.0 0.0 1.0 0.0 1.0 0.0 1.0
0.0 1.0 0.0 1.0 0.0 1.0 0.0 1.0
0.0 1.0 0.0 1.0 0.0 1.0 0.0 1.0
0.0 1.0 0.0 1.0 0.0 1.0 0.0 1.0
0.0 1.0 0.0 1.0 0.0 1.0 0.0 1.0
0.84147096 0.54030234 0.68156135 0.731761 0.53316844 0.8460091 0.4093089 0.9123959
0.3109836 0.9504153 0.23492105 0.9720145 0.17689219 0.9842302 0.13295726 0.99112177
0.099833414 0.9950042 0.07491915 0.9971896 0.05620449 0.9984193 0.04215715 0.999111
0.031617504 0.99950004 0.023711512 0.99971884 0.017781857 0.99984187 0.013334819 0.99991107
0.009999833 0.99995 0.0074988706 0.99997187 0.0056233825 0.9999842 0.0042169513 0.9999911
0.0031622713 0.999995 0.0023713715 0.9999972 0.0017782785 0.99999845 0.001333521 0.9999991
0.0009999998 0.9999995 0.000749894 0.9999997 0.0005623411 0.9999998 0.00042169637 0.99999994
0.00031622782 0.99999994 0.00023713727 1.0 0.00017782794 1.0 0.00013335208 1.0
0.9092974 -0.41614684 0.99748 0.070948265 0.9021307 0.43146282 0.7469035 0.6649324
0.5911271 0.8065784 0.45669332 0.8896242 0.34820527 0.93741834 0.26355368 0.96464473
0.19866931 0.9800666 0.1494172 0.98877424 0.1122313 0.9936821 0.08423935 0.99644554
0.063203394 0.9980007 0.04740969 0.9988755 0.03555809 0.9993676 0.026667267 0.99964434
0.019998666 0.9998 0.014997319 0.9998875 0.011246587 0.99993676 0.008433828 0.9999644
0.006324511 0.99998003 0.00474273 0.99998873 0.0035565514 0.9999937 0.0026670394 0.9999964
0.0019999985 0.99999803 0.0014997876 0.99999887 0.0011246821 0.99999934 0.0008433926 0.99999964
0.0006324556 0.9999998 0.0004742745 0.9999999 0.00035565588 0.99999994 0.00026670416 1.0
0.14112 -0.9899925 0.7782725 -0.6279267 0.9932532 -0.11596616 0.95363444 0.3009673
0.8126489 0.58275366 0.652904 0.7574407 0.5085361 0.86104065 0.3894703 0.92103904
0.2955202 0.9553365 0.22307542 0.9748012 0.16790329 0.9858035 0.12617177 0.9920084
0.094726086 0.99550337 0.071081206 0.9974705 0.053323083 0.9985773 0.039994974 0.99919987
0.0299955 0.99955004 0.022494925 0.999747 0.016869437 0.9998577 0.012650555 0.99991995
0.009486687 0.999955 0.0071140616 0.9999747 0.005334813 0.99998575 0.0040005534 0.999992
0.0029999954 0.9999955 0.0022496805 0.9999975 0.0016870227 0.99999857 0.0012650888 0.9999992
0.00094868336 0.9999996 0.00071141176 0.99999976 0.0005334838 0.9999999 0.00040005625 0.99999994

embedding.norm.weight f4 [64]
00000000: 16d7 5a3f 04b5 693f 906a 3e3f 5366 723f
00000010: 3b98 713f 34c8 613f 496d 693f 2e4e 6b3f
00000020: 417e 813f ca72 813f b32e 7d3f 6d09 833f
00000030: 2787 703f a152 713f e7d4 783f c040 5f3f
00000040: 3148 703f 9358 753f 94bf 803f ce9e 6c3f
00000050: e371 753f bf46 5f3f 8813 793f 05b8 763f
00000060: 6495 833f 2c02 843f 77ea 743f dfa2 6a3f
00000070: 17f0 8a3f ad21 533f 4353 7c3f bbe2 743f
00000080: 1560 733f 4c55 873f 4376 763f 4fbc 853f
00000090: f09e 803f dee3 6d3f 34c4 883f 3c00 723f
000000a0: 1607 863f 4547 523f d53b c93f 6d36 653f
000000b0: f1e7 953f f918 6d3f 6d93 843f 8983 753f
000000c0: 208e b93f 60b4 653f 6b88 be3f fd3e 783f
000000d0: 8200 843f 813e 6e3f 8801 933f 52f1 793f
000000e0: cc06 7c3f 1a17 723f a4d6 7e3f c06c 6a3f
000000f0: 65ee 753f 18c4 5e3f 033d 8b3f 1b09 533f
0.85484445 0.9129183 0.7438135 0.94687384 0.9437291 0.8819611 0.9118238 0.9191617
1.0116655 1.0113156 0.9889938 1.0237252 0.93956226 0.94266707 0.97199863 0.87208176
0.93860155 0.9583828 1.0058465 0.92429817 0.958769 0.87217325 0.9729543 0.9637454
1.0279965 1.0313163 0.95670265 0.9165477 1.085452 0.8247326 0.9856455 0.95658463
0.95068485 1.0572906 0.96274203 1.0448092 1.0048504 0.9292582 1.0684876 0.9453161
1.0470912 0.8214 1.5721384 0.8953617 1.1711408 0.9261623 1.0357491 0.9590383
1.4496498 0.89728355 1.4885381 0.9697111 1.0312655 0.93064123 1.1484842 0.9763385
0.9844787 0.945665 0.99546266 0.9157219 0.96066886 0.87017965 1.0877994 0.8243577

embedding.norm.bias f4 [64]
00000000: 4abf 803d 2a79 2b3d 07eb 423e fe64 283c
00000010: 1ecd 953d f877 873d bb0d 973c 8d93 853c
00000020: cd6b a43c 3fc4 963d 5e57 153c d4ab 133d
00000030: b3b4 883d e423 ad3d 1200 d33b 19c2 a93d
00000040: 278f 5a3d cd09 543d f4d2 313d c96f 20bc
00000050: 1001 3bbc d848 913d 8b4e 0f3d 28b2 5bbd
00000060: ae6d da3c d326 be3c ec46 aa3d ff5f b53d
00000070: 38ca d8b9 b719 213e c88f 8dbd a648 083d
00000080: fec8 54bd bb9e 073d e581 91bd 7d1f 98bd
00000090: f82d 0bbd e08a b2bd 5718 0dbd cb3d 21be
000000a0: 1aa8 e2bc 4fe9 75be 16f4 6cbc 0762 33be
000000b0: b07a 63bd 2d3d 02be 6cc5 613d f5db 7ebd
000000c0: 4131 97bd 9cd7 bcbe 837c 873d e67a 7dbd
000000d0: 610f 2f3e fe89 d8bd cf77 b43d e5e6 a7bd
000000e0: 2151 0c3d 64aa 8fbd e0d0 e53d bca9 d5bd
000000f0: b7c1 743d b83e 29be 6128 023e 8d0a 8ebe
0.062864855 0.041863598 0.19034968 0.010277985 0.073145136 0.06614679 0.018439164 0.01630571
0.020070935 0.0736165 0.009115068 0.03605254 0.06675091 0.08454111 0.0064392174 0.08288974
0.053359177 0.05176716 0.04341407 -0.009792277 -0.011413828 0.07093972 0.034987014 -0.0536367
0.026663627 0.023211872 0.083143085 0.088562004 -0.00041349395 0.15732466 -0.0691219 0.033272408
-0.051949494 0.03311036 -0.071048535 -0.07427881 -0.033979386 -0.087178946 -0.03444704 -0.15746228
-0.027668048 -0.24014781 -0.0144624915 -0.17517863 -0.055536926 -0.12718649 0.055119917 -0.062221486
-0.07382441 -0.36883247 0.066155456 -0.061884783 0.1709571 -0.10573195 0.08811914 -0.081983365
0.034257058 -0.07014921 0.1122148 -0.10432765 0.059755053 -0.16527832 0.12710716 -0.27742425

encoder.layers.0.self_attn.in_proj_weight f4 [192, 64]
00000000: c9fd 18bd 0c02 943c 4e06 4c3e 82e5 04be
00000010: 82ed 1a3d 3382 56be 548c 5cbd df25 d2bd
00000020: 6f1c cdbd ad1c 0d3e b8b3 cdbc bae4 863e
00000030: 017b f63d ae09 72bd fa29 5ebc 343c 923d
00000040: 2cfa f5bc e50d 883c 941c d8bd 5d6e 273e
00000050: c151 57bd 731c 363d 651c b2bc d0bc 2d3e
00000060: 93b0 a53d eff5 c3bb 302e 663d bd5b 19be
00000070: 352d 59bc 57ca f9bd 1317 cfbd e24d 5ebd
00000080: 1729 023d cdd0 45be b059 ecbd a30a cabd
00000090: 166e 2bbb 6bdc 06be e5cb 243e e174 52bc
000000a0: 5b88 e4bd d69c e03d 41aa 0c3e aa22 2cbe
000000b0: 1ee7 b53d 405e d93d e22b 153e 8fe5 25be
000000c0: 276d 9bbd bb6b 0bbd 308c 023e 3dd4 9fbc
000000d0: 0d2b 263e 7be5 21be 73d2 ed3d fd65 01be
000000e0: d4c8 253e 6a5a b8bc e7a2 423e d56e c33d
000000f0: 96f0 313d 40a2 fb3a b2a4 1abe b57a a3bd
00000100: 27d7 ddbd e4c1 93bd b4bd f4bd a610 293d
00000110: 98d3 c6bd bcda 213d f39f 8ebe 0a61 71be
00000120: b71f 35be bd46 36be ea66 fabd f8be 4a3e
00000130: a58a 0e3d ae5c b63c 8a60 4fbd e5e8 583e
00000140: aa6c 573e 96e4 6c3c 179f fabd 4a5e cabd
00000150: 170a 9ebd dac0 1a3d 3291 4abc 3286 15bd
00000160: 38af ff3c ef5e 11be 19e9 343e 7ebe 39be
00000170: c1bd 00bd 9c98 ee3d 93f7 a7bd ea05 3bbd
00000180: 9853 523d 0b38 c8bc f701 193d 871b 433e
00000190: 786c e93d f621 abbd 390b 713e 11ff 8abd
000001a0: 762c d2bd 94a2 423b 3be8 7fbc b015 c03b
000001b0: e7f4 90bd 13a4 cc3d 09a9 693c 4d26 14bb
000001c0: 08f9 38be 6f1b 883d 1297 79bd bae2 153e
000001d0: 48b5 21be 581d f0bd f2bc c03c aa09 c83d
000001e0: 4abf 05bd 6662 70bc 4848 ec3d 5874 9a3d
000001f0: eda0 893d a83b fd3d 70c5 be3d 6b5b 67bd
00000200: 136d 4b3c 2ab1 853d 8681 05bd 1e3c 4ebc
00000210: a84a b53d 291b 123e 41c7 273e 63e3 5f3c
00000220: f955 a83d e2ff f23d b8e8 383e 0ad9 81bd
00000230: 82c2 a63d 0b36 8c3c 4250 f63d 491f e2bd
00000240: 2f3e 2ebe 772a 68bd 265c a43d a9bd 873d
00000250: 8654 66be 3ab8 14be ce3d f1bd 89f0 53bd
00000260: a6d2 b5bc cecd 4e3d 6aa7 bdbb 8c29 7dbb
00000270: a775 fbbd f6db b53c 245f 86bd 213b a73d
00000280: 02d5 8bbd f3c7 dbbd d0fa 3bbd a8cd 363d
00000290: dc64 d83d 1474 543d 6911 543d c6f6 9cbd
000002a0: f10b 123e e492 aebd 8568 f73d 62c9 e0bc
000002b0: dac6 e6bd da82 2dbe d303 ecbd d6f8 073c
000002c0: 11ef 94bd b5e1 0c3d 8243 b73d cf07 20bd
000002d0: fbfa f3bd 8fd8 b63d e0a8 c13d d018 febd
000002e0: 63e7 1abe 8032 03be c977 d6bd 33aa bbbc
000002f0: 8caf 243d fdb2 6a3b 4c34 93bd d4ca 81bd
00000300: 905e 8d3d da9f 67bc ef03 463e 5586 41bd
00000310: db98 063d e1a0 2fbe 00a0 87be 017d 193c
00000320: 39ac f2bd 29cd cf3d 554c c93d e080 123e
00000330: 69e5 dd3d 1b27 93bc 0aa5 8a3e 3311 2c3e
00000340: 97fc 403e 258f 3abe 3c70 e6bd 21ad ebbd
00000350: 6f93 f13d d16f b63d 8cec 533c d7c3 eabd
00000360: fb4c ce3d 0895 ba3b 86bb 403d aaf5 1e3e
00000370: 9e47 353e 9dcc 403e 51b8 3e3d b40f 253e
00000380: e7ee d5bd b177 3cbc ce50 d1bd d9dd d8bd
00000390: d090 f1bd 5d7f 2bbe 83be cebd 3b7a 38bc
000003a0: e408 d4bd ae55 03be b246 0a3d c214 38bd
000003b0: 6267 eebd 743f 6fbc e886 983d 2f86 d6bb
000003c0: 1e91 5e3d 6f59 8f3b 88df a23d ad94 1abd
000003d0: 1f8d 2cbd 654d 42be f558 6a3d f2a1 723d
000003e0: c90e 253d 9541 5bbd f28e 6dbc bd5f 3ebc
000003f0: fcae 57bc 62da 5f3c 02f1 ccbd 0a72 453c
-0.037351403 0.018067382 0.1992428 -0.12978175 0.03782416 -0.20948105 -0.053844765 -0.102611296
-0.10015189 0.1378047 -0.02511011 0.2634638 0.1203518 -0.059091263 -0.013559813 0.07140389
-0.030026518 0.016608188 -0.10552326 0.16350694 -0.0525682 0.044460725 -0.021742055 0.16966558
0.080903195 -0.0059802453 0.05619639 -0.14976402 -0.013255407 -0.121967964 -0.10111823 -0.054273494
0.031777468 -0.19317932 -0.11540544 -0.0986531 -0.0026158146 -0.1317002 0.16093405 -0.012845249
-0.1115882 0.10967414 0.13736822 -0.16810098 0.08881973 0.1061368 0.14567521 -0.16200851
-0.075891785 -0.034038287 0.1274879 -0.019510383 0.1622736 -0.15810196 0.11612406 -0.12636562
0.16189891 -0.02250405 0.19007455 0.09542624 0.04344233 0.0019198135 -0.15101889 -0.07982389
-0.10832053 -0.07214716 -0.119502455 0.041275643 -0.09708327 0.039515242 -0.27856407 -0.23572174
-0.1768788 -0.17800422 -0.122266605 0.19799411 0.03480019 0.02226099 -0.050629176 0.21182592
0.21037546 0.014458796 -0.12237375 -0.098812655 -0.07716768 0.037781574 -0.012363719 -0.03650493
0.03121148 -0.1419637 0.17667045 -0.18139073 -0.031430963 0.11650202 -0.08201518 -0.045659937
0.051349252 -0.024440786 0.03735539 0.1905347 0.11397642 -0.08356087 0.23539437 -0.06786931
-0.102623865 0.0029698955 -0.015619333 0.0058619604 -0.070779614 0.09992232 0.0142614925 -0.0022605837
-0.18063748 0.066458575 -0.060935088 0.1463727 -0.1579181 -0.11724347 0.023527596 0.09767468
-0.03265313 -0.0146718975 0.11537224 0.07541722 0.06720147 0.12364894 0.09315002 -0.056483667
0.012416142 0.06527932 -0.032594226 -0.012587575 0.0885213 0.14268173 0.16384603 0.013665053
0.08219523 0.11865212 0.18057525 -0.06340225 0.08142568 0.017115613 0.12027027 -0.110411234
-0.17015909 -0.056681123 0.080253884 0.06627972 -0.2249318 -0.14523402 -0.117793664 -0.051743064
-0.022195172 0.05048924 -0.0057877796 -0.00386295 -0.122783 0.022199612 -0.065611154 0.08165575
-0.068277374 -0.10731497 -0.04589349 0.044629723 0.105661124 0.051868513 0.051774416 -0.07664256
0.14262368 -0.08524111 0.120804824 -0.027439777 -0.11268397 -0.16944447 -0.11524167 0.008299073
-0.07272161 0.03439494 0.08948423 -0.039069947 -0.11913105 0.08928024 0.094560385 -0.12407076
-0.1512733 -0.12812233 -0.10472066 -0.022908306 0.040206477 0.0035812252 -0.07187709 -0.063375145
0.06902802 -0.014137233 0.19337438 -0.04724725 0.032860618 -0.17151214 -0.26489258 0.009368182
-0.11849255 0.10146553 0.09829012 0.14306974 0.10834772 -0.017962983 0.2707904 0.16803436
0.18846355 -0.18218668 -0.11251876 -0.11507631 0.11795699 0.08908046 0.012934815 -0.11463135
0.100732766 0.0056940354 0.047053836 0.15523401 0.17703101 0.18828054 0.046562497 0.16119272
-0.10445958 -0.011503146 -0.102204904 -0.10589189 -0.11795199 -0.16747804 -0.10094931 -0.011259611
-0.10353258 -0.12825653 0.033758827 -0.04494167 -0.116408125 -0.014602531 0.07447606 -0.0065467576
0.054337613 0.004374675 0.079527915 -0.037739445 -0.04212677 -0.18974836 0.057213742 0.059236474
0.040297303 -0.05352934 -0.014499413 -0.0116195055 -0.013164278 0.013662906 -0.10006906 0.012051115

encoder.layers.0.self_attn.in_proj_bias f4 [192]
00000000: 4760 a6bc cbdb 1e3d 006d dcba 45af 39bd
00000010: 60f8 49bc da34 51bc 9c39 54bc c870 c3bb
00000020: f6eb 87bd 6a27 973c cbc4 4b3d 8312 10bd
00000030: 7abc 4c3d 817b 0d3c beaf d2bc a9fb cf3d
00000040: 36ed 84bc 43cf 98b9 23be 47bc c0a6 283c
00000050: 3e9a 323c a529 2e3d 6e79 523c 6e53 1f3d
00000060: 944a 653d e994 0dbc 0e71 793c f651 813c
00000070: 092b 09bc 0f83 11bd cd1d 3cbc 1bff 373d
00000080: 26ee b2bb 29d2 8d3a ecab 113b e46b bd3c
00000090: 0cd8 e33b ad5c 013d 974e 9dbc 204e 473c
000000a0: bfe7 383c 9603 0b3d 9b17 ca3c 85c6 96bc
000000b0: cd77 343c 39fd 8bbc 7e92 d0bc 5b23 443d
000000c0: f360 81bc 8b4c 00bc 704d 2a3d a64e 4bbd
000000d0: f407 21bc aa20 c1bc 5c50 92bc 90a2 da3c
000000e0: fc25 7e3c f28b 8bbc 19de 91bc e18f b53b
000000f0: b05b 863a 8918 333d e3b3 83bb e336 86bc
00000100: 24a1 b3ba 8912 fcb9 713d 8db7 6b00 673a
00000110: 4f84 1738 1f9f c639 2dc3 5db9 52f6 6939
00000120: 7ba4 213a d451 4d39 d4f9 8ab9 d2e7 e238
00000130: e753 963a 74d8 bcb9 a94c 133a ef0a 33ba
00000140: 2063 40b5 258e 65b9 991f 9639 3c1a dab9
00000150: ae96 68b8 8b67 953a 679c 35ba f66e 8f3a
00000160: 039d 30ba f255 e0b7 93ae 0cb9 52e5 ae38
00000170: 83d9 e739 3520 a6b9 5dea 4236 76cb b038
00000180: f0cb 9239 1e1a a839 5c94 8ab8 3c57 3cb9
00000190: 4cf5 fc39 fc93 0fb4 37cb 39b9 f1c2 0d3a
000001a0: a1d0 52b8 ce70 95b8 9c83 7c39 a15e eb38
000001b0: f20e 52ba b0dc cdb9 b209 423a 83a3 6bba
000001c0: b5f6 3539 e505 bb38 8be6 33b9 a0c4 ca39
000001d0: 12dd af38 252d 85b9 7788 86b8 ce55 8939
000001e0: 4aa1 87b9 412a 5db9 4312 9e38 8de2 47ba
000001f0: 14b8 bc38 2847 5739 9151 d8b7 e193 5439
00000200: 3945 9fbc 4629 1e3c 2d28 1dbc 8e8d 223b
00000210: f2a8 9dbc c13c 14bb ed9f 99bc 6182 0dbc
00000220: 2253 91bb d128 043c 16f6 a0bb ae00 22bb
00000230: e280 313c 6728 b13c f2a0 003d d1f4 b9bc
00000240: 73cc 96bc 5a1b c8bc c11c 3d3b 83f9 38bc
00000250: 8136 94bb e89c 833b 574c 423c 4676 c03c
00000260: 9973 36bb fbdd ffba dd5c 313b f6ad 34bc
00000270: a107 67bc 3124 8fbc 5fb2 a3ba d7e3 aeba
00000280: ed68 073b d50e a23b 998e d23b ab9d efbc
00000290: fac3 863c b7c2 173c 682c 08bd a508 42bc
000002a0: 7c5c e2bb 9de9 c93b 8099 4b3c 5324 64bc
000002b0: 22c8 0e3d 0ae1 2e3b 2818 43bc 1e1e 59bc
000002c0: bb16 07bc 6ed8 15bc 7615 723a dfbb d7bc
000002d0: 31e0 c338 e5c7 323c acc5 883a b0e7 a3b9
000002e0: ad92 b63b 00f3 4a3c a1c7 993a 034f afbc
000002f0: 2560 633b 2fff 38bc 6cca ee3b 356e 4cbc
-0.02030958 0.03878383 -0.0016817153 -0.045333166 -0.012327284 -0.012768948 -0.012953188 -0.0059643723
-0.06636803 0.018451411 0.049748223 -0.035173904 0.049984433 0.008635403 -0.025718566 0.10155422
-0.016226392 -0.0002914612 -0.012191328 0.010293663 0.010901032 0.042520184 0.012846334 0.038897924
0.055979326 -0.00864146 0.015224708 0.015786152 -0.008372077 -0.035525378 -0.011481714 0.044921022
-0.0054605184 0.0010820079 0.0022227718 0.023122735 0.006953245 0.031582523 -0.019202514 0.012164623
0.011285721 0.033938967 0.02466946 -0.018405208 0.011014891 -0.01708852 -0.025460478 0.04788528
-0.0157933 -0.007830749 0.041577756 -0.049635552 -0.009828556 -0.023575146 -0.017860584 0.026688844
0.015511986 -0.017034505 -0.0178061 0.0055408333 0.0010250714 0.04372457 -0.004019247 -0.016383594
-0.001370464 -0.00048078995 -1.683712e-05 0.0008812013 3.6124427e-05 0.00037884057 -0.00021148911 0.00022312373
0.0006166172 0.00019580807 -0.00026507548 0.000108197 0.0011469097 -0.00036019424 0.0005619028 -0.00068299373
-7.166982e-07 -0.00021892095 0.00028633772 -0.00041599746 -5.545344e-05 0.0011398656 -0.0006927908 0.0010943103
-0.0006737264 -2.6742902e-05 -0.00013416474 8.339681e-05 0.00044221812 -0.00031685983 2.904467e-06 8.4302315e-05
0.00027999235 0.00032062916 -6.607987e-05 -0.00017961574 0.00048247946 -1.3371749e-07 -0.00017718678 0.00054077717
-5.0262202e-05 -7.125885e-05 0.00024081621 0.00011223299 -0.0008013091 -0.00039265072 0.00074019574 -0.0008988904
0.0001735341 8.917953e-05 -0.00017156654 0.0003867494 8.385828e-05 -0.00025401372 -6.4150365e-05 0.00026194606
-0.00025869376 -0.00021091943 7.5374286e-05 -0.0007625006 8.998826e-05 0.00020530506 -2.5787189e-05 0.00020272985
-0.019442188 0.009653395 -0.009592098 0.0024803611 -0.019245598 -0.002261922 -0.018753016 -0.008637042
-0.004434959 0.008066372 -0.004912148 -0.0024719643 0.010833951 0.02162571 0.03140349 -0.022699745
-0.018408036 -0.024427105 0.002885625 -0.011289957 -0.004523099 0.0040165074 0.011859021 0.023493897
-0.0027839898 -0.0019521111 0.0027063407 -0.011027804 -0.01410094 -0.017473312 -0.0012489072 -0.0013343048
0.0020661906 0.004945616 0.0064256904 -0.029249987 0.01645087 0.009262732 -0.033245474 -0.011842881
-0.0069079977 0.006161882 0.012426734 -0.013924676 0.03485883 0.0026684427 -0.011907615 -0.013251809
-0.008245165 -0.009145839 0.00092347653 -0.026334701 9.3400835e-05 0.010911916 0.0010434887 -0.00031262403
0.0055716843 0.012387037 0.0011732468 -0.02139998 0.0034694758 -0.011291309 0.007287314 -0.012477447

encoder.layers.0.self_attn.out_proj.weight f4 [64, 64]
00000000: c23a 863d 8181 d73d 4311 ad3d b0c4 0d3e
00000010: 3422 253c 626e d5bd b7bc e43c 0ce2 e7bc
00000020: f711 edbd 70bb cdbd ddee eebd 49a9 8cbd
00000030: 9381 a93c 359a 88bd 46ca 0dbe 44f6 053e
00000040: 44f7 debb 74f7 f8bd ad1d f0bd da22 d8bc
00000050: 3392 ddbd 294c 8b3d 03f2 7f3c 9720 583d
00000060: 8725 063e 9279 85bd c58d 86bb 60b5 b3bc
00000070: b3b3 d43d 4e57 58bd 6401 8bbd 1ca8 02be
00000080: 7465 a23d 9658 62bd 22d8 bf3d 806c 8cbd
00000090: 6aff 9abd 2940 b2bd 7876 173d c1ae 053e
000000a0: 902b 0dbd d4dd dbbd ab7f 5e3b 1bdf d33d
000000b0: d884 e73d 47d1 77bd c156 cdbd 6415 b73d
000000c0: f988 88bd 0ebc f43d b450 a23c 3033 d7bd
000000d0: 05a0 2fbd f30d 32bd 5e7f e7bd 144c a73d
000000e0: 9d8a 383d f161 c9bd 4243 c83d 321b f8bd
000000f0: 070c 8fbc 8b0c 793d 99be 89bd 23e0 0a3e
00000100: b7f5 51bb 2ae8 1abe e4bd 03be 84f5 8abd
00000110: a2d1 c23d cfbf cb3d 6f2a 273d 6d91 a3bd
00000120: c2a3 723d 15a9 dfbd 240c f43c 419c b33d
00000130: 5f54 ff3d aee3 a7bc 94c1 cabd e9da 08bd
00000140: ded6 d13d 071a 6abc 0b1b 9ebd b976 ef3c
00000150: 3707 d73d 0010 ae3d 82f8 8abd 7f8e 00be
00000160: 5cf3 5d3c 7165 c53d f22f 81bd 8a5e d43c
00000170: e964 083d fbdc b53d 2d53 5b3d 31cb dd3d
00000180: 5374 153e ffd0 a9bb 7390 74bd 19b3 9ebd
00000190: 6624 a23c 38ce adbd 1cd5 2b3e eccb 10be
000001a0: 00cb 51bd 4a71 f2ba 24ae 02be fafb 683d
000001b0: 2411 e03d ef7e 2ebd d1a9 eabd 9bdf eabd
000001c0: 6286 cbbd 0567 9c3d e56d b8bd e430 f7bd
000001d0: 6eaf 8b3d 5374 dbbd 77e1 a03c ffc2 1c3d
000001e0: 7efb 26bc 2139 f73c a2a3 503d d6d5 d73d
000001f0: 6e8c ea3d fbba 023e 9a1c 5b3d 11f7 63bd
00000200: da30 d93d 2d1e 303c 0959 0a3e 9575 be3d
00000210: f4ee a73d d406 88bd f588 533e 0083 393d
00000220: 72a4 0abe 0cd5 b3bb 2a09 1abd 2ca1 823d
00000230: 9c09 b2b9 959e cfbd d51a 1e3d 9c69 21be
00000240: d580 2c3c ea30 af3c 3ee1 4f3c dec9 13be
00000250: 9891 64bd 8cee a3bd 5f26 7f3b f189 ffbc
00000260: 1f4a 7fbd 7020 96bd 316d 263d 8aae 50bd
00000270: 1307 1b3c 0b6e 013e d72f b53d 41c3 f0bd
00000280: 7f49 48bd db83 35bd 1d5c d23c ebc6 6c3c
00000290: e98e f43d e5e0 2cbe 6d86 39bd 55ec c33c
000002a0: 55ef fbbc de07 243d c107 a1bb 6b4e 5ebe
000002b0: 2efb 84bd b23c 503d f3c9 ae3c e8a2 bd3c
000002c0: b770 f73b b3fc 953d 41fb 0e3d fc7f 843d
000002d0: f39d 8bbd 6199 463c 3c50 17bd 05fe 24bd
000002e0: 071a 0ebd 870d 8abc 239e 133d 5e80 433a
000002f0: 89a4 243d bb65 ad3d 1d33 903b 2bb1 893d
00000300: 2149 a3bd 8c03 f4bb f6b7 01be 4cef aabd
00000310: ef2b aa3d 8331 953d a145 b2bd 06be e13d
00000320: b36c c63d b8fd c33b af53 06be f40f 54be
00000330: de37 313e 3156 44bd 552b 0e3c ccb8 97bd
00000340: d7de 24bd 59db 003c 2fba bfbd 7998 ca3d
00000350: a483 a43d 5d84 0bbe d97d 85bd c3a5 063d
00000360: 9893 80bd 3b7b 353e 18aa 393d 3246 563d
00000370: ebf2 9abd 789b a63d c357 c3bd e4fa 70be
00000380: d7ff b3bd eaa5 07be 32ae 4f3d 70c0 e33c
00000390: 98d8 733d 9a38 2cbd ab0c 53bd 236b 8f3c
000003a0: b74c b4bc 224d e43d 97ec 95bd e5b9 87bd
000003b0: 7d5a 1ebc efcc 3d3e 4956 adbd 5f51 a73c
000003c0: f575 00be 5e6f 0fbe d77b 4dbd 75c9 2cbd
000003d0: 8f3d 2b3c 027e 7e3d 5b18 9ebd 45e1 09be
000003e0: 26da 68bd a66a 663d 7cb3 e1bd 3299 49bd
000003f0: ada7 8fbc a26a a33d b086 b63b 9157 0fbd
0.06554176 0.10522748 0.08450558 0.13844562 0.010078955 -0.104214445 0.027922017 -0.02830603
-0.11575692 -0.100455165 -0.11666653 -0.06868226 0.020691669 -0.06670038 -0.13846692 0.13082224
-0.0068043787 -0.12156573 -0.1172441 -0.026383806 -0.10818901 0.06801636 0.015621665 0.052765455
0.13100253 -0.06517328 -0.0041062557 -0.021937072 0.103858374 -0.052817635 -0.067873746 -0.12759441
0.07929507 -0.055260263 0.09367396 -0.06856632 -0.075682476 -0.08703644 0.036978215 0.13054945
-0.034465373 -0.1073567 0.0033950608 0.10345288 0.11304635 -0.060502317 -0.100263126 0.08939627
-0.066667505 0.11949931 0.019813873 -0.1050781 -0.042877216 -0.043470334 -0.1130359 0.081688076
0.045054067 -0.09833134 0.097784534 -0.12114562 -0.01746179 0.060802978 -0.06725807 0.13562064
-0.0032037327 -0.15127626 -0.12865406 -0.0678511 0.095126405 0.09948694 0.040811952 -0.07986722
0.059238203 -0.10920922 0.029790945 0.087700374 0.124672644 -0.020494308 -0.09900203 -0.033411894
0.10246061 -0.014288432 -0.07720002 0.029231416 0.10499423 0.084991455 -0.0678568 -0.12554358
0.013546791 0.09638489 -0.06307973 0.025923986 0.03329936 0.08880039 0.05354612 0.10829771
0.14595155 -0.005182385 -0.05970807 -0.07749004 0.019792747 -0.08486599 0.16780514 -0.1414029
-0.051218987 -0.0018496898 -0.12761742 0.05688093 0.10940769 -0.042601522 -0.11458171 -0.114684306
-0.09937741 0.07636837 -0.09005336 -0.12069872 0.0682057 -0.107155465 0.01963876 0.0382719
-0.010191796 0.030178608 0.050937302 0.10538833 0.11452566 0.1276664 0.053494073 -0.055655543
0.10605021 0.010749382 0.13510527 0.09299771 0.081998736 -0.06641927 0.20657714 0.045290947
-0.13539293 -0.0054880437 -0.037606396 0.06378397 -0.00033957965 -0.10137669 0.038599808 -0.15762943
0.010528763 0.021385629 0.012687979 -0.14432475 -0.05580291 -0.080044836 0.0038932783 -0.031193705
-0.062326547 -0.07330406 0.040631477 -0.050947703 0.009462136 0.12639634 0.08847015 -0.11755992
-0.048898216 -0.0443152 0.025678689 0.014451723 0.119413204 -0.16882665 -0.045294214 0.023916403
-0.03075377 0.040046565 -0.0049142544 -0.21709602 -0.06493221 0.050839134 0.021336531 0.023148969
0.0075512785 0.07323589 0.034907583 0.064697236 -0.06817236 0.012121529 -0.03694175 -0.040281314
-0.03469279 -0.016852153 0.036039483 0.0007457788 0.040195975 0.08466669 0.0044006244 0.06723245
-0.079729326 -0.007446712 -0.12667832 -0.083464235 0.08309161 0.07284834 -0.08704687 0.11022572
0.096887015 0.0059811734 -0.1311786 -0.2070921 0.17306468 -0.04793376 0.008677323 -0.07408294
-0.04025158 0.007864797 -0.093616836 0.09892363 0.08032921 -0.13624711 -0.06518144 0.032872926
-0.06278151 0.1772279 0.04532823 0.052313037 -0.07565864 0.08135122 -0.095382236 -0.23533207
-0.08789032 -0.13246885 0.050703235 0.027801722 0.05953273 -0.042046167 -0.051525753 0.017507141
-0.022009237 0.111475244 -0.073205166 -0.066272534 -0.009665129 0.18535207 -0.08463723 0.020424543
-0.12544997 -0.14007327 -0.05016693 -0.042184312 0.010451688 0.06213189 -0.07719489 -0.1346484
-0.056848668 0.05625405 -0.11020562 -0.049218364 -0.017536009 0.07979323 0.005570255 -0.03499562

encoder.layers.0.self_attn.out_proj.bias f4 [64]
00000000: a404 4a3d 6816 773c e62b c5bb 79ed 66ba
00000010: b41f c6ba 4d5c e33c 97c1 6b3c 772e ca3c
00000020: f51a d73c c63a d93c a8d7 9c3b 7f55 9a3a
00000030: a47d ba3b d11a da3b c8f1 f73c f4e2 e73c
00000040: 040b ec3b de88 1f3b 4f9f 8d3b 9ac0 cf3c
00000050: 3bbc 953c 6393 173d b900 bdbb 64f6 d93c
00000060: 4409 473b db60 6c3b 7592 c9bb 4555 ab3c
00000070: ac27 87bd 9fef 38bd 7c7a 38bc 0f81 c1bc
00000080: 3d82 353c c176 1bbd d25b ac3b 4cb1 a8bc
00000090: 2250 503c aa2a bebb 2b10 8c3c d4c6 413c
000000a0: 0566 1dbd 5ba1 82bc 20d6 be3b b127 c93b
000000b0: 463b f6bb a929 96bc 80ef 72ba f04c 0ebc
000000c0: add3 a63a 7991 863d 7c20 c43c 466e 88bc
000000d0: 3d22 81bc e302 033c 94e9 b13c d1d9 48bc
000000e0: b397 63bb bfa5 3d3c 391a 363d 2289 2fbd
000000f0: 0ef0 a8bb f1ef 0bbd 8cd3 8cbc fdde e9bc
0.049320832 0.015081026 -0.006017196 -0.000880919 -0.001511565 0.027753973 0.014389417 0.02468036
0.026257971 0.026517283 0.0047864504 0.0011774747 0.005691247 0.006656029 0.030266657 0.028306462
0.0072034616 0.0024343054 0.0043219696 0.025360394 0.018278232 0.037005793 -0.0057679084 0.026606746
0.0030370513 0.0036068473 -0.0061514922 0.020914683 -0.06599364 -0.045150395 -0.011259671 -0.02362111
0.0110784145 -0.03795505 0.0052599693 -0.020592354 0.012714418 -0.005803426 0.017097553 0.0118271895
-0.03842737 -0.01594608 0.0058238655 0.006138765 -0.00751439 -0.018330412 -0.00092672557 -0.0086853355
0.0012727879 0.065707155 0.023941271 -0.016654145 -0.015763396 0.007996294 0.021717824 -0.012258963
-0.003472787 0.0115751615 0.0444586 -0.04285539 -0.00515557 -0.034164373 -0.017190717 -0.028548712

encoder.layers.0.linear1.weight f4 [128, 64]
00000000: 027f d73c bf35 2f3d 1542 293e 306c ffbc
00000010: da1f b03d 90bf d53d aba4 9abd 0206 793d
00000020: cc77 15bd ea00 903d 0494 433d d7c5 81bd
00000030: 4203 293e 53da 853e 943b 28bc bf89 123d
00000040: e291 fb3c cf69 3f3d ef48 083e 6930 babc
00000050: b92c 493c 4f58 c73d db6d cfbc c7a2 87bc
00000060: 6a2b 1b3e 5aa7 0c3c a0a8 77bb b9ce 003e
00000070: f0b6 ec3c 32a0 22bd c6cf 1ebc b479 9c3d
00000080: dbad 55bd 9990 323c 9fad 10be 5f15 3e3d
00000090: 8870 8abd 2e92 063d ceeb d0bd 5b17 03be
000000a0: eebb 403d ef51 0dbe 5359 803c bf59 12be
000000b0: 4da0 3c3d 09c0 31be 4260 2cbe a60d 843c
000000c0: 60e1 193e 8d9e dcbd 446f c53c 90df 193d
000000d0: ed27 0cbd ae14 33bd f9a1 af3d f813 19bd
000000e0: c47b 5c3d c681 833d 98cd 99bd 9f00 24bc
000000f0: 3ad4 d5bd 1021 c83c acc2 173e 129b 04be
00000100: 9ea8 163d 9859 913d d6ef 143e bf3e 0c3d
00000110: 3603 cfbb ee65 f2bd 5338 b93d cae7 2cbb
00000120: 12fd 663c b843 cbbd 4e88 82bc b6c2 b3bc
00000130: 1f66 303d 3d32 163e 07c6 bb3d 7ad8 613b
00000140: fd9b b13d 0047 d6bb 0f75 0f3e 2f41 f9bd
00000150: c2ce ad3b 0e9d 5a3d 5efd 42bd fb03 0bbe
00000160: 416a 713c 9f08 4fbe b5d3 9bbd ca50 2e3d
00000170: cbc8 42bd be9e 043e a7c3 c7bd cb32 6c3d
00000180: d68b b3bd bd52 2fbc 6ef3 9c3d 3caa 7dbe
00000190: e0b5 1bbb 8b5c 53be 9616 1abc 6901 e2bd
000001a0: 21f8 afbd 8e20 47bd df28 5ebe 6baf bcbd
000001b0: da24 1d3e 0f14 823b 94d6 e6bd a9a1 743d
000001c0: 59ed d43e f8cd 2dbe da2d b43e 2f27 a8bc
000001d0: 2ce3 83be 1068 b2bd 427f 593e 5af0 dabd
000001e0: 485d 533e 89c5 febd 068b 8cbb c98e 11bc
000001f0: 1a37 f63d f3dc fbbd 63de a03b 4bc1 b1bc
00000200: 6ff7 53bd d111 083e 67fe 82bd 8194 503e
00000210: 73c6 213d b787 07bd 5d3a ec3d b2ab e2bc
00000220: 5e22 e6ba 70b7 6cbd ac7c d8bd e682 54bd
00000230: e075 06bd c629 c23c daa1 013e b1d2 cb3d
00000240: 071c 703c 568b 34bc 0469 ebbd fb4e dbbd
00000250: dd5b 14be 6b12 d0bd ffc1 ffbc b091 21bd
00000260: 7bcf 34bd 5e4e d33d c6fb f2bc e7e9 113d
00000270: b02c de3d d1d0 0e3d 0c3f b4bd 83ee 0a3e
00000280: 3cc5 14be c8ea 3b3a c58a a43d a5a4 b1bd
00000290: 9db4 debd e07a 933c dba4 c4bd 2f48 c8bc
000002a0: e7a4 fb3d 7244 5e3d 3f47 3c3e ce69 813d
000002b0: 3f49 cabd 378f 8fbd d017 623c 4f89 8cbd
000002c0: 052f bdbd 0521 00be 3d46 223d cce1 873d
000002d0: 6a09 5e3e 914d 633d 8083 89bd d2fe 553d
000002e0: baec 293e 79e1 16bd 9c48 1bbd 471d a5bd
000002f0: 512a 383d c200 973d 6add 393d 8fda c1bd
00000300: abd6 403d 036d 1ebd 78b0 8e3d 4276 d8bd
00000310: eaf4 f63d e314 b53c 34fc 883d 43c4 0c3e
00000320: 46e6 313d 42ec 29bd d194 5cbd 508f fd3d
00000330: c13c 653c 2202 5c3e e732 bfbc 1399 0d3e
00000340: 5fd2 a8bc 70c1 a23d 85eb 0c3d 9609 403d
00000350: fc77 21bd d145 fdbc bfe8 44be faa7 b83d
00000360: bb6f 6b3d e8c8 333e 2097 503d 4745 353d
00000370: 95b3 103e dfdf ebbd 4235 503d df10 9e3d
00000380: 790e 45bd 282f c1bc 8597 7fbc acc9 e6bc
00000390: 17cc a0bd f826 543c a124 89bd edc4 e4bd
000003a0: e445 2cbb 416b 433d b50c 4a3e 5b3a a5bd
000003b0: ea3f 5c3d a1cb 39be 3d2f 99bc f06d 783c
000003c0: 13af 05be dc99 b73c e2de d1bd 5eb7 7dbd
000003d0: 2eb0 c13d 0ada 4fbd d1bf 7dbd c161 0abd
000003e0: 6010 173d 1e09 aebc 4ab3 433d aa1f 283d
000003f0: f78c d13d 09d7 5bbb 4f92 7dbd 4db5 48bd
0.02630568 0.042775866 0.16529115 -0.031179518 0.08599825 0.10436928 -0.07550939 0.060796745
-0.0364912 0.07031424 0.04774858 -0.06336563 0.16505149 0.2614313 -0.010268111 0.035775896
0.03070921 0.046731766 0.13309072 -0.022728162 0.012278729 0.097336404 -0.025320938 -0.01655711
0.1515328 0.008584822 -0.0037789717 0.12578858 0.028895825 -0.039703555 -0.009693092 0.076404005
-0.052167755 0.010898733 -0.14128731 0.0464071 -0.06759745 0.03285425 -0.10201226 -0.12801878
0.047054224 -0.13800786 0.015667593 -0.14292048 0.046051312 -0.17358412 -0.16833594 0.01611979
0.1502738 -0.10772429 0.024100907 0.03756672 -0.034217764 -0.043720894 0.08575816 -0.03737256
0.05382897 0.06421237 -0.07509917 -0.010009914 -0.1044087 0.024429828 0.14820355 -0.1294978
0.0367819 0.07097167 0.14544615 0.034239527 -0.0063175214 -0.11835848 0.09043946 -0.0026383274
0.014098423 -0.09925026 -0.015934136 -0.021943431 0.04306614 0.14667602 0.0916863 0.0034461305
0.086723305 -0.0065392256 0.14009498 -0.12170636 0.0053041885 0.053372435 -0.04760491 -0.13575737
0.014734806 -0.20218132 -0.07608739 0.042557515 -0.047554772 0.1295118 -0.097541146 0.057665627
-0.08766906 -0.010700879 0.07663618 -0.2477197 -0.002375953 -0.20640771 -0.009404799 -0.11035425
-0.08592249 -0.04861503 -0.21695279 -0.09213146 0.15346089 0.0039696763 -0.11271396 0.059724484
0.41587332 -0.16973102 0.35191232 -0.020526497 -0.25759256 -0.087112546 0.21239951 -0.10690375
0.20641053 -0.124400206 -0.004289034 -0.00888414 0.120222285 -0.12298002 0.004909323 -0.021698615
-0.051749643 0.13288046 -0.0639618 0.2036915 0.039495897 -0.033088412 0.115345694 -0.027669761
-0.001755785 -0.057792127 -0.10570654 -0.051882647 -0.032827258 0.02370156 0.12659398 0.099522956
0.01465512 -0.011019548 -0.114946395 -0.10708424 -0.14488168 -0.10159763 -0.031220434 -0.03944558
-0.04414318 0.10317682 -0.02966107 0.035623457 0.10848367 0.03486711 -0.08801088 0.13567548
-0.14528364 0.0007168469 0.08034281 -0.086739816 -0.10874293 0.018002927 -0.09601756 -0.024448482
0.12287312 0.054264493 0.18386553 0.06319009 -0.09877252 -0.07009738 0.013799623 -0.06862127
-0.09237484 -0.12512596 0.039617766 0.06634864 0.21683279 0.055493895 -0.06714535 0.05224497
0.1659421 -0.03683612 -0.037911043 -0.08062225 0.04496223 0.073731914 0.045377173 -0.09465515
0.047079723 -0.03867818 0.069672525 -0.10569431 0.120584324 0.022104686 0.06688729 0.13746743
0.043432496 -0.04148508 -0.05385286 0.1238085 0.013991536 0.21485189 -0.023339702 0.13827924
-0.020608125 0.079470515 0.034404296 0.04688414 -0.039421067 -0.03091708 -0.1922941 0.09016414
0.0574796 0.17557108 0.050925374 0.04425552 0.14131005 -0.115173094 0.05083204 0.07718062
-0.048109505 -0.023582056 -0.01560009 -0.028172337 -0.07851427 0.012948744 -0.066964395 -0.11170373
-0.0026286775 0.047709707 0.1973141 -0.08067771 0.05377189 -0.18144085 -0.018699283 0.01516293
-0.13055067 0.022412233 -0.1024759 -0.06194245 0.09457432 -0.050745048 -0.06195051 -0.03378463
0.03688085 -0.021244582 0.047778405 0.041045822 0.10231965 -0.003354492 -0.06190711 -0.049001027

encoder.layers.0.linear1.bias f4 [128]
00000000: b060 253d ed2f 5ebd eadf dcbb 281a 5f3d
00000010: 53ae 2ebc d62e eabc 5d5b 8bbd 725b 993c
00000020: 3abb 5c3d b1a8 d83c fa8a 443d a871 0ebe
00000030: 5c17 21bd 40d6 6abb 324e cd3d 42c9 4bbe
00000040: d60b 6a3d b6c7 55bc 5360 083c 451b cc3d
00000050: 8b25 f4bd 4167 013d 8f17 babc dcda 9cbd
00000060: 3335 3fbd b428 5fbd bb5b a93d 62ef 99bc
00000070: bfaa 8abd 689c 98bd 6480 a43d 1b3c d7bd
00000080: e218 0fbe 6173 33be 64c9 f0bd a4ba 143b
00000090: 89ae 7f3d b23d 693d d644 89bd b1ae 30be
000000a0: f399 15be 2653 37be 74ec 823d 19ef 2ebe
000000b0: 5111 eebc 85dc cebd 06d2 10be 487b e7bd
000000c0: 4c2c 073c 0bb5 61bc 454f 12be de02 ce3c
000000d0: 3999 873b 6c37 39bd 1fad 10be c276 82bc
000000e0: 5344 45bc 3245 99bc 7b31 cdbd 3e67 7b3b
000000f0: 71d0 f8bd 017b 153c 5dcf de3c acd9 b13d
00000100: cec6 b9bd 5981 a53d 5009 07bd c5cb a5bc
00000110: 7727 893c 1a18 e0b9 29dd 503c d400 40bc
00000120: c234 b0bd d529 623d 16e4 1cbe d888 2dbe
00000130: 5e3b 39bc a150 e1bd 103a 8abc e818 f9bd
00000140: 6559 eebc 18c3 95bd d5c7 393b 3bf8 473b
00000150: bad3 46bd 21ff e6bb f067 f9bd 4121 903d
00000160: f16f dcbc 0436 a8bd 4226 55bc 6703 bfbd
00000170: caef 993d 524e b8bd 3278 02bd 4cc9 cf3d
00000180: 9f31 6b3a b2d3 cdbd 93d7 1abe 7605 463d
00000190: 52d3 0a3d a0ba 5bbc e790 19bd 1f85 403d
000001a0: 5f03 81bd 99d0 bdbb 52a8 5a3d 9ac1 1abc
000001b0: 7a9c 393d 1b95 abbd 7d07 01be a391 efbd
000001c0: 3e45 4fbd cf7a 3e3d 5a80 1cbe f9ca 22bd
000001d0: 9788 04be b656 453c f0d7 b4bd 849d eebc
000001e0: 7cdc 72bd d800 bc3c 18ae 1dbd 42ee 20bd
000001f0: 0d9e bfbd 5746 0cbe 8098 e4bd 8f54 583d
0.04037541 -0.054244924 -0.00674056 0.054468304 -0.010661679 -0.028586786 -0.068045355 0.018720362
0.05388949 0.026447626 0.0479841 -0.13910544 -0.039328918 -0.003583327 0.1002468 -0.19900993
0.057140194 -0.013048103 0.008323747 0.09966139 -0.11921223 0.03159261 -0.022716312 -0.076589316
-0.046681594 -0.054482177 0.08269449 -0.018790904 -0.067708485 -0.07451707 0.08032301 -0.10509511
-0.13974336 -0.17524482 -0.11757162 0.0022694254 0.06242231 0.056943603 -0.067025825 -0.1725414
-0.14609508 -0.17902812 0.06392756 -0.17083396 -0.029060991 -0.101006545 -0.14142618 -0.11302811
0.008250307 -0.013776074 -0.14288051 0.025147852 0.0041381386 -0.04521887 -0.1412854 -0.015925769
-0.012040216 -0.018709753 -0.10019203 0.0038361098 -0.12149132 0.009123565 0.027198488 0.08684096
-0.09071122 0.08081312 -0.032967865 -0.020238766 0.016742451 -0.00042742566 0.012748041 -0.011718947
-0.08603813 0.055215675 -0.15321383 -0.16946733 -0.011305658 -0.11001707 -0.01687339 -0.121629536
-0.029095361 -0.07312602 0.002834787 0.0030512947 -0.048541762 -0.0070494567 -0.12178028 0.07037593
-0.026908847 -0.08213428 -0.01300961 -0.09326821 0.07516439 -0.089993134 -0.03185291 0.10145816
0.00089719327 -0.10050143 -0.15121298 0.04834505 0.033892937 -0.013411194 -0.037491705 0.047001954
-0.06299471 -0.005792689 0.05338318 -0.009445572 0.045315243 -0.08378049 -0.12600513 -0.116977
-0.050603144 0.04650384 -0.15283337 -0.03974435 -0.1294273 0.012044599 -0.08830249 -0.029127844
-0.0592923 0.022949621 -0.038496107 -0.03928972 -0.09356318 -0.13698708 -0.111618996 0.052815016
