BDG2/results/Autoformer-BDG2.pt (torch, 134742 bytes, 31 tensors)

enc_embedding.weight f4 [64, 4]
00000000: 26f1 3dbe f2ec 5d3e c96a 033f d194 f93d
00000010: 9fc5 b1be 49b2 613d a70f f9be d1ed 87be
00000020: b58e ea3e d702 0bbf 5731 b3be 20be a43e
00000030: 8866 e4bc 4305 d43e d564 d8be da8d 10bd
00000040: 8d7d 83be e3d9 11bf 0659 e63e 26f4 063f
00000050: 4c26 fe3d 9300 8e3e 6806 fb3c 823f 9f3e
00000060: cd03 3bbb 2824 90be 5fd0 c93e 6933 163e
00000070: eec9 7e3e c9d6 a23c e8e8 e3be 93e5 8bbe
00000080: fd54 623e e86c babe f733 513e 3275 d0be
00000090: a77b d03e 07cd f23e 9bb1 a8be 7fa1 0fbe
000000a0: 0621 3bbe 50e9 6e3e 0547 4fbd 028c c5be
000000b0: cecc 8a3d 9678 d13e fe7d 5e3d 2ba3 94bd
000000c0: 15b5 f43c 13c7 87bc 9a8d 92be 0946 7f3e
000000d0: 1a19 3d3e 85bd dcbe a5ae f33c 0d44 b73c
000000e0: ee7d 81be 01b1 0fbf d2bc f3bb f13d b5be
000000f0: a860 3bbe 5aec 9ebc ac99 08be ffbe 9abe
00000100: 643b 00be 3ed6 023e 6e5b f73d 4f6b c43e
00000110: ea60 cfbe 8fcc b93e 9334 8bbe e9b5 b8be
00000120: 3485 dcbe fdd1 9bbe cc23 c3be 7d55 b83d
00000130: 3062 afbe dc0b 83be f32c e33e f37e 813e
00000140: d6f1 42be 421e c9be 4784 f7bd e4f2 febd
00000150: b75c d93d fbc5 b9be 603b 95be 8652 48be
00000160: 0d0e 05be 19fb 94be a5ad d4be fb9d 8e3c
00000170: 0cf3 e03d 8daa 58be 6268 d4be 0072 d7be
00000180: c844 d3bb 06e7 eebd a2e1 acbe 66b4 8ebe
00000190: 7d9c 753c 1e2a e7bd 1c9d 0b3e 7ad9 bcbe
000001a0: b456 a53e 406c 01be 9794 babe 4166 4cbd
000001b0: 66bf f7be 2928 48bc 5c86 e4be a2e1 5bbe
000001c0: a3cf f5be 1a6f 853e edf8 a8be 23a1 98be
000001d0: e209 73bd 8627 8a3d d229 f6bd 18d1 e5bd
000001e0: 3afb 783e e873 acbe 3a4e b0be b1ab c5be
000001f0: 1ea4 cabe 9a88 88bd 3a5c e93d e313 5e3e
00000200: d731 f0be 986b 5d3e 5004 99be b794 bc3e
00000210: b605 5abe 82f5 a13e 6205 87be 2620 8a3c
00000220: 682f 5f3e 461a 6dbe 44b6 c43e 0bc3 86be
00000230: a55a 52be 4cf4 01bf 560a e7be 16cb 943e
00000240: 1e6a d6bd bf3f 0d3f 25f8 14be f7de dcbe
00000250: 25ff acbe d172 bb3e 62b1 47be c39a ec3d
00000260: 060f 8d3e a9ba e03e ebc8 28be 9ae5 a63e
00000270: aa8f da3e fce1 b93e e001 78be 8a88 283d
00000280: 8223 92bd af9f b53d 66ba fb3e d8f4 e13e
00000290: b4c9 71be 6143 9f3c d8e8 993e d532 8b3e
000002a0: 78af b73d bce5 80be 0835 d03e 1f6f aabe
000002b0: 2521 ab3e 3aa8 5c3e ca36 f0be c262 543e
000002c0: 045c f3be 667d 12bf b883 f8be 5785 edbe
000002d0: 49d2 b03d 97be a63e 4adc f0be e5da c23e
000002e0: 3659 59be fb55 04bf 7c02 11be a1ac f43d
000002f0: 28ec c43d d194 b53e 8830 a6be b6ed bf3e
00000300: a03d c2bd 1aca 093e c45e fd3e 4e60 9ebe
00000310: fa7c a7be 32ee ab3c c8fe a63d 9d00 a63e
00000320: e55c a3be 4ab6 febe 3394 54be ef29 e7be
00000330: 278a 94bd b6df 15bf 34dd afbe 1d02 043f
00000340: bbaf d0be 4ef7 67be ac94 a8be 2457 b1be
00000350: acf6 eabd 2e0b 77be 6d4a 093e 3578 8c3d
00000360: 0b49 5f3e 6fc3 013f aece d83d 2f98 643e
00000370: d8bc 5c3e 1954 adbe d9a0 ebbd f848 95be
00000380: 7411 7b3e 826d a13e 621a 86be c23b e8bc
00000390: bf83 8ebe 215e 05bf da72 c43e 7852 783d
000003a0: c5ae 99be 1e98 04bf 8fed 87be 8e5b d53d
000003b0: ee90 e8be 0c56 6dbe 5ca6 b2be fa67 ef3d
000003c0: f052 1abe c662 d13e 65c4 77be dd41 de3e
000003d0: 6fb6 f8bd 2654 67bd 7485 e3bd 3b9e a03e
000003e0: e772 d43e 7cbc cf3e 0c1d 66bd a0c1 583e
000003f0: 34ea 86bc b550 60be 819a d23e ccec 293d
-0.18549022 0.21672419 0.51334816 0.121865876 -0.34721085 0.055101667 -0.48644754 -0.26548627
0.45812002 -0.5430121 -0.3499858 0.32176304 -0.027880922 0.41410264 -0.4226443 -0.03529153
-0.25681725 -0.56973094 0.44989794 0.5271629 0.12409648 0.27734813 0.030642703 0.3110314
-0.00285362 -0.28152585 0.39416787 0.14668049 0.24881718 0.019877808 -0.4451363 -0.2732359
0.22102733 -0.36411214 0.2042998 -0.40714413 0.4071934 0.47422048 -0.32948002 -0.1402645
-0.18274316 0.23331189 -0.05060484 -0.3858338 0.06777345 0.40912312 0.054319374 -0.07257684
0.029871503 -0.016574418 -0.28623658 0.2492906 0.18466607 -0.43113342 0.029746363 0.022371316
-0.2529139 -0.5612946 -0.0074382806 -0.3539882 -0.1829859 -0.01939981 -0.13339871 -0.30223843
-0.12522656 0.1277704 0.12077986 0.3836312 -0.40503627 0.36288878 -0.27188548 -0.36076286
-0.43070376 -0.30433646 -0.38113248 0.090006806 -0.342546 -0.25594985 0.4437023 0.25292167
-0.19037566 -0.39280897 -0.12085777 -0.124486715 0.10613387 -0.3628386 -0.29146862 -0.1956273
-0.12993641 -0.29097822 -0.4153873 0.017409315 0.109838575 -0.2115881 -0.41485888 -0.42079163
-0.0064474083 -0.11665158 -0.33765894 -0.27872008 0.014990923 -0.1128733 0.13634151 -0.3688467
0.32292712 -0.1263895 -0.3644149 -0.049902204 -0.48388213 -0.012216606 -0.44633758 -0.21472791
-0.48009977 0.26061326 -0.33002415 -0.29810438 -0.059335597 0.0674582 -0.12019695 -0.11221522
0.24314585 -0.3368218 -0.34434682 -0.38607553 -0.39578336 -0.0666668 0.11394544 0.21687274
-0.46913025 0.21623075 -0.29886103 0.3683221 -0.21291241 0.3163262 -0.26371294 0.016861033
0.21795428 -0.23154554 0.38420308 -0.2632068 -0.2054239 -0.5076339 -0.45125073 0.29061192
-0.10469459 0.55175394 -0.14547785 -0.4313886 -0.3378841 0.36611035 -0.1950126 0.11552956
0.27550524 0.4389241 -0.16482894 0.32597047 0.42687732 0.36305225 -0.24219465 0.04114584
-0.07135679 0.08868348 0.49165648 0.44132113 -0.236121 0.019441308 0.30060458 0.2718722
0.08969015 -0.25175273 0.4066546 -0.33287904 0.33423725 0.21548548 -0.469168 0.20740798
-0.4753114 -0.5722259 -0.48537993 -0.46390793 0.08633859 0.32567284 -0.47043067 0.38057628
-0.21225438 -0.51693696 -0.14161104 0.11946989 0.09615356 0.354651 -0.324589 0.37486047
-0.0948441 0.13456002 0.49486363 -0.3093285 -0.32712537 0.020987604 0.081540644 0.32422343
-0.3190681 -0.4974845 -0.20759659 -0.4514918 -0.07252913 -0.5854448 -0.34348452 0.51565725
-0.40759072 -0.22652933 -0.32925928 -0.34636796 -0.1147283 -0.24125358 0.13407297 0.06858865
0.21805207 0.50688833 0.10586296 0.22323678 0.21556413 -0.33853224 -0.11505289 -0.29157233
0.24518377 0.3152886 -0.26192003 -0.028348807 -0.2783489 -0.52096754 0.38368875 0.060625523
-0.3001615 -0.5179461 -0.2654843 0.10417853 -0.45423073 -0.23177356 -0.34892547 0.11689754
-0.150707 0.4089567 -0.24196012 0.43409625 -0.121441714 -0.056476735 -0.111094385 0.3137072
0.41493914 0.4057349 -0.056180045 0.21167612 -0.016469099 -0.21905787 0.41133502 0.041485593

enc_embedding.bias f4 [64]
00000000: c673 ffbe 831f 05be 3dcc e83c 5841 e13e
00000010: c1c8 5abe b103 ef3e d46f b3be cecb a43d
00000020: 33c7 ad3b 3c4f 23be 6758 92be f5d9 b5be
00000030: 2252 4abe 16aa 86bd 8f48 603e a095 603e
00000040: 3332 93be 1de9 cdbd b35a d3bd af3a a83e
00000050: 8335 92be 92a8 de3e 6571 ee3e e36e 78be
00000060: 2c3d 84be f6a2 4f3e 9443 a33e 93d6 39be
00000070: 97b4 8cbe 2bd0 cb3e 2d2a 8e3e 11d9 c63e
00000080: d876 413e a138 1a3e 2986 f23e 23d0 bcbb
00000090: 9c60 00be 70d3 633e 98b2 54bd d93c 9abe
000000a0: 1c45 6fbe efe8 f0be 2f7a 34be a359 c6be
000000b0: e1e2 f5bb 9101 96be 12ae 39be fa56 b3be
000000c0: 54ea c3be 46fb a1be 44d1 b53e 36b6 81be
000000d0: 1871 4a3e e874 bfbe 7222 9ebd 613c c6be
000000e0: 3a3a dfb9 6688 5a3e 74a5 a33e 1299 e23d
000000f0: fed8 68be cb03 e2be 3d78 b4bc b90f 923e
-0.49893016 -0.13000302 0.0284177 0.43995166 -0.21365644 0.46682504 -0.35046256 0.08046685
0.0053032874 -0.15948194 -0.2858307 -0.3551785 -0.19757894 -0.0657541 0.21902679 0.21932077
-0.28749236 -0.100542285 -0.10320034 0.32857272 -0.2855645 0.43487984 0.46570888 -0.2426105
-0.2582792 0.20277008 0.31887496 -0.1814826 -0.2748153 0.39807257 0.27766553 0.38837484
0.18892992 0.15060665 0.4736798 -0.0057621165 -0.12536854 0.22248626 -0.051928133 -0.30124548
-0.23366207 -0.47052714 -0.17624734 -0.38740262 -0.0075038527 -0.2929807 -0.18132809 -0.35027295
-0.38264716 -0.3163702 0.3551122 -0.25334328 0.19769704 -0.3739388 -0.07721414 -0.3871794
-0.00042577257 0.21341094 0.31962168 0.11064352 -0.22739026 -0.4414352 -0.02202999 0.2852762

output_layer.weight f4 [1, 64]
00000000: e2f4 6fbc 3c7c 1c3d 5977 393d 6301 803d
00000010: 3663 f3bc b434 683d aac7 c73c 92a1 a83d
00000020: c540 193d 7bad 56bc 40a7 83bc d7bd 94bc
00000030: d4be df3d 77c9 643d c095 493d b392 b43d
00000040: 8502 9a3d 224b c5bd 2ab2 b13d 2c85 903d
00000050: a5da e7bc 431f d13d e88e e5bc 9604 50bd
00000060: db10 b7bd 0478 d33d 207c f8bc 602e a73d
00000070: a5cd d0b9 1615 0d3d d5c5 36bb d101 bbbd
00000080: 51dc edbc 2ef2 8cbc 2dd6 debd da37 98bd
00000090: 8311 183d 818b c5bc 26e8 f4bd 0f7d 2ebd
000000a0: 5a16 55bd 083e dc3c e6cf abbd 9d59 283d
000000b0: c77b 0ebd e8ee eebc 4295 6c3d ed8a a1bd
000000c0: 3c20 b53d daa5 953d 790c 333d bc0e b03d
000000d0: ae7e 993d 887d 453d 3ebb 8c3c 7196 ea3a
000000e0: f5b7 66bc f4c9 a33c 47ef 313d bed1 9abd
000000f0: 30ca bc3c e85d a63d 511a aebd 8698 a03c
-0.014645787 0.038204417 0.045279834 0.062502645 -0.029710393 0.056690887 0.0243872 0.08233942
0.037415285 -0.013102884 -0.016070962 -0.018156929 0.109250695 0.055856194 0.04921508 0.08817043
0.07520012 -0.09633471 0.0867656 0.070566505 -0.0283025 0.10211041 -0.028022245 -0.050785623
-0.08938762 0.103256255 -0.030332625 0.08163142 -0.0003982607 0.034443937 -0.0027888913 -0.09131206
-0.02903572 -0.017205324 -0.108806945 -0.07432528 0.037126075 -0.024114372 -0.11958341 -0.042599734
-0.05202327 0.026885048 -0.08389263 0.041101087 -0.034786012 -0.029166654 0.05775953 -0.07887826
0.08844039 0.07307024 0.043713067 0.0859656 0.07494865 0.04821542 0.017179128 0.0017897618
-0.014081945 0.01999376 0.043441083 -0.075595364 0.02304563 0.0812338 -0.08501113 0.019603979

encoder.layers.0.layer_norm1.weight f4 [64]
00000000: fd59 823f 4b82 813f bc86 843f 1aaf 7a3f
00000010: 07b6 833f 3a88 823f d26e 823f e8d9 7f3f
00000020: faa3 813f 9c2c 803f 4a0b 833f 7dfe 803f
00000030: 5155 7e3f 4af7 773f 98e5 833f 0599 7e3f
00000040: 3c55 803f 3c64 813f 3bee 813f 6d85 7f3f
00000050: fb5b 813f 41ea 7b3f 6962 7f3f 6555 7d3f
00000060: f4aa 803f 48cd 7b3f 26d9 7f3f b749 7b3f
00000070: 42ee 7c3f 132d 7e3f afdf 803f d1ca 7e3f
00000080: d45b 833f 59c4 813f 07b1 803f ab15 773f
00000090: b2bb 843f 79bc 813f 954f 823f 2ca0 7d3f
000000a0: 82c9 7f3f 9f2e 803f c332 803f 043b 7f3f
000000b0: 47ff 7f3f 6470 803f 25d1 823f 0f94 7a3f
000000c0: 9fbe 853f 408a 7e3f 7dbc 853f 56e5 823f
000000d0: a8b7 7f3f db34 803f c43f 7a3f bcbf 803f
000000e0: e4db 783f 756a 803f 0d1f 7f3f f0f4 813f
000000f0: 2a68 7c3f c50c 7c3f 5193 7b3f e41f 803f
1.0183712 1.0117887 1.0353618 0.97923434 1.0289925 1.0197823 1.019007 0.99941874
1.0128167 1.0013614 1.023782 1.0077664 0.9934893 0.9686171 1.0304441 0.9945224
1.0026011 1.0108714 1.0150827 0.99812967 1.0106195 0.9840432 0.99759537 0.98958427
1.0052171 0.9836011 0.9994072 0.98159355 0.9880105 0.9928753 1.0068263 0.99528223
1.0262399 1.0138046 1.0054024 0.9651744 1.036978 1.0135642 1.0180537 0.9907253
0.9991685 1.0014228 1.0015491 0.99699426 0.999989 1.0034299 1.0220076 0.9788217
1.0448798 0.994297 1.0448147 1.0226238 0.9988961 1.001613 0.9775355 1.0058513
0.97210526 1.0032488 0.99656755 1.0152874 0.9859644 0.98456985 0.9827166 1.0009732

encoder.layers.0.layer_norm1.bias f4 [64]
00000000: 5bf4 ae38 050d 08b9 27fc 1039 9cfc 0639
00000010: 3e1b fb37 110b 2039 c5b1 d439 9f77 b3b6
00000020: e3de c3b7 5524 8c38 b99a fab6 d2b3 09b7
00000030: 53fe 1ab8 4b45 b039 409d 0039 c649 8f39
00000040: 8e36 17ba cc9f 7e39 88b2 2039 f6ec 6339
00000050: be95 5bb8 4b72 2239 2769 a738 82ef 04b9
00000060: f399 14b9 ecc6 71ba cf94 1539 94e8 ec39
00000070: b01b b937 d1e7 4239 a032 a739 7ff2 c438
00000080: ec59 4137 44b4 6039 90db 8839 e862 28b9
00000090: a865 ffb8 1235 01ba 7bef 85b9 fdd7 5b39
000000a0: c1c5 8039 6f29 c538 7a3f ae38 83c6 0c39
000000b0: eca1 2639 644f aab9 3c72 8837 4b4c 28b8
000000c0: 88a8 3039 5bb0 bb38 3c32 eeb5 dcb5 4c38
000000d0: b4ea 38b9 7bf5 3239 1253 3eb9 d0c1 a1b8
000000e0: 48d1 2638 6a4c f238 ff1e b6b7 c06e 0d39
000000f0: 45d4 7c38 dc4b 103a c2bf 9fb9 fbe1 3fb9
8.342481e-05 -0.00012974821 0.00013826844 0.0001287334 2.9934217e-05 0.00015262912 0.0004056824 -5.3485414e-06
-2.3349601e-05 6.6824876e-05 -7.4685927e-06 -8.207704e-06 -3.695332e-05 0.00033620963 0.00012265611 0.0002733005
-0.0005768322 0.00024282857 0.00015325297 0.00021736682 -5.2353127e-05 0.00015492101 7.982767e-05 -0.00012677725
-0.0001417173 -0.0009223062 0.00014265183 0.00045186712 2.2066612e-05 0.0001858764 0.0003189044 9.391177e-05
1.1524633e-05 0.00021429459 0.00026103528 -0.00016058574 -0.000121782825 -0.00049288676 -0.00025546164 0.0002096593
0.000245614 9.4014096e-05 8.30879e-05 0.00013425392 0.00015891314 -0.00032484077 1.6265658e-05 -4.0125375e-05
0.00016847451 8.9497036e-05 -1.7747002e-06 4.880676e-05 -0.00017635041 0.00017066851 -0.00018150758 -7.713179e-05
3.9772392e-05 0.000115536925 -2.1710524e-05 0.00013488065 6.0279173e-05 0.0005504468 -0.00030469714 -0.00018299364

encoder.layers.0.ffn.0.weight f4 [64, 64]
00000000: cb39 09bd d66e 883d faeb b7bd d6fe 53bd
00000010: 8daf 03bd 398f 803d c8e5 9d3d 967f 513d
00000020: 64da 4abd 6bbb f1bd ef53 c33d 7b1c 743d
00000030: 60f1 613d 19e1 7c3c dd33 3bbc 2a05 86bd
00000040: 4c48 f53c 45bb bdbd 977d 80bd 8237 ecbd
00000050: 0163 bfbb a43c 9cbc 9ad5 31bc bd59 01be
00000060: a97d be3d fea5 6f3d 7b18 1dbd 5e28 a13d
00000070: 190c c03c a8bb bc3d ad65 95bd b631 90bc
00000080: f9f7 52bd f3cb 4ebd ffc2 473d dd2c 09be
00000090: 9815 a53d baca a03d 6b81 89bc fa00 dbbc
000000a0: 87a3 3b3d 7291 053e 5278 e43a aa6e e1bd
000000b0: 7ce2 d63d 2ec3 6dbb 79a5 20bd e9d9 3fbd
000000c0: 3888 f2bc 494f b33c 7851 423d c0a7 803d
000000d0: e52a b03c 0911 87bd d1fc a8bc 6673 05be
000000e0: b7a3 d4bd 03c9 f7bd 977a a1bc 0df6 e63c
000000f0: ed1c 85ba 8f5b ac3b 779c 4b3d 3170 88bc
00000100: e69c edbd 7bf0 6f3d 9b00 8a3d 0192 35bd
00000110: 4535 5ebd 25f1 f2bd 40ce e33d a835 113c
00000120: 4663 9abd d509 afbd 3e57 0d3b 02d6 efbd
00000130: 7e91 e73b 5b09 a2bd fdbf 113d 4bc7 cb3d
00000140: 87d9 cabd 28d1 303d b9c6 7c3c c429 d3bd
00000150: a57c 08bd 8e84 603d 6ae2 753d 6efe 7a3d
00000160: 99a4 043e 1e3c a9bd dce4 cfbd dfbc 503c
00000170: dd97 793d bdb6 303d 3784 813d b46a c23d
00000180: c8b1 99bd 5506 303d 079f e03c b607 96bd
00000190: 610c d2bc 6f83 993d 029b 81bd 117d 2bbd
000001a0: 604f 9dbd 0506 df3b ab1f 03be e2c7 76bd
000001b0: 147c ba3d 5250 a33d 763a 603d 019a 91bd
000001c0: 3033 e5bd 58e3 b73d 8e90 7fbd eb9c dc3d
000001d0: 2499 f23d c33b fcbd 2366 d7bd 60ba d6bd
000001e0: 5e8c cabb 81a8 89bd f292 aabd cbd2 9c3d
000001f0: 50dd 16bd 1486 51bd 0865 9fbc b325 d6bc
00000200: a10f 16bc b6e5 f3bd 8f87 25bc 02aa 503d
00000210: f39e f9bd 8d80 dc3c 4ecb 803d fbe6 d83d
00000220: 07ea a7bd dabf c93d eebd 7fbd 8b32 d9bd
00000230: 2dd4 d03d 5f9a 41bd df48 e3bc 5b98 683d
00000240: c920 85bd 7417 053e ffd9 ef3c 3872 9ebd
00000250: b277 18bd 9c73 973d 5bf0 673d d4ff c73d
00000260: ca88 21bd 08e8 b9bd e168 9cbd f2b3 023e
00000270: b94c eb3d 687d e33d e175 f1bc 26d9 af3d
00000280: ac8f bcbd b633 6dbd 1891 b63d 883f 30bd
00000290: fec8 b73d ab94 443d bea8 e93d e6f0 23bd
000002a0: 50e4 bc3d d22c f93d 61e6 943d 9a08 863c
000002b0: 95c2 963d 19f6 ff3d 885d d13d 0a08 593d
000002c0: 0e31 aebd 7c33 72bd 0c95 b2bd 7694 ea3d
000002d0: e159 a83d 1c33 ddbd fefc da3d 5705 a1bd
000002e0: 4dee 85bc 762b 2c3d 1ee6 1c3d 27f1 d0bd
000002f0: 7f5f 4c3c 5af7 c93d 6090 ff3d 1978 653c
00000300: b59e c5bd 4048 bebd 50b4 243d cf32 283d
00000310: aa72 9fbd 74ac dbbc b83c 7c3d 0c4d ea3b
00000320: cb32 6d3c be4a cd3d 4d82 3a3d 2f30 12be
00000330: 6f13 5d3c 4166 123d fbb1 df3d edd2 b6bd
00000340: 6d7d de3d 8e27 2bbd bafb e93d 7d7e c73d
00000350: 3d47 753d 27a3 5c3d 5ff3 b63d 65d9 f03c
00000360: b89c 64bd bf39 7d3b 8d92 813d 5ed6 e0bc
00000370: 1fcb fabd ba72 1cbe 45f0 96bd 57f0 133d
00000380: 5399 003e 7c30 10bc 0e4d b6bd 79ec 7b3d
00000390: 202f 8e3d ae75 fabd 999e cabd 1ce8 86bd
000003a0: 6ce6 a43d 840b 3cbd 2ead d13c 6fb7 03be
000003b0: 2b8b b1bc cfe3 96bd 1541 96bd d70b a23d
000003c0: bdc3 a4bd 6acd bf3d 30e0 8b3d 16da d33d
000003d0: 75d1 a43d 32d8 ebbd 39d3 833d 4667 b3bd
000003e0: 34ef 333d 6b8c 8abd 037e 0b3e cfdd ffba
000003f0: 706e b33d b388 8c3b 2001 8e3d f756 bcbd
-0.03350238 0.06661765 -0.08980556 -0.051756702 -0.03214984 0.062773176 0.07709843 0.051147066
-0.04952468 -0.11803325 0.095374934 0.059597474 0.055161834 0.015434527 -0.011425939 -0.06543954
0.0299417 -0.092642345 -0.06273954 -0.11534025 -0.0058406596 -0.019071884 -0.010854149 -0.12631889
0.093013115 0.05850791 -0.038353425 0.078690276 0.023443269 0.0921548 -0.07294784 -0.017601829
-0.051506016 -0.05048747 0.048769947 -0.1339602 0.08060759 0.07851167 -0.016785344 -0.026733864
0.04581025 0.13043764 0.0017430878 -0.110074356 0.10492417 -0.0036279666 -0.039220307 -0.046838675
-0.02960597 0.021888392 0.047440976 0.06281996 0.021504829 -0.06595046 -0.020628365 -0.13032302
-0.10382789 -0.12098887 -0.019711776 0.028193498 -0.0010155715 0.005259938 0.049709763 -0.01665506
-0.116021916 0.05857895 0.06738397 -0.044328693 -0.05425002 -0.11862401 0.111233234 0.00886289
-0.07538466 -0.08546797 0.0021566893 -0.117107406 0.0070669046 -0.07911941 0.035583485 0.099501215
-0.09904771 0.043168217 0.015428239 -0.103107005 -0.033321995 0.054813914 0.06003038 0.0612778
0.12953414 -0.082634196 -0.10151073 0.012740343 0.060935844 0.043143023 0.06324046 0.09493008
-0.07504612 0.04297479 0.02741958 -0.073256895 -0.025640668 0.07495772 -0.063283935 -0.04186732
-0.07681155 0.0068061375 -0.12805049 -0.060249217 0.09105697 0.07974304 0.054743253 -0.07109452
-0.11191404 0.08978909 -0.062393717 0.10772117 0.118456155 -0.12316086 -0.10517528 -0.10484767
-0.006181284 -0.06721593 -0.08328809 0.07657393 -0.036832154 -0.051153257 -0.019457355 -0.026141023
-0.009159 -0.11909048 -0.0101031205 0.050943382 -0.1218852 0.026916767 0.06288777 0.10590931
-0.08198934 0.09851046 -0.06243699 -0.106053434 0.10196719 -0.04726636 -0.027744709 0.056785922
-0.06500394 0.12997228 0.029278753 -0.07736629 -0.037223525 0.073950976 0.056625705 0.09765592
-0.039437093 -0.090774596 -0.076371916 0.12763956 0.11489243 0.11107904 -0.029475154 0.0858634
-0.09207091 -0.057910644 0.08914393 -0.043029338 0.08973883 0.047993343 0.11409138 -0.04002466
0.09223235 0.12166752 0.07270504 0.016361523 0.07361332 0.12498111 0.10222918 0.052986182
-0.0850545 -0.05913113 -0.08719835 0.11454098 0.08220268 -0.10800764 0.10692786 -0.078623466
-0.016348982 0.042033635 0.038305394 -0.10202246 0.01247394 0.09861632 0.12478709 0.014005684
-0.096494116 -0.09291124 0.040211022 0.04106408 -0.07785542 -0.02681563 0.061581343 0.007150298
0.014477442 0.100240216 0.04553442 -0.14276193 0.013493403 0.03574205 0.10922619 -0.0892695
0.10863767 -0.04178577 0.11424966 0.097409226 0.05988239 0.05386653 0.08933138 0.029400537
-0.05581352 0.0038639156 0.063267805 -0.027445968 -0.122457735 -0.1527814 -0.073700465 0.036117878
0.12558489 -0.008800622 -0.08901416 0.061504815 0.06942582 -0.12229477 -0.09893531 -0.0658724
0.08051762 -0.04590942 0.025595274 -0.12862943 -0.021672806 -0.0736767 -0.07336632 0.079124145
-0.080451466 0.093653515 0.0682987 0.10344331 0.08047763 -0.11515845 0.06436772 -0.08759932
0.043929294 -0.06765064 0.13622288 -0.001952106 0.08761299 0.0042887568 0.06933808 -0.09196275

encoder.layers.0.ffn.0.bias f4 [64]
00000000: fe94 373d 2d33 0e3d 0213 323d f9b9 8a3d
00000010: 43b9 f3bd 4e23 8bbd eddf eebd f407 4dbc
00000020: 151a b23b 51c6 0dbd e458 c1bb 71bc 3bbd
00000030: aceb dbbd 917d d13d 1877 6ebd 1223 a4bc
00000040: 6162 bcbd 63ad 8f3d 69b2 c2bb 31dd e5bd
00000050: 6628 de3d 39f9 13bd 03f9 9cbc 970c 2c3d
00000060: 31a6 033e e190 a53d a105 7cbd e7ac 3ebc
00000070: 6a2e c03d f02e b6bd 08fd 0cbc 950f 163d
00000080: 379c 9bbd 6502 ba3d 9696 913d 4ca6 f3bd
00000090: 0848 c73d 69ec febd b74c 34bd 7f32 fdb9
000000a0: 415b 0e3e 2f08 c63d a23d 2d3d 6546 8b3d
000000b0: a5e6 ccbc 4e1a 113e b4da d3bd 64c9 efbd
000000c0: c718 12bd 3be6 1e3e 7b48 553c 9425 8c3d
000000d0: 513c 62bd d9d1 a1bd 586e 95bd ec42 57bd
000000e0: 7b95 d43d b878 d1bd fad2 563d 19b7 c1bd
000000f0: 869e 8a3d 4b7a bd3d 8076 d4bd 2070 983d
0.044819824 0.034716774 0.04347516 0.06773753 -0.1190057 -0.06793843 -0.11663804 -0.012514103
0.005435238 -0.034612957 -0.005900489 -0.04583401 -0.1073831 0.10229028 -0.058219045 -0.020036254
-0.09198452 0.07015493 -0.0059416783 -0.112238295 0.10847549 -0.03612635 -0.019161707 0.042004194
0.12856366 0.08084274 -0.061528806 -0.011637903 0.09383853 -0.08895671 -0.008605249 0.036635954
-0.07598155 0.09082488 0.071088 -0.11896953 0.09730536 -0.124474354 -0.044018473 -0.00048293543
0.13901998 0.0966953 0.042295106 0.06800536 -0.025012324 0.1417019 -0.10344449 -0.11708334
-0.03566816 0.15517513 0.013017769 0.06843105 -0.055233303 -0.079013534 -0.07296437 -0.052554056
0.10380074 -0.102281034 0.052447297 -0.09458751 0.06768517 0.09251841 -0.103741646 0.07443261

encoder.layers.0.ffn.3.weight f4 [64, 64]
00000000: 2a6e 05bd f775 8bbd 807b 553d d183 fcbd
00000010: 896c 073c 20fa d5bc 1330 043e 53ad 9a3a
00000020: beb4 3dbd 0c01 0d3d 9a98 973c 8864 2e3d
00000030: 5e76 d7bd 68e3 ad3d e114 abbc d2d0 8e3d
00000040: db1d 41bc b99f 323d 8505 023e e2d4 e83c
00000050: 0e73 adbd bd75 923d 6951 bfbd 50db 0e3d
00000060: d6bb aabc 3ba7 5dbd be55 083e de5a 9abd
00000070: f1f6 a63d f3f4 3cbd ae29 653b 2354 963d
00000080: 22c3 623d 1b13 0e3d 1ead bfbd badf 373d
00000090: acde ba3d e391 37bd f3a5 68bb 92e8 1fbd
000000a0: a9e2 85bd fcba 17bd 096a 063c ef29 6bbd
000000b0: cf3e 183d 88d7 9abd 4796 b53d f6d1 d7bd
000000c0: c647 d53d b6c4 9f3d 2d46 813d 874b d5bd
000000d0: 4a31 6fbd e1e5 a6bd 1cc4 cfbd 7b2c 733d
000000e0: 8b9d db3d def9 913c ad98 afbd 4d71 9c3c
000000f0: 6797 0dbc 319a e7bd 9c25 0a3e 121e bebd
00000100: 18a3 983d e9ef cebb f667 c43d 4e53 ba3d
00000110: 2675 503d 8e55 673c c04d 03bd b56d 9c3d
00000120: 33c4 ae3d 8f45 46bb 5963 3ebb e82b 79bd
00000130: e5cc 6abd 07da 133e 2ae5 933d 70fc e73d
00000140: e2e5 c73c 5428 1b3d 324b b4bd 48e9 7abd
00000150: 596a 84bc 95e8 233c 6f7c 0d3e bed2 913d
00000160: 7fa6 71bd a81d c03c 1d0d d83b 50c2 b9bc
00000170: cb40 dfbc 483b 07be 06a3 eabc c95b 873c
00000180: 90fb 42bd 7ffd e9bd 2adf 9e3b 47e0 f1bd
00000190: d068 ac3d 4ff0 bb3d 01ee ff3c 138c b3bd
000001a0: da4f eebd 8134 0bbd 089b eabd 6809 e53d
000001b0: 4e75 0cbe abb2 9bbd ac7c b23d 2238 40bd
000001c0: 7bcb 0dbe aa6f cb3d e9eb 0d3e f8e0 873d
000001d0: e562 683d 30c4 fc3c eb96 0d3d 0846 9cbd
000001e0: fdf6 e3bd dc49 ef3d 3bfa 0c3a a576 47bc
000001f0: 2629 d7bc 0649 9b3d 016b cdbc 3aed 113e
00000200: be2e 23bc 4af2 7dbd 2f00 d33d 93bf 3ebd
00000210: 3293 783d 5595 b5bd e5cf 663d 2293 013e
00000220: d5fd 4fbd 4a82 363d cc6c 9fbd c4c4 9e3c
00000230: db6a 83bd 68ff d53c f147 b5bd 4e10 823c
00000240: 9ee2 14bd d7b8 47bd 4de1 ce3c 3c6b 423d
00000250: e85b dc3d 96bc 483d 4b5c 3c3c b9cd c83c
00000260: 3550 033e d23b 4a3d 82c1 96bd 3dfc d03d
00000270: ddef ef3a 48f1 943d 89e6 92bd 9a7c c13d
00000280: c495 46bd fd48 433d 0c72 0fbc 4437 773d
00000290: b910 edbd 4815 5c3d 11ae 2a3d d0b2 e93d
000002a0: 464f ab3d a1ee 53bd ccfe 00be c83c 4fbd
000002b0: f6fa 4abd be5d 25bc 44e0 9e3c 159f f0bd
000002c0: 0ac8 f13d f2d3 a2bd fcc0 c3bd 4db4 133e
000002d0: 01d4 adbd 45c8 6bbd d0ff 4e3d bebb f93d
000002e0: 7534 87bd 49b3 c63d 5362 d7bd 8232 613d
000002f0: 5cc7 7cbc 4b57 debd 4f46 b1bc c3d9 e03c
00000300: eba8 51bd dc2b 59bd 495e 0bbe ac76 b63d
00000310: 234c 633c 8762 12be 6d4c d3bd 8399 f13d
00000320: 2657 aabd 854f bf3d 7bd0 24bd 16d0 53bd
00000330: ef35 f63a c92b 583d be9f fa3c 1784 c3bd
00000340: 0752 8abd b933 acbd d8fc d63d bfa7 b8bd
00000350: 30b7 6fbd df6b e3bd c2f2 27bc f36d f9bd
00000360: ebe0 623d 1453 153d ca2e d93d e518 c93d
00000370: 0503 e33d 1fb9 f43d da7c d1bd 9391 053e
00000380: fee5 153d 3ecb 1fbd 5426 c73d c32f e3bd
00000390: 3921 22ba 9d04 01bc d405 263c 2a60 943d
000003a0: 5c2e c9bc c857 edbd cb42 cbbb 4367 b3bd
000003b0: 7d5e 573d 7e78 04be 3ea3 263d 28a2 46bd
000003c0: 6dcc c43d cbce 24bc f89c 2e3d 532c 1fbd
000003d0: 35f9 a43d 76f0 c63d 017e e3bd b8d7 bf3d
000003e0: 9ddc b23d 68e2 c7bd b395 c93d 1ccf c0bd
000003f0: 7eaf f83d 6b3d 18be c206 d33d aafa 333d
-0.032575764 -0.068096094 0.052119732 -0.123298295 0.008265623 -0.026120245 0.12908964 0.0011800922
-0.046314947 0.034424827 0.018505383 0.042576343 -0.105206236 0.0849064 -0.02088398 0.06973423
-0.011786903 0.043609355 0.12697418 0.028421823 -0.084692106 0.07151363 -0.093417 0.03487712
-0.02084152 -0.05411456 0.13313958 -0.07536863 0.08152569 -0.04613204 0.003496747 0.073402666
0.055361874 0.03468619 -0.09359191 0.044891097 0.091245025 -0.044816863 -0.0035499304 -0.039040156
-0.065373726 -0.037043557 0.008203992 -0.057413038 0.037169274 -0.075606406 0.08866554 -0.10538094
0.1041408 0.078011915 0.06312213 -0.10414796 -0.058396615 -0.08149315 -0.10144827 0.05936859
0.10723408 0.017819341 -0.085740425 0.019096995 -0.008642054 -0.113087066 0.1349091 -0.09283079
0.07452983 -0.0063152206 0.095901415 0.0909792 0.05089297 0.014119519 -0.03205657 0.076381125
0.08533516 -0.0030253862 -0.0029050915 -0.060832888 -0.05732431 0.1443864 0.07221444 0.113274455
0.024401609 0.037880257 -0.08803405 -0.06125763 -0.016163992 0.010004182 0.13816999 0.07120274
-0.058996674 0.023451641 0.00659336 -0.022675663 -0.027252575 -0.13206208 -0.028642189 0.016523259
-0.04760319 -0.11425304 0.0048483806 -0.11810356 0.08418429 0.091766946 0.031241419 -0.087669514
-0.11636324 -0.03398562 -0.11455351 0.11183435 -0.13716623 -0.076024376 0.087151855 -0.046928532
-0.13847153 0.099334076 0.13859524 0.06634706 0.05673494 0.030855268 0.034567755 -0.07630545
-0.11131094 0.116840094 0.00053778634 -0.012174283 -0.026264738 0.075822875 -0.025075438 0.14250651
-0.009959875 -0.061998643 0.103027694 -0.04656942 0.06068725 -0.088663734 0.056350607 0.12653783
-0.050779182 0.044557847 -0.07784423 0.019380935 -0.064168654 0.026122764 -0.08851612 0.015876915
-0.03634893 -0.04876026 0.025253916 0.047465548 0.10759717 0.049007975 0.011496614 0.024512159
0.12823565 0.049373455 -0.073611274 0.10204361 0.0018305738 0.07272583 -0.07172877 0.09447594
-0.04848267 0.04767703 -0.008755218 0.06035544 -0.11575455 0.053731233 0.04166991 0.11411059
0.083647296 -0.051741246 -0.12597197 -0.050595075 -0.04955574 -0.010093151 0.019394048 -0.117490925
0.118057325 -0.079505816 -0.09558293 0.14424248 -0.08487702 -0.05756404 0.05053693 0.12194012
-0.06601802 0.09702165 -0.10516801 0.05497981 -0.01542839 -0.108564936 -0.021639971 0.027447587
-0.051186483 -0.053020343 -0.13610186 0.089093536 0.013873133 -0.14295398 -0.103173114 0.11796858
-0.083174035 0.09341339 -0.040237885 -0.051712118 0.0018784384 0.05277613 0.03059375 -0.095466785
-0.06753927 -0.08408303 0.10497445 -0.0901637 -0.05852431 -0.11104559 -0.010250749 -0.12179174
0.05539028 0.036456183 0.106046274 0.098192014 0.1108456 0.119493715 -0.10228892 0.13043813
0.03659629 -0.039012186 0.097241074 -0.11093094 -0.000618476 -0.007874635 0.0101332255 0.07244904
-0.024558239 -0.115890086 -0.0062030307 -0.0875993 0.052580345 -0.12936589 0.040683024 -0.048494488
0.096093036 -0.010059069 0.042630166 -0.03886063 0.08055345 0.09713833 -0.11108018 0.09367317
0.08733485 -0.097599804 0.09843006 -0.09414503 0.121428475 -0.14867179 0.10304023 0.043940224

encoder.layers.0.ffn.3.bias f4 [64]
00000000: 90b2 853d fde5 99bd b690 0dbd 550a ab3d
00000010: 987b 063d 2dc4 eb3d 4ceb 16bd 3d0e adbc
00000020: 7e0d 5dbd 75be a9bd 3345 44bd df13 1cbd
00000030: c008 aabd 60ee a4bd 17a1 18be 4bcc d23d
00000040: 7546 5dbd 5701 71bd d66f 08bb cfb0 b0bc
00000050: 222e dfbd 097f a9bd d196 153e cc6f d6bc
00000060: e48a 21be 4eee 8fbd 26cc f43d aabc 7a3d
00000070: db63 c43d 2237 0cba 0afe 9dbd 6bfc 903c
00000080: 044b 89bd 0bc7 9a3d d8a7 c9bd 53f4 d03d
00000090: 3eeb 8a3d b850 553c 0c3c aabd 9186 1abd
000000a0: 56d1 a9bd 7e77 c93d dd9c aa3b 1996 19be
000000b0: ce8f 443d 9c29 aebd 633d c0bd e3a2 673b
000000c0: fb72 a1bb b46e f83b 7998 ccbd da1f 093e
000000d0: 2fd1 c93c 4e57 a9bc 66bf be3a 4e53 e03c
000000e0: 8c3b 1bbd 38b4 463d 2f0c 0d3d b08d 2abc
000000f0: fa16 953c 3531 933d d307 133e b75b fdbb
0.06528199 -0.0751457 -0.034561835 0.0835158 0.032832712 0.11512027 -0.03684549 -0.021124953
-0.053967945 -0.0828828 -0.047917556 -0.038104888 -0.0830245 -0.08053279 -0.14905201 0.10292872
-0.05402227 -0.05883917 -0.0020818613 -0.021568684 -0.10897471 -0.08276183 0.14608313 -0.026176356
-0.15775639 -0.07027875 0.11953001 0.06121508 0.095893584 -0.00053487916 -0.0771447 0.017698487
-0.06703761 0.07557496 -0.09846467 0.10202851 0.0678315 0.013019733 -0.08312234 -0.03772599
-0.08291881 0.098372445 0.005206688 -0.14998664 0.047988705 -0.0850403 -0.093867086 0.003534489
-0.004927037 0.007581556 -0.09990019 0.13391057 0.02463588 -0.020671513 0.0014552891 0.027383473
-0.037898585 0.048511714 0.034435447 -0.0104097575 0.018199433 0.0718712 0.14358453 -0.0077318805

encoder.layers.0.layer_norm2.weight f4 [64]
00000000: 6535 823f 73b6 813f 91e2 843f 8fac 793f
00000010: 7ca4 843f f71b 823f 6983 823f 1b38 7e3f
00000020: 248e 813f 7c3a 803f 6a81 813f 6490 7f3f
00000030: b26f 7e3f 8a91 763f a28c 843f ac6c 823f
00000040: 1c56 803f 8fd1 823f c6e8 813f 8154 7f3f
00000050: 2104 7f3f 3365 7b3f e53c 813f 2e5e 7d3f
00000060: 4429 813f 75e6 793f 9c85 813f 59e3 7b3f
00000070: c497 7e3f 3eaf 7d3f eb81 813f 2164 803f
00000080: b478 823f 14e7 813f 5c61 803f 37ff 743f
00000090: 4ea0 843f cb2e 823f 7854 823f 3d83 7c3f
000000a0: 1205 803f 38c2 813f 4442 803f ae01 813f
000000b0: 755a 7f3f 9e84 803f cbe6 803f d92e 7a3f
000000c0: a530 863f 2363 7c3f 7b74 8a3f 8ea7 843f
000000d0: 6f83 803f 4d5f 803f 59ec 783f 2370 803f
000000e0: a910 773f 515b 803f 392b 7b3f c392 803f
000000f0: 5c21 7c3f 57ca 7b3f 92d4 7b3f a927 803f
1.0172545 1.0133804 1.0381643 0.9752893 1.0362697 1.0164784 1.0196353 0.9930436
1.0121503 1.0017848 1.0117619 0.998297 0.99389184 0.96315825 1.0355418 1.0189414
1.0026278 1.0220202 1.0149162 0.9973832 0.99615675 0.9820129 1.0096709 0.9897183
1.0090718 0.97617275 1.0118899 0.9839378 0.99450326 0.99095523 1.0117773 1.0030557
1.0193086 1.0148644 1.0029712 0.95701927 1.0361421 1.017053 1.0182028 0.98637754
1.0001547 1.0137396 1.0020223 1.0078638 0.997474 1.0040472 1.0070432 0.97727734
1.0483595 0.9858877 1.0816797 1.0363634 1.004011 1.0029083 0.9723564 1.0034221
0.96509796 1.0027868 0.9811283 1.0044788 0.984884 0.9835562 0.9837123 1.0012103

encoder.layers.0.layer_norm2.bias f4 [64]
00000000: 989c 49b8 b780 1939 a58e 6db8 b600 d9b8
00000010: 59a6 c135 e06f 9735 0fd9 0838 1fd6 f0b8
00000020: a7f4 6436 e920 04b8 910e 1337 3332 3c38
00000030: ae6d 16b8 441d df37 2eff 62b7 92cc b5b8
00000040: d118 7d37 d039 1638 bfe4 0bb8 f6b5 1d38
00000050: 4837 5937 468f 3638 a4a7 70b7 e79b 9a39
00000060: f6ab 1138 2537 9038 e511 7837 b466 4a39
00000070: 08d7 c438 cba2 47b7 0f49 21b9 cf6c 0838
00000080: ddf2 7838 42bd 9738 e309 4038 26ff 09b9
00000090: 5682 7337 9169 0fb9 f614 a236 2601 a6b8
000000a0: 4879 1638 6761 3038 02d8 d638 00b1 e237
000000b0: dcd1 95b7 d024 f738 c7dc 90b8 620f 9b38
000000c0: 4e09 a7b7 b78b 3e38 f121 5938 e020 8db7
000000d0: 0670 a7b7 6871 88b8 cef7 ba38 bce6 a337
000000e0: 6956 2938 dafa 2fb7 48d8 3737 a570 3838
000000f0: aaaf 45b9 a834 56b9 0618 9b38 36a9 f4b7
-4.8067974e-05 0.00014639167 -5.663805e-05 -0.00010347499 1.4428034e-06 1.1282937e-06 3.262708e-05 -0.00011483975
3.4117054e-06 -3.1501902e-05 8.765274e-06 4.4869445e-05 -3.5864934e-05 2.65973e-05 -1.3530063e-05 -8.668857e-05
1.5085753e-05 3.581663e-05 -3.335322e-05 3.760118e-05 1.2947079e-05 4.3525615e-05 -1.4344147e-05 0.00029489325
3.4730845e-05 6.8767265e-05 1.4786118e-05 0.00019302481 9.386061e-05 -1.18992275e-05 -0.00015381373 3.2526263e-05
5.935399e-05 7.235493e-05 4.5785575e-05 -0.00013160388 1.4514275e-05 -0.0001367687 4.8304164e-06 -7.915711e-05
3.587574e-05 4.2052383e-05 0.0001024455 2.7023721e-05 -1.7859908e-05 0.00011784735 -6.907578e-05 7.393841e-05
-1.9912284e-05 4.542965e-05 5.1768442e-05 -1.6823818e-05 -1.9960116e-05 -6.506109e-05 8.915328e-05 1.9538558e-05
4.0373216e-05 -1.0489219e-05 1.0958007e-05 4.3973927e-05 -0.00018852824 -0.00020428246 7.395451e-05 -2.9165862e-05

encoder.layers.1.layer_norm1.weight f4 [64]
00000000: e2fd 813f 3000 823f e752 853f 940a 793f
00000010: 2599 843f 9c7a 823f 98a0 823f 0b42 7e3f
00000020: c2ab 813f 6d60 803f e599 813f 10a2 7f3f
00000030: 4c44 7e3f 5986 763f 4fe7 843f ff67 823f
00000040: 2e61 803f f327 833f 82c9 813f a44f 7f3f
00000050: 008b 7e3f ff3e 7b3f 27f6 803f 7f75 7d3f
00000060: 8efa 803f fbf5 793f 4897 813f 7bdb 7b3f
00000070: 3f78 7e3f 9cae 7d3f 5aa0 813f e944 803f
00000080: bc1f 833f 1b1b 823f a85d 803f 3231 753f
00000090: 5f55 853f 6c78 823f 503c 823f d18e 7c3f
000000a0: 8406 803f 9dcb 813f 814e 803f d6e5 803f
000000b0: f450 7f3f f776 803f f1e9 803f 9181 7a3f
000000c0: f950 853f 2667 7c3f 3770 8b3f 50a9 843f
000000d0: 3f9d 803f 566a 803f 4e11 793f a98b 803f
000000e0: de07 773f 8a4d 803f 340f 7b3f fe9b 803f
000000f0: b74c 7c3f 2ad7 7b3f b6d2 7b3f 322a 803f
1.0155604 1.0156307 1.0415925 0.97281766 1.0359236 1.0193667 1.0205259 0.99319524
1.0130541 1.0029427 1.012509 0.9985666 0.9932296 0.9629875 1.038309 1.0187987
1.0029657 1.0246567 1.013962 0.99730897 0.9943085 0.98143 1.007512 0.9900741
1.0076463 0.9764096 1.0124292 0.98381776 0.9940223 0.9909456 1.012706 1.002103
1.024406 1.0164522 1.0028582 0.9577819 1.0416678 1.0193 1.0174656 0.9865542
1.0001988 1.0140263 1.0023957 1.007014 0.997329 1.0036305 1.0071393 0.9785395
1.0415336 0.9859489 1.089362 1.036417 1.0047988 1.0032451 0.9729203 1.0042621
0.9649638 1.0023663 0.98070073 1.0047605 0.9855456 0.9837519 0.98368394 1.0012877

encoder.layers.1.layer_norm1.bias f4 [64]
00000000: c2c2 28b8 76a0 ddb8 04ed aab7 cf35 0d38
00000010: a426 5438 7426 99b8 f966 c5b8 1e06 adb8
00000020: 71fb dab8 792d 2c37 d43d 5737 e211 99b7
00000030: 5c68 e138 12a1 c7b8 cef3 feb6 59d2 5738
00000040: fbe3 3239 6ab6 b7b9 3ab4 0fb8 b1f4 d338
00000050: c86e 01b8 1245 f338 5e9b 0bb9 20fa b738
00000060: d146 8cb8 c861 b839 d4f2 9ab8 dcf6 eb38
00000070: 4449 9eb8 1338 62b6 9167 86b8 4538 9db7
00000080: 394d 9eb8 de37 3cb8 db32 6cb8 5491 90b7
00000090: 28a2 97b7 6353 6236 58cd 4c37 b36d 5138
000000a0: 8a96 da38 340e 8cb7 290d 17b7 694c 0bb8
000000b0: 9f26 2637 2235 dc38 e7ab 61b9 9c6a e4b8
000000c0: 3c69 2d38 cc01 1c38 0218 2537 fc91 48b8
000000d0: 2fee 19b7 15a1 10b9 2c41 41b8 7a1a 3039
000000e0: e887 f2b8 003e 93b7 c3a5 1338 f791 22b8
000000f0: 58fd 76b7 84a6 c137 5f83 54b9 de34 0139
-4.0235704e-05 -0.000105679894 -2.0375948e-05 3.3667133e-05 5.0580726e-05 -7.302771e-05 -9.412872e-05 -8.250422e-05
-0.00010441885 1.0262586e-05 1.2829394e-05 -1.8247349e-05 0.000107482745 -9.519061e-05 -7.5981725e-06 5.1455896e-05
0.00017060332 -0.0003504039 -3.4261706e-05 0.000101068414 -3.085917e-05 0.00011600008 -0.00013313952 8.7727094e-05
-6.688911e-05 0.00035168068 -7.3885225e-05 0.00011251654 -7.547674e-05 -3.3709264e-06 -6.408909e-05 -1.8742061e-05
-7.548411e-05 -4.4874723e-05 -5.6314148e-05 -1.7233811e-05 -1.8076113e-05 3.3725162e-06 1.2207158e-05 4.993165e-05
0.0001042309 -1.6695914e-05 -9.003365e-06 -3.3211345e-05 9.903363e-06 0.00010500314 -0.00021521711 -0.00010891745
4.134442e-05 3.719497e-05 9.840356e-06 -4.7819674e-05 -9.174967e-06 -0.00013792918 -4.607548e-05 0.00016794531
-0.00011564774 -1.7552637e-05 3.520191e-05 -3.875975e-05 -1.4721729e-05 2.3084933e-05 -0.00020266835 0.00012322093

encoder.layers.1.ffn.0.weight f4 [64, 64]
00000000: 00a8 0bbd 6118 853d b872 e53d 7c6a bfbd
00000010: 54fd 053e 6e57 f0bd 5bc0 e53d 7e45 b3bc
00000020: cbc1 7bbd 3bed aabd 7f35 0d3c 9040 77bd
00000030: d6dc 9bbd dc63 afbd 2e17 3c3d 4b22 f2bd
00000040: 8ec9 863b b397 11be a0f7 dd3c a6e4 81bc
00000050: da32 613d 0d7a 5e3d 0083 0cbd 3988 b73d
00000060: 2d32 44bd 1030 97bd 72fa 96bc 9457 cb3d
00000070: 4ebb 8c3d 316e 84bd a40b 63bd 190f 9abc
00000080: 1d50 863c 48a2 2abd 69b2 df3d 62da 5abd
00000090: b93b 0abe d720 833d 38bd 0fbe a6b0 c9bd
000000a0: 655d cdbd 823e febd e690 2b3d 06bc 913c
000000b0: 2412 bebc df16 b0bd 867b 543c ac45 acbd
000000c0: 7f28 543d 12a5 a53d 5321 5b3d b840 183e
000000d0: ca81 bcbd 281c 083d 520c 01be 0232 453d
000000e0: 0d23 bdbd f513 8cbd 1386 3ebc ba9c 0c3e
000000f0: f4cc eabd a529 f7bd b6a8 943c 1d0a b3bd
00000100: d26d 003e 9ee7 abbc cbc8 9abd 6cb5 1abd
00000110: ea64 e43d 3abe b6bd 3b5e f33d 967a 9cbd
00000120: 1631 323c 0621 9dbd ca94 493d 81c3 c2bd
00000130: ae9e de3c 7215 0bbc ae44 ca3d cf37 d23c
00000140: 21dd ce3d aeaf 023e 2833 4abd 7593 d5bd
00000150: 7210 03be 5384 1ebd cdad af3d daf4 653c
00000160: b81f edbd 21be aa3d 1dd2 413d 3bef 8c3d
00000170: ea41 f2bd 91c9 9c3d d7ab f33c 7394 7fbc
00000180: b21d 25bc 23e8 80bc 71d4 f13d b005 75bc
00000190: 32ca e03d 62e4 95bd 291d 5ebd f1d4 99bd
000001a0: 7d8a 6e3c b42f 003e 2049 3e3d 2eee edbc
000001b0: f147 f3bd 53b5 d5bd 4676 92bd a5f5 98bd
000001c0: 4dd4 e1bc 47be 57bd 6dfe aabd 9089 8ebd
000001d0: 61a8 953d ba99 543c 971a 7f3d a15e ccbd
000001e0: 2593 3b3d 37d6 b83c 56fe 95bc a309 3b3d
000001f0: c94d 2f3a c112 4c3d 6c5d f63d d189 6abd
00000200: 1bd2 c13d 8780 cbb9 1ac0 803d 130c 0abc
00000210: 5323 e03d ac23 883d ba98 c3bd fbe7 93bd
00000220: 84c6 283d 6bd9 b83d f06c a9bd cb33 49bd
00000230: 81ad 15bd 0795 293d 5a4a c6bb 2d24 68bd
00000240: 24f2 e2bc 55f0 04be 6b75 f83d 2e2e 9f3d
00000250: 0216 3f3d 8b6c 57bd df45 b03b 2db5 13bd
00000260: 9079 7dbd 08d8 8b3d 6d1f a33d f5f9 843d
00000270: 100f bfbd 8f42 933d a954 28bd 7bd4 ca3d
00000280: b033 b13d cfe7 0ebe 978c c8bd e2d8 c03d
00000290: 79ad e7bb 88e2 12be 533c 2abd 6cf8 febd
000002a0: ca55 2f3d 4f8d c03c 0ba3 f8bc 3be4 5c3d
000002b0: fff5 db3d 197a a4bb 6e73 87bd c2d2 e4bd
000002c0: 61f5 b239 9763 a6bd 6a7d ee3c 75fa 023e
000002d0: 800c ce3d 5b9b c1bd 7e72 03be 56a0 fbbc
000002e0: ae9c 53bd aa18 64bc 58b1 f6ba cf9e 80bd
000002f0: c15b fdbd 99d3 4fbd 57a6 393c e4de 34bd
00000300: 3970 48bb 481d 393c dab4 333d 0cd0 e8bc
00000310: 08c6 d23d 3fb6 c1bd 49ac cc3d 71bb 073d
00000320: ff1e dabd f458 b9bd f3e0 fcbc 3349 c53d
00000330: 6656 c73c fb98 133d 72f3 963d 03c5 c7bd
00000340: 0a8d d0bc f193 e2bd cbe5 733c a6ad f43d
00000350: be9b ce3d d402 9cbc 0053 3b3d 060b 8c3d
00000360: d200 0b3e 6b25 cf3d fcc9 a03d 06a4 543d
00000370: 8c1e e5bb 5dcd b0bd 3ee5 b1bd 296b ae3d
00000380: 5baf eabc bad8 7d3b e40f 49bd e046 f9bb
00000390: 0251 283d ad2c bfbc 934a c3bc 5fe3 bfbd
000003a0: 29a8 f2bd 66bb b7bd 2ff4 efbd 4be4 9cbd
000003b0: dfc2 b4bd f1ce e53d af41 0f3c cf69 30bd
000003c0: aca5 1c3d 4008 df3d 45d9 0f3e 71e9 cebc
000003d0: 3e5d 54bc 5bc2 f13b 151d 0dbd 0bd6 e7bd
000003e0: d848 6abd 39a5 87bd 42f0 9b3d b120 373d
000003f0: 6cb6 9ebd 6a78 bfbc c05c d53d 7d59 cfbc
-0.034095764 0.064987905 0.112035215 -0.09346482 0.13084918 -0.11735426 0.112183295 -0.021883722
-0.061464112 -0.08346029 0.0086187115 -0.060364306 -0.076104805 -0.085639685 0.045920543 -0.11822947
0.0041133827 -0.14218025 0.027095616 -0.015856098 0.054980136 0.054315615 -0.03430462 0.08961529
-0.047899414 -0.07382214 -0.018429969 0.099288136 0.06871663 -0.0646633 -0.055431023 -0.018806027
0.016395623 -0.04165867 0.10922701 -0.053430922 -0.13499345 0.06402748 -0.14037025 -0.09848146
-0.10027579 -0.12414266 0.041886233 0.017789852 -0.02320201 -0.08598112 0.012968903 -0.08411726
0.051796433 0.08088125 0.053498577 0.14868438 -0.09204443 0.033229977 -0.12602356 0.048143394
-0.09235201 -0.06839744 -0.0116286455 0.13731661 -0.11464873 -0.1206849 0.018146854 -0.08742163
0.12541893 -0.020984467 -0.075578295 -0.037770674 0.1115206 -0.089230016 0.118832074 -0.07640569
0.010875961 -0.07672314 0.049214162 -0.09509946 0.027175274 -0.008489 0.09876381 0.025661377
0.10100771 0.12762329 -0.049365193 -0.10428516 -0.12799242 -0.038700413 0.08578072 0.014035428
-0.115783155 0.083370455 0.04731952 0.06881567 -0.11828978 0.07655633 0.029745026 -0.015599358
-0.010077881 -0.015735691 0.11808098 -0.014954969 0.10976066 -0.07318951 -0.054227028 -0.075113185
0.014559385 0.12518197 0.046456456 -0.029044237 -0.11878956 -0.104349755 -0.07151465 -0.07468728
-0.027567053 -0.052671697 -0.08349309 -0.06959832 0.07307506 0.012976104 0.062281217 -0.099789865
0.045794625 0.022563083 -0.018309753 0.045663487 0.0006687311 0.049822573 0.120295376 -0.05726034
0.094639026 -0.00038814938 0.062866405 -0.00842573 0.109442376 0.06647429 -0.09550615 -0.07221981
0.041204944 0.09025844 -0.08272731 -0.04912166 -0.03654242 0.04140189 -0.006051344 -0.056675125
-0.027703352 -0.12982304 0.12131771 0.0777248 0.046651848 -0.05259375 0.005379423 -0.036061455
-0.06188351 0.06828314 0.07964978 0.06492988 -0.09329045 0.071904294 -0.041096363 0.09903809
0.08652437 -0.13955615 -0.097924404 0.09416367 -0.00707024 -0.14344227 -0.041561436 -0.124497265
0.042806424 0.023504881 -0.030351182 0.053928595 0.107402794 -0.005019438 -0.06613813 -0.11173011
0.00034133627 -0.08124464 0.029112536 0.12790854 0.10060978 -0.0945346 -0.12836644 -0.030716103
-0.051663093 -0.013921896 -0.0018821163 -0.0628029 -0.12371016 -0.050738905 0.011331162 -0.044157878
-0.0030584468 0.011298485 0.043873645 -0.028419517 0.10291678 -0.09458589 0.09993798 0.033137742
-0.10650443 -0.090501696 -0.030868983 0.09633102 0.02433319 0.036034565 0.07370652 -0.09754374
-0.025457878 -0.11063374 0.01488633 0.11947183 0.10088299 -0.019044317 0.04573345 0.0683804
0.13574532 0.10114559 0.078510255 0.051914237 -0.006992167 -0.0863292 -0.086863026 0.08516533
-0.02864807 0.0038733915 -0.04908742 -0.007607326 0.04109288 -0.023336733 -0.02383927 -0.093695395
-0.1184848 -0.0897129 -0.11716496 -0.07660731 -0.08826231 0.112211116 0.0087436875 -0.043069657
0.038243935 0.108902454 0.14047725 -0.025257798 -0.012961684 0.0073779053 -0.034451563 -0.11320122
-0.057198375 -0.066233106 0.07614185 0.04470891 -0.07749638 -0.023372848 0.10418081 -0.025311226

encoder.layers.1.ffn.0.bias f4 [64]
00000000: ae90 cebd f515 e03d c248 ff3c ad72 e03d
00000010: 45b3 4b3d 9d21 2cbd e3a9 23bd 837e abbc
00000020: e22d ed3d 1edf db3d 310b 55bd 16c1 c0bd
00000030: fa72 573d 53d8 5bbd ab62 eebd ca15 003e
00000040: d49c ee3c c683 d43b 1056 9f3d 64aa 30bd
00000050: 5137 ab3d 04c0 d03d 7bdf dabb 0d83 8dbd
00000060: 3d27 d7bc 17dc 52bd fb13 f3bd 5bc6 53bd
00000070: b7ae 323d d48d 153d 6b4e 42bd b4e8 2d3c
00000080: 34ad 01be 107d 653d 3e7c 78bd 4f5c b0bc
00000090: 27e4 b03c 0bae 153d 91b4 d3bc 49e3 01be
000000a0: a346 cabc c669 d9bd 7f11 5d3d 86db b33d
000000b0: ab45 703a 883a df3d b261 75bd f1dc bfbd
000000c0: abf7 aebc 9fc2 f73d 9af1 4ebd 383d f33d
000000d0: d640 ef3d 0b88 553d a629 a03d 47e0 bdbc
000000e0: f85f 55bc cb22 5b3d 86b5 b33c b40c aa3d
000000f0: cc1d 93bd 563d ae3d d546 22bd 0cce bdbc
-0.10086189 0.10941688 0.031162623 0.10959373 0.04973151 -0.042024244 -0.03995694 -0.020934349
0.11581017 0.107359156 -0.052012626 -0.09411828 0.052599885 -0.0536731 -0.11639913 0.12508312
0.029127516 0.006485435 0.07780087 -0.043131247 0.0836016 0.10192874 -0.006679473 -0.069097616
-0.026263827 -0.051479425 -0.11869045 -0.05170284 0.043623652 0.03651221 -0.047438066 0.010614563
-0.12663728 0.056027472 -0.06066536 -0.021528391 0.021593167 0.036542933 -0.025842937 -0.12684359
-0.024691885 -0.10615878 0.053971764 0.08782105 0.0009165655 0.10899836 -0.059907623 -0.09368313
-0.021358332 0.12097668 -0.050523378 0.11876911 0.11682288 0.052131694 0.07820444 -0.023178233
-0.013023369 0.053499978 0.021937143 0.08303204 -0.07183418 0.08507793 -0.039618332 -0.02316954

encoder.layers.1.ffn.3.weight f4 [64, 64]
00000000: e3d2 b6bd 0d78 a83d 14e1 84bd 70b8 513c
00000010: 8118 43bd 7311 963d 4b19 75bd 16d3 a13d
00000020: 1eb0 1b3c d590 043e 7e77 72bd bb6f b43d
00000030: f2f8 afbd 2b9d 25bd 865e 553c 0e30 9ebd
00000040: 3bd7 febc 4b73 ff3d f46c ffbd dead aabd
00000050: 41ff 4cbd 6099 253b 98da aebd 6503 0f3e
00000060: 982e ecbd a83e a6bd 22aa 003e 0e6b 8dbd
00000070: 1074 063d fbec bcbd 8a9d 83bd 1c23 85bc
00000080: 926e 6e3d 93b9 a33d ddc9 0a3e e58d 8f3a
00000090: 652e fbbc b838 40bd 8ad1 b0bd 9507 b43d
000000a0: 683f a3bd d7ca be3c 565b 693c a386 b23d
000000b0: 060f ccbc b5f4 49bd 2c66 f83d 3e19 613d
000000c0: aebd af3c 6431 063d 7038 ddbc 62e9 a73d
000000d0: a2ed 813d a52a a93d 3f70 8f3c 3b8a f23d
000000e0: d33a d4bd bd4b 103e e5ef 00bd c763 ae3d
000000f0: 0895 e23d e94c cbbd eabf 83bd 421b 873d
00000100: de28 483c d80c 483d 1ca3 fb3d 60d9 87bc
00000110: 327b f33d b813 003e 3d70 d6bd 0848 953d
00000120: 6656 1a3d 8270 943d 2871 efbd 1350 78bc
00000130: 0aaa cdbd 42bd 8f3c 00f6 d63c 0a52 db3d
00000140: 236f f83c ee43 0bbd aeda b53d 3bed dabd
00000150: 67c4 8ebd 23dc d03d 8166 313e e101 a53d
00000160: 0c03 9abd bde4 5abd a9c4 0f3e eda4 41bd
00000170: 8da1 d5bd 5fc0 913d 296e eebd 2267 543d
00000180: 2532 8abd 7b60 d83d 9cec 73bc 480f 5fbc
00000190: ad73 e03c 8842 f4bb 39b8 bd3c 5dda 6f3d
000001a0: 9ea6 5fbd 9313 a5bd 827a de3d 7db6 163d
000001b0: f386 773d 4c25 773a 7361 89bd e19a ddbd
000001c0: 3ef7 fabc 6565 0a3d 41fa 973d cff4 0d3e
000001d0: 9660 8abd 00fe 393c 99b7 c5bd 7287 3c3e
000001e0: 6fcd 0fbb 1681 34bd 244c 643d 8646 31bd
000001f0: 6509 373d ec6e e63b ce56 463d e61d 6a3d
00000200: 039a fdbd 5e3e e7bd e58a a5bd 9f9d e3bd
00000210: bfe7 64bc 7140 1fbd a7cd 83bd dd10 c43d
00000220: df5c 153d 0b1f e2bd 0228 d03d b6cf f73b
00000230: 2a0b 2dbd 3ff7 fc3d 12a1 cebd ec74 58bb
00000240: 7161 bf3d 0f15 833d f83d 123d f4cd 023e
00000250: 2d4d 353d ecbf 68bd ce9e babc 1893 c93a
00000260: 739e a0bd 2ba0 3fbd 2316 ecbd b4d3 a03d
00000270: f263 7abd 8c4e debd 808d ce3d c7fc a4bc
00000280: b501 6fbc 7c0c 1ebe 7a91 cdbd 647e d93d
00000290: 2c6f fa3d 363c d03a fd14 fb3c d1e6 ebbd
000002a0: 9c31 413d 24e8 dcbc 6383 483d ccc6 803d
000002b0: 60fc c03d 3ffd a83d 50c5 b53d 9ef8 39bc
000002c0: aac4 aabd 8901 aabd 7206 653d 102b d9bd
000002d0: e67e 50bc b762 7b3d 3237 cdbd b0d7 24be
000002e0: a6be ecbd 880e 203d a69a d9bd 061d 6a3d
000002f0: 0073 b83d 335b 283d e1c0 2f3c 6ca7 2e3d
00000300: 9e93 0c3e b18a aa3d 9856 973d a7a9 9ebd
00000310: edd7 a43d 10fa e13d 8466 c1bd 0a6a c3bd
00000320: 2f41 d1bc 77f1 82bd eb46 c9bd 6e72 c9bd
00000330: d265 5cbd 16ae b0bd de0a 353d 8c4b b53d
00000340: b947 b4bd af79 b3bd 547a fd3d bcd5 943d
00000350: 1fb7 64bd df98 da3d a76b e43c 5465 f03d
00000360: e260 56bd bad2 16bd 4a9d 4cbc 74a2 39bc
00000370: 5de0 e3bd c25d 88bd 4d8f 04be 5542 e33d
00000380: 4f00 cb3d 9fb9 5f3c db1e ce3d 2619 ebbd
00000390: 3c03 8ebd 05b3 31bd 1c64 b4bd 2ad5 563d
000003a0: ff34 133e 5010 c0bd 6605 b33d b138 cb3d
000003b0: 297d f2bd 74de cbbd 4513 3f3d 3eba 8bbd
000003c0: 3a62 e8bd 91f5 323d f4fb 7e3d f3e9 cebd
000003d0: c841 2b3d 09ab babd 72da 99bd f945 e1bc
000003e0: 549b 843d 28fd b0bd 02f1 fcbd ee63 02bd
000003f0: 8db4 a6bd fc71 e5bd d762 d5bd 7259 bdbd
-0.08926942 0.08226023 -0.06488243 0.012800321 -0.04763079 0.07327547 -0.059838574 0.079015896
0.009502439 0.12945874 -0.059195988 0.088103734 -0.085924044 -0.04043309 0.013023024 -0.077240095
-0.03110849 0.12473162 -0.12471953 -0.08333944 -0.050048117 0.002526842 -0.08537787 0.13966139
-0.115323246 -0.081174195 0.125649 -0.06905185 0.03282553 -0.09224888 -0.064265326 -0.016252093
0.058210917 0.0799438 0.13553567 0.0010952322 -0.030661771 -0.04692909 -0.086337164 0.08790509
-0.07971078 0.023290081 0.014242968 0.08717086 -0.024909507 -0.049305636 0.12128863 0.054955713
0.021452751 0.032761946 -0.02700445 0.08198811 0.06344153 0.08260087 0.017509578 0.118427716
-0.10362782 0.14091392 -0.03147878 0.08515125 0.11063582 -0.09926779 -0.06433089 0.06596996
0.012216775 0.048840374 0.1228697 -0.016583145 0.11888732 0.12507522 -0.104706265 0.072891295
0.037680052 0.07248022 -0.11691505 -0.01515581 -0.10042198 0.0175463 0.026240349 0.10709007
0.030326432 -0.03400033 0.088796005 -0.10689779 -0.069710545 0.10198238 0.17324258 0.08056999
-0.075201124 -0.053440798 0.14039864 -0.047276426 -0.10431204 0.0711677 -0.11642105 0.051856168
-0.067478456 0.10565277 -0.014887955 -0.013614483 0.027398909 -0.00745422 0.023159133 0.058557857
-0.054602258 -0.08060374 0.1086321 0.036795128 0.060431432 0.000942786 -0.0670804 -0.108205564
-0.030635472 0.033788104 0.07420779 0.13862918 -0.067567036 0.011352062 -0.09654159 0.18411043
-0.0021942516 -0.04406842 0.055736676 -0.043280147 0.044686694 0.007032266 0.048422627 0.05715742
-0.12382891 -0.112911925 -0.08083133 -0.11114048 -0.013971268 -0.038879815 -0.064357094 0.09573529
0.036465522 -0.11041077 0.10163881 0.007562603 -0.042246975 0.12351846 -0.100893155 -0.0033028675
0.09344757 0.06400501 0.03570363 0.12773877 0.044263054 -0.056823656 -0.022780802 0.001537892
-0.07842722 -0.046783607 -0.1152766 0.07852879 -0.06113047 -0.108548254 0.10085583 -0.020140065
-0.014587809 -0.1543445 -0.10037513 0.1061981 0.122282356 0.0015887085 0.030649656 -0.11518634
0.04716645 -0.026966162 0.048953425 0.062879175 0.09423137 0.08251428 0.08875525 -0.011350779
-0.08338292 -0.08301074 0.05591435 -0.10603917 -0.012725567 0.06137344 -0.10020293 -0.16097903
-0.11559801 0.039076358 -0.106252 0.057156585 0.090063095 0.0411026 0.010727138 0.042640135
0.13728186 0.083272345 0.07389563 -0.07747202 0.08048997 0.11034024 -0.094433814 -0.0954171
-0.025543777 -0.06393712 -0.0982798 -0.09836279 -0.05380804 -0.08626954 0.044199817 0.088523
-0.088027425 -0.08763444 0.12376848 0.07267329 -0.0558387 0.10673689 0.027883364 0.11738077
-0.05233849 -0.03682206 -0.0124886725 -0.011330236 -0.11126778 -0.06658508 -0.1294529 0.11096636
0.09912168 0.013655095 0.10064479 -0.11479406 -0.06934211 -0.043383617 -0.08808157 0.052449383
0.14375685 -0.09378111 0.08741264 0.099229224 -0.11840279 -0.09954539 0.046649236 -0.06822632
-0.1134686 0.04369122 0.062252 -0.10103216 0.04181078 -0.091146536 -0.07512368 -0.027499186
0.06474939 -0.08642036 -0.12350656 -0.03183358 -0.08139906 -0.112033814 -0.10419243 -0.09245576

encoder.layers.1.ffn.3.bias f4 [64]
00000000: b0cd 043e 03c7 023e 5d2b 44bd 65e8 2dbd
00000010: 391f bdbd 003e 0dbe 73e4 be3d 8d11 c43d
00000020: 18a3 7fbc 0e0d 173c 7ee8 ba3c d424 f6bd
00000030: 8c2d b6bd 6be9 4fbd 2608 933d 64bd 6f3d
00000040: 84ec 413d 6ae0 5b3d 9a9f 85bd 812e 913d
00000050: f4b2 dabd fdf2 df3c 356c cdbd 1dd3 033c
00000060: 6f20 b63d c497 c33d d881 3bbd ec41 c5bc
00000070: 8b06 d1bd 5c70 173d 9864 c53d 2a21 ff3d
00000080: 9d65 6b3d cd8b f63d 590f 10be be05 df3c
00000090: 7832 6fbd 4bcd fbbd b8fc 693d 6cca 3fbd
000000a0: da01 b43d a422 ccbd 4d9d 813d 4406 eb3c
000000b0: e96e aebd b81c 81bc 7fa0 0fbb 739a 3e3d
000000c0: 717d 8fbc 2098 eabd 09da b33c 22b3 e53d
000000d0: d0bc ee3d c587 f03c 6fd5 91bb e7fe d83d
000000e0: ca50 4b3c 849c 7039 cc8c aebd ed19 0cbc
000000f0: 845a a63d d8e4 a73d e31a 1cbc 6db0 b8bb
0.12969089 0.1277123 -0.047892917 -0.042457957 -0.09234471 -0.13793182 0.09320917 0.0957366
-0.015602849 0.009219421 0.022815939 -0.12018743 -0.08895406 -0.050759714 0.071792886 0.058530226
0.0473447 0.053680815 -0.06524582 0.07088948 -0.10678664 0.027337546 -0.100304045 0.008045939
0.08892905 0.09550431 -0.045778126 -0.024079286 -0.10206326 0.03697239 0.09638327 0.124574974
0.057469953 0.12038384 -0.14068355 0.027224418 -0.05839774 -0.12295016 0.057125777 -0.046823904
0.08789416 -0.09967545 0.06328831 0.028689511 -0.08517248 -0.015760764 -0.0021915731 0.046534013
-0.01751587 -0.11454797 0.021954553 0.112158075 0.11657107 0.029361615 -0.004450492 0.10595494
0.012409398 0.0002294649 -0.085229486 -0.008551103 0.08122733 0.08197945 -0.009527895 -0.005636266
