BDG2/results/Autoformer-BDG2.pt (torch, 134742 bytes, 31 tensors)

enc_embedding.weight f4 [64, 4]
000000 87 93 30 3e 56 37 7a 3e ff f9 c1 be 0f 48 66 3e
       0.17243777 0.24435171 -0.37886044 0.22488426
000010 be 58 e3 3e 1c 90 53 3e a3 19 f5 bd 25 ec fd bd
       0.44403642 0.20660442 -0.119677804 -0.123985566
000020 7f 6b 01 bf 58 d3 9b 3e f8 dd 33 be f4 12 83 3e
       -0.5055465 0.3043468 -0.17565143 0.25600398
000030 0f f2 74 3d b7 36 0c bf 89 7e 6d 3d 0c 6d 96 be
       0.059801158 -0.5477099 0.057982 -0.2938007
000040 0b 49 4e 3e 39 ae 2f bd e2 32 ab be 20 92 2e bd
       0.20145051 -0.04289076 -0.33437258 -0.042619824
000050 77 ca c6 3e 9d c3 05 3e ef c8 30 3d 54 b6 49 be
       0.38826343 0.13062902 0.043160375 -0.19698459
000060 92 e4 dd be 01 f0 0d bf c8 96 f1 3e fa 53 de be
       -0.43338448 -0.5544434 0.4718535 -0.43423444
000070 cf a1 0e bd 9e 7a 46 3e 43 d2 b3 be fb 53 d2 3e
       -0.03482228 0.19382712 -0.35121354 0.41079697
000080 16 27 c2 be bd 75 16 bf 09 fc c9 be 80 f6 1b bd
       -0.37920445 -0.58773404 -0.394501 -0.038076878
000090 2e e4 db be 47 6c a1 be 74 c3 f3 3d b1 5c 35 3d
       -0.42947525 -0.31527922 0.11902514 0.04427785
0000a0 9d a1 f9 3e 73 e9 0d bf 21 11 e1 be cd 34 34 be
       0.48756114 -0.5543434 -0.4395838 -0.17598267
0000b0 e5 7e b1 3e 9f a5 5e be ac 6d be bd ce 27 ad 3d
       0.34667125 -0.21742867 -0.09298262 0.08454858
0000c0 17 7d 5d bd f8 d9 00 bf 68 6c 68 3e 26 cb 7d bd
       -0.054074373 -0.50332594 0.22697604 -0.061961316
0000d0 6d 25 58 3e 98 8b 25 3f 93 df 94 3d 57 33 2e 3d
       0.21108027 0.6466613 0.07269206 0.04252943
0000e0 b3 49 90 3e 8d 14 fa 3e 60 e4 8d be 8e 8b 49 3e
       0.28181228 0.48843804 -0.277133 0.19682142
0000f0 f4 ad 68 3c 57 58 1c 3d 2c 07 cd be bc c8 7e 3e
       0.01420163 0.038170185 -0.40044534 0.24881262
000100 70 e1 6b 3e a3 45 76 bd 0a d7 c9 be 15 07 bb be
       0.23035216 -0.060125005 -0.39421874 -0.3652884
000110 b3 31 18 bb 34 da b2 3e 5d 27 df be 1b 0b e1 be
       -0.0023222982 0.349321 -0.4358472 -0.43953785
000120 c4 44 75 3e 0a a4 36 3e d9 df 3d 3e 55 98 bb 3e
       0.23952013 0.17836013 0.18542422 0.36639658
000130 d7 4f e3 be d4 ed bf 3e 9b ee ce 3e a1 2f c6 3e
       -0.4439685 0.37486136 0.40416417 0.38708213
000140 98 40 a6 3d 41 d0 0c bf 87 73 b4 3d 1e 46 e2 be
       0.08117789 -0.5500527 0.088110976 -0.4419412
000150 17 9a c4 be b2 4a c8 be db 50 8f be 72 47 91 3e
       -0.3839881 -0.39119488 -0.27991375 0.2837482
000160 2b d9 90 be 8b 49 17 3e 6c cc f5 3e df 98 f1 3d
       -0.28290686 0.14774148 0.48007524 0.11796736
000170 7f ef e8 bd 67 3f 1e be d2 31 4f be 5f 18 96 3e
       -0.11373805 -0.15453874 -0.20233849 0.2931547
000180 49 94 66 3e fe 66 94 3e 04 2d af be 78 37 b1 be
       0.22517504 0.28984827 -0.34214032 -0.34612632
000190 1d ac 2e 3e 28 03 97 3e 7e 21 d6 3e b7 d8 bd 3e
       0.17057844 0.29494596 0.41822428 0.37079403
0001a0 23 91 dc be f8 e1 83 bd b4 a0 c0 3e aa a1 dd 3e
       -0.4307948 -0.064395845 0.37622607 0.43287402
0001b0 47 ef f6 3e e8 73 83 3e 4e e0 c3 bc a3 bf 03 3e
       0.4822943 0.25674367 -0.023910668 0.12866072
0001c0 1d 65 bd 3e 97 6e 1a be 65 45 a8 3e d9 39 e0 3d
       0.36991206 -0.15081249 0.32865444 0.109485336
0001d0 d2 4d 5a 3e 70 16 e0 3e 77 e5 da 3e 09 88 89 be
       0.21318749 0.43767118 0.42753193 -0.268616
0001e0 5a 54 e4 be d0 de c6 bd 00 08 cb 3e 8d dc 83 be
       -0.44595605 -0.09710467 0.3965454 -0.25754204
0001f0 63 92 c0 3e fc d9 9d be aa 3a e8 be ca c3 8f bd
       0.37611684 -0.3083037 -0.45357257 -0.07019766
000200 f6 5d 82 3e 41 ba be 3e 8f 8e 21 3d c4 55 64 3d
       0.25462312 0.37251475 0.039442595 0.055745855
000210 93 10 92 be 58 c7 1a 3f a4 aa 26 3d d2 74 8c 3e
       -0.2852827 0.60460424 0.04069008 0.27432877
000220 8f b1 26 be 78 45 36 3e f3 27 c0 be fc 72 7c be
       -0.1627867 0.17799938 -0.3753048 -0.24653238
000230 14 74 d7 3e 79 2b 11 be 7e b7 63 3e ae 87 f3 be
       0.42080748 -0.1417674 0.22237965 -0.47564453
000240 25 c6 f0 3c ab 50 17 3f 31 b7 70 3e 49 8a a3 bd
       0.029391358 0.59107465 0.23507382 -0.0798536
000250 a5 f8 d6 3e bf 34 99 bd 0c 4b ef be 46 6b d6 be
       0.41986576 -0.07480764 -0.46736944 -0.41878718
000260 61 74 97 be b0 6f b7 be 70 9e f1 3e ea 5c 4e be
       -0.29580978 -0.35827398 0.4719119 -0.20152631
000270 b7 13 00 be 32 a3 c5 be f4 23 3f be 46 42 87 3d
       -0.1250752 -0.3860107 -0.18666059 0.066044375
000280 bd 9a 85 3d 26 01 1d be cf e7 f1 be f0 fd dc 3e
       0.065236546 -0.1533247 -0.47247168 0.4316249
000290 47 e0 a6 3e 47 74 bc be 43 f2 26 be ac 5c b9 be
       0.32592985 -0.36807463 -0.16303353 -0.36203516
0002a0 62 90 84 3e aa a6 27 3d 16 d6 e8 3e f7 30 4a bd
       0.25891405 0.040930428 0.45475835 -0.049363103
0002b0 d6 e3 00 be c9 35 a2 3e 52 82 0d 3e d4 0a b1 bb
       -0.12586913 0.3168166 0.13819245 -0.005402902
0002c0 93 3b ed 3e 1c 0f 9d be 5b dc c3 bd 65 fb dc 3e
       0.46334514 -0.3067559 -0.09563514 0.4316055
0002d0 58 58 06 bf 3b cb 9a 3e ce b6 a3 be fb 6a 08 be
       -0.5247855 0.30233178 -0.31975406 -0.1332206
0002e0 b1 5e e4 3e 7d 5c df 3e ae 71 74 be 5f 86 11 3e
       0.44603494 0.4362525 -0.2387149 0.14211415
0002f0 ee 72 8c 3e e3 a0 9f 3e e0 98 c0 3e b7 60 b3 3e
       0.27431434 0.31177434 0.37616634 0.35034725
000300 52 d5 54 3c 92 47 15 bf 3c dd c3 bd 26 3b 4e be
       0.012990313 -0.5831233 -0.095636815 -0.20139751
000310 02 f8 a2 be 68 36 ce be 4e 17 f1 3e 74 9c a7 be
       -0.3182984 -0.40275884 0.47088093 -0.32736552
000320 87 9a 8a 3e e1 e7 9a be fd f5 06 3e 0d 7f e1 3e
       0.2707102 -0.30255035 0.13179775 0.44042245
000330 9c 22 75 3e 68 b8 26 bd 98 d9 9b bc 99 3f 3f bc
       0.23938984 -0.040703207 -0.019024655 -0.011672878
000340 be c9 ae 3d 8d e1 d9 3e a1 5c 16 3e fa 7b cd be
       0.08534573 0.42554894 0.14683773 -0.4013365
000350 69 33 cb be 59 96 07 bf ec cc 33 be c2 26 02 3f
       -0.3968766 -0.5296379 -0.1755864 0.5084039
000360 4f e0 ad bd 3c fd b3 bd 17 a4 98 bd 9f ef e8 3e
       -0.08490049 -0.08788535 -0.07453173 0.45495316
000370 1c 1b bf 3e 94 73 0f be 97 33 99 3e 7d d5 d7 3d
       0.3732537 -0.14008933 0.29922172 0.105387665
000380 6a df 3b 3e 0f f7 e3 3e 61 44 46 be f6 fb 4d 3e
       0.18346944 0.44524428 -0.19362022 0.20115647
000390 2c 02 7f be 41 66 a2 3e 2b 70 50 be 25 67 5d be
       -0.24903172 0.3171864 -0.20355289 -0.21621378
0003a0 ba 6f a8 3e f4 c4 be 3e 33 f7 cd be 9f f6 08 3e
       0.3289774 0.37259638 -0.4022766 0.13375328
0003b0 6d 0f 63 3e 2d ae f2 be 8a 3c 8a 3e 21 3c ab be
       0.22173853 -0.4739851 0.26999313 -0.33444312
0003c0 52 ef 96 3e d2 62 a6 3e 7a d9 95 be d7 c9 a2 3e
       0.29479462 0.3249727 -0.29267484 0.31794617
0003d0 e8 77 e0 be 3b 1e fa 3e a8 5a e4 bc 8a d7 3a 3e
       -0.4384148 0.4885119 -0.02787526 0.18246284
0003e0 38 bd ce 3c 25 60 70 bd d8 9e 1e be ad 62 59 be
       0.02523671 -0.05868544 -0.15490282 -0.21229048
0003f0 70 4b a4 be 1f d1 03 3f 9a 28 7c be 87 8d 4f be
       -0.32088804 0.5149097 -0.24624863 -0.20268832

enc_embedding.bias f4 [64]
000000 10 bc f0 be c3 d2 c9 bc 09 dd e2 be 68 f8 f9 be
       -0.4701848 -0.024636632 -0.4430926 -0.4882233
000010 4f d3 60 bd b9 53 16 bd a1 dd b4 be 91 0b f2 3e
       -0.05488902 -0.036700938 -0.3532534 0.4727445
000020 db a0 6e be 32 de 05 be a7 46 f0 bc 57 72 f4 3d
       -0.23303549 -0.13073042 -0.029330565 0.11935871
000030 79 6a ec be 42 f8 9d be ae a0 22 3e b6 24 ba be
       -0.46174982 -0.30853468 0.15881607 -0.36356133
000040 e3 f8 ad 3e 51 c6 93 be b3 b4 f0 3e 36 1c 02 be
       0.33978948 -0.2886224 0.47012863 -0.12706074
000050 3f 1f 28 be 9c 9c 8e be 48 4d f1 be 09 ed 23 be
       -0.1641817 -0.27853858 -0.47129273 -0.1600839
000060 77 8f 8c bd ed 4b b7 3e 6f ff b1 3e 2e e4 ad bd
       -0.06863301 0.35800114 0.34765193 -0.084907874
000070 57 d0 73 3e 91 e1 c5 be 95 c5 f8 be 67 51 a9 3e
       0.23809944 -0.38648656 -0.48588243 0.33069918
000080 2b a1 df 3e 5f 76 37 3d cc c4 9e 3e f2 3e 32 bc
       0.4367765 0.04479062 0.3100952 -0.010879265
000090 c8 0e cf bc 66 0f 44 bd 6f 0e 91 be a2 dc ae 3e
       -0.025275603 -0.047866248 -0.28331324 0.34152704
0000a0 9b c2 f1 be ce 89 8d be 5f 8a f0 3e 26 47 eb 3e
       -0.47218785 -0.276442 0.4698057 0.4595272
0000b0 7c 41 b8 3e 26 04 c0 be 4e 3c 98 bd 1d 6b 8f be
       0.3598746 -0.37503165 -0.07433377 -0.28011408
0000c0 4d dd 6a 3e 97 6a b7 3e 36 50 0a be cb 9b 5a be
       0.22935982 0.3582351 -0.1350716 -0.21348493
0000d0 1d bf 76 bd 01 ad 48 3e 0f 8c a3 be 4c d4 77 be
       -0.060240854 0.19597246 -0.31942794 -0.24202079
0000e0 45 28 38 bd f0 f7 df be 47 e6 0a bd 6b b1 ad 3e
       -0.04496028 -0.4374385 -0.033911016 0.33924422
0000f0 10 15 0e 3e 47 f8 9a 3e 82 c6 ae be aa 3b a9 be
       0.13875222 0.30267546 -0.34135824 -0.33053333

output_layer.weight f4 [1, 64]
000000 d2 3b e8 bc d3 03 2d 3a 8e 58 59 3d 1a 05 ae bc
       -0.028348837 0.0006599996 0.053062968 -0.021242667
000010 e7 cf 7c 3c 63 6f 1b 3d 3e 6d a9 3d 2e 2e b5 3b
       0.015430427 0.037948024 0.082727894 0.0055291867
000020 3c e6 40 3d 5a 01 d5 bd 23 b8 89 bc fe a0 36 3d
       0.04709457 -0.104006484 -0.016811436 0.044587128
000030 a3 05 91 bd 7d 1b 9d 3c 0a 8d 32 ba 3c 5d e8 3c
       -0.07081153 0.019178146 -0.00068111776 0.02836477
000040 f2 2c 98 bc 47 64 c8 3c c9 d2 17 bd 46 b5 cd 3d
       -0.01857612 0.024461878 -0.037066255 0.10044341
000050 e3 ae d4 3d 8e 9d bf 3d 76 07 42 3d c6 b9 97 bc
       0.103849195 0.09356223 0.047370397 -0.0185212
000060 e1 96 53 bc f0 99 8a bc b9 21 7e 3b 39 dc 35 bd
       -0.01291439 -0.016919106 0.0038777424 -0.044399474
000070 30 e6 a9 bd 3b e4 ca 3d 3c 34 c5 bd f9 1a 57 3d
       -0.08295858 0.09906813 -0.096291035 0.052515958
000080 7d f3 9d 3d 90 77 7e 3d 69 83 7d bb 1f 18 a0 3d
       0.07712457 0.062125742 -0.0038683063 0.07817101
000090 1d 8e f2 bc a8 eb ae bd b6 e9 32 bd b3 b0 a4 3d
       -0.02960878 -0.085410416 -0.043679915 0.08041515
0000a0 cb 4b fc b8 74 af a7 3d f2 82 df 3c 0e 2e 1f 3c
       -0.00012030414 0.08187762 0.02728412 0.00971557
0000b0 ca 69 fc bb 79 ee 0c 3d 30 2e 9f bd 7b c1 3a 3d
       -0.0077030407 0.034407113 -0.077724814 0.045594674
0000c0 b3 7d 87 bd 53 6c 65 bb d0 28 3f bd a2 55 8c 3c
       -0.06615772 -0.0035007193 -0.04666978 0.017130677
0000d0 8f b0 3c 3d 97 19 89 3d 4c 38 c2 3a 8a 0b be 3c
       0.046066817 0.06694334 0.0014817803 0.023198862
0000e0 7f 47 a4 3d c9 34 17 bd ea 61 90 b9 95 b8 3d bd
       0.08021449 -0.036915574 -0.00027538772 -0.04631861
0000f0 28 98 ba 3d c3 92 d9 bc d7 09 a6 bd 43 ac 15 3d
       0.09111053 -0.02655924 -0.081073456 0.036541235

encoder.layers.0.layer_norm1.weight f4 [64]
000000 d0 3f 7c 3f 16 90 76 3f e3 0b 81 3f 5d 6b 7c 3f
       0.9853487 0.9631361 1.0081753 0.98601323
000010 c3 b7 7d 3f ea 42 7a 3f 01 ee 7f 3f 7f 20 82 3f
       0.99108523 0.9775835 0.9997254 1.0166167
000020 45 c0 7c 3f 97 6d 7a 3f 3e cc 7e 3f 68 6f 81 3f
       0.9873088 0.9782347 0.995304 1.0112123
000030 57 d9 75 3f 9d c1 83 3f a3 97 83 3f 58 89 7b 3f
       0.9603476 1.0293461 1.0280651 0.98256445
000040 0c 47 7d 3f 1b 5a 7f 3f 50 cf 80 3f 24 91 7c 3f
       0.98936534 0.99746865 1.0063267 0.98658967
000050 2a 77 7f 3f c3 b7 78 3f c0 5a 80 3f 52 e9 7b 3f
       0.99791205 0.971554 1.0027695 0.98402894
000060 a4 36 81 3f 89 5b 7c 3f c4 7b 80 3f 21 6a 78 3f
       1.00948 0.9857717 1.003777 0.9703694
000070 8d 6a 80 3f 3e aa 80 3f c6 bb 81 3f 5c 41 82 3f
       1.0032517 1.0051954 1.0135429 1.0176196
000080 5a 68 82 3f df ec 7a 3f e0 ae 82 3f a3 48 80 3f
       1.0188096 0.98017687 1.0209618 1.0022167
000090 cb 51 82 3f 9c a2 80 3f 2e f6 80 3f ff 26 79 3f
       1.0181211 1.0049624 1.0075128 0.9732513
0000a0 94 5b 80 3f aa 86 80 3f ce de 79 3f 8f db 82 3f
       1.0027947 1.0041096 0.976056 1.0223254
0000b0 f0 31 7b 3f d6 ec 7a 3f 03 27 7f 3f e7 a2 7c 3f
       0.98123074 0.9801763 0.996689 0.9868607
0000c0 56 81 87 3f 76 66 80 3f cf 40 82 3f 15 14 80 3f
       1.0586345 1.0031269 1.0176028 1.0006129
0000d0 b4 cc 7f 3f f1 24 7a 3f 25 9e 81 3f 9d 42 80 3f
       0.9992173 0.9771262 1.0126387 1.0020329
0000e0 60 d5 84 3f 6b 92 82 3f 2d 43 84 3f dc 5f 87 3f
       1.0377617 1.0200933 1.0333 1.0576129
0000f0 9e 51 7d 3f fd 19 7a 3f c3 93 80 3f fc 5c 81 3f
       0.9895266 0.97695905 1.0045093 1.0106502

encoder.layers.0.layer_norm1.bias f4 [64]
000000 d4 55 71 b9 4f ef 1a b8 b9 ea e0 38 62 3a 9d b7
       -0.00023015524 -3.6939335e-05 0.00010724873 -1.8743045e-05
000010 2f 37 16 38 bf be 00 3a 2d d2 d9 b9 45 1b 2b 39
       3.581418e-05 0.0004911236 -0.00041546058 0.0001631799
000020 15 9a 1d 3a ad 7e 0f ba 3c c0 fb b7 c0 a1 87 b9
       0.0006012035 -0.0005473893 -3.0011048e-05 -0.0002586972
000030 f1 c7 79 b9 05 7a 08 39 b6 cb 43 39 0f c3 b6 b9
       -0.00023820974 0.00013015427 0.00018672537 -0.00034859075
000040 36 71 26 39 0c ed dd b8 92 73 b1 39 cf 1d b7 b9
       0.00015873168 -0.000105822546 0.00033846177 -0.0003492669
000050 71 ea de b8 9e 83 97 b8 83 b0 82 b9 c4 93 37 38
       -0.00010629453 -7.224757e-05 -0.00024927044 4.3768217e-05
000060 1b f7 7a 38 f2 12 0b ba 1f d2 b4 38 2a ea 7a b8
       5.983478e-05 -0.0005305252 8.622207e-05 -5.9822727e-05
000070 5a 12 9c b9 14 72 04 b9 b2 20 fd 38 5a 22 89 38
       -0.00029768312 -0.00012630998 0.0001207007 6.5390675e-05
000080 e9 5d 18 b8 0f 3f b9 b9 30 e4 13 39 bb 66 47 39
       -3.6327085e-05 -0.00035332932 0.00014104019 0.00019016389
000090 6a 47 35 37 58 8f 6a 38 f2 df ff b8 5c 4f 57 39
       1.0805068e-05 5.5923447e-05 -0.000122010606 0.00020533561
0000a0 9c ba 0a 39 fd 5b 1a b9 4a 5b 74 39 98 78 35 39
       0.00013230223 -0.00014720853 0.00023303661 0.0001730643
0000b0 de 0d 94 b8 84 30 21 b8 0e a6 72 39 1b fb 60 38
       -7.059773e-05 -3.8430575e-05 0.00023140779 5.3639622e-05
0000c0 60 18 ce b8 cf 5f 0a b9 5c a8 18 b9 b1 10 5c b8
       -9.827386e-05 -0.00013196397 -0.00014558568 -5.2467632e-05
0000d0 31 20 3d b9 08 c9 15 39 ef 9d 76 37 82 c0 04 b8
       -0.00018036437 0.00014284637 1.4699514e-05 -3.165054e-05
0000e0 a7 b4 0b b9 b3 2b e4 b7 82 5d bb b6 6b 24 7f 37
       -0.00013323371 -2.7200067e-05 -5.58392e-06 1.5207664e-05
0000f0 1a f9 c1 b8 8f 57 2e b9 65 b4 ed b7 03 01 09 b8
       -9.249356e-05 -0.00016626551 -2.8336604e-05 -3.2664288e-05

encoder.layers.0.ffn.0.weight f4 [64, 64]
000000 b7 9a 3e 3c 79 d8 a2 3d 90 8c 9c 3d 29 ac 97 bc
       0.011633567 0.07951445 0.07643998 -0.01851471
000010 5d 7f 0d 3d ec 89 cb bd fc a8 c2 bd 4a 45 a1 bc
       0.03454529 -0.09938416 -0.095048875 -0.01968636
000020 e9 8d b3 3d 31 9f ba 3d 10 86 e1 bc 9f b1 50 bc
       0.087673016 0.091123946 -0.027529746 -0.012737661
000030 7d fc d8 3d 3a 01 9c 3d 81 6e d5 bd 49 79 84 bd
       0.10595033 0.076174214 -0.104214676 -0.06468446
000040 4e 17 d1 3c 0a 77 e4 bc 0d ef 3f 3d 11 52 26 bd
       0.025523808 -0.027888793 0.046858836 -0.04060561
000050 5d 79 d4 bd 5b 03 05 3e 56 80 2b bc 0f e4 a2 bd
       -0.10374711 0.12989561 -0.010467609 -0.07953655
000060 ca b5 b7 3d 78 d3 1e 3c a6 56 92 3c 20 61 6c 3d
       0.089702204 0.009693973 0.017863583 0.057709813
000070 c1 dc af 3d 51 75 33 bd ae cb b9 bd 80 cd ac bd
       0.08587027 -0.043813054 -0.09072052 -0.084376335
000080 03 4f ce bc 79 42 e1 bd 5b f9 23 3c 76 e4 25 3d
       -0.02518416 -0.10999007 0.010008181 0.04050108
000090 bd 81 d8 bd 62 88 b0 3d 1d 28 30 bd 47 e6 81 3d
       -0.105716206 0.08619763 -0.043007005 0.0634275
0000a0 74 35 09 3e f7 be eb bb 12 dd 8c bd 38 5d 4c 3d
       0.13399297 -0.0071943956 -0.06878103 0.049893588
0000b0 dd 71 ae bb 4c af 09 3d 00 d8 fb bc df 2f 53 bd
       -0.005323632 0.03361444 -0.030742645 -0.051559325
0000c0 ee cc a0 bd 53 d1 e9 3b 38 3f 15 bc 12 aa eb bd
       -0.07851587 0.007135549 -0.009109311 -0.11507048
0000d0 75 9e a1 bd 5e 2d c8 3d 3f 93 f0 3d cb a1 96 bd
       -0.078915514 0.09774278 0.11746835 -0.07355078
0000e0 a0 45 38 3d b9 56 c8 3d fb 2e 9e 3d 1d 36 60 3d
       0.044988275 0.09782166 0.077238046 0.054739106
0000f0 86 07 ea 3d 3a 13 00 3d 77 8e d3 bc 79 c8 65 bd
       0.11427216 0.031268336 -0.025824768 -0.05609939
000100 73 fc 99 bb 01 d1 46 bc 01 73 b2 3d dd 39 90 bd
       -0.0046992837 -0.012134791 0.087133415 -0.070422865
000110 19 6f cb 3c 44 f1 93 bd 52 66 62 3d a5 e8 f0 3d
       0.024833249 -0.07223752 0.05527336 0.117631234
000120 ea cb a4 bd 9c ad c8 3c b0 1f b9 3c 31 20 0f be
       -0.08046706 0.024496846 0.022598118 -0.13977124
000130 91 4f ca 3c ae 40 0b bc 96 5b 24 3d 1d 44 19 bd
       0.024696143 -0.008499308 0.040126406 -0.037418474
000140 50 8e d4 3d b1 87 a9 bd b9 4b 68 bd e2 09 c5 bb
       0.103787065 -0.08277834 -0.05671284 -0.006013141
000150 88 9c cc bd 25 3f 82 3d 92 69 f6 3d 00 da ee 3c
       -0.099907935 0.063597 0.12031855 0.029156685
000160 67 99 20 3d 8f 4f 07 3e 9c 9f 94 3c b7 0b b4 3d
       0.039208796 0.13213943 0.018142514 0.08791297
000170 f9 2f 23 3c 27 f1 2d 3d 1d 11 a5 bd ee 2e 8b bd
       0.009960168 0.04246631 -0.08059905 -0.067960605
000180 7f 24 4d 3d a4 a2 d3 3d fb f5 86 3b 3a f6 22 3d
       0.050083634 0.103337556 0.0041186786 0.0397856
000190 01 cd 0a 3b ef d1 6f bd 98 fb be 3d 61 12 03 be
       0.002117932 -0.058549818 0.093253314 -0.1279998
0001a0 a6 a3 b0 bd ae 18 11 3d ff 85 3f 3d 28 bf 9b bd
       -0.086249635 0.035423927 0.046758648 -0.076048195
0001b0 9e ac c5 bd d5 de 80 3c 17 97 22 3e 3f 8f b7 bd
       -0.09652065 0.015731255 0.15877949 -0.08962869
0001c0 e8 47 83 3c 1f d8 0d bd 6e 4f 13 be f2 a1 f5 bc
       0.016025499 -0.034629937 -0.14385769 -0.029984448
0001d0 a9 2a fb 3d 98 ed 07 be 87 c4 81 bd 44 32 57 bd
       0.12263996 -0.13274229 -0.06336313 -0.05253817
0001e0 ef 46 03 3e 86 09 b8 3d 08 8e 91 bd 36 91 87 3c
       0.12820028 0.089861915 -0.071071684 0.016548734
0001f0 be 67 0a bd eb c5 ed 3d 17 ba b0 bd 65 13 ee 3d
       -0.033790343 0.116100155 -0.08629244 0.11624793
000200 94 fd 6a 3d aa 2e 0b be 79 5a c1 3c 95 a3 8b bd
       0.057370737 -0.1359202 0.023602711 -0.0681831
000210 59 20 77 bb c6 88 c2 bc 18 03 9f bd bd af 51 3d
       -0.003770849 -0.02374686 -0.07764262 0.051192988
000220 63 4c 82 3d 6d 57 b2 bd 95 50 18 bd ef 25 75 bd
       0.06362226 -0.087080814 -0.037186224 -0.05985063
000230 1c 23 8e 3d ab fb e0 bd c4 0f f7 3d df ec b5 3b
       0.0694029 -0.10985502 0.12063554 0.005551919
000240 ce a0 87 bd 4f 39 fd bd 4c 62 d0 bc 1a f0 32 bb
       -0.06622468 -0.12364446 -0.025437497 -0.0027303756
000250 d6 52 94 3d 2a ca 1d bc 69 25 7c 3c 39 08 e7 3c
       0.07242362 -0.009630719 0.015389779 0.028202163
000260 a5 5b 85 bd 6a ac eb bd 1e 67 45 bc 01 10 00 3d
       -0.065116204 -0.11507495 -0.012048511 0.031265263
000270 82 0b cb bd 28 7d a5 3d 0b b2 6b 3d a8 20 df 3b
       -0.09914304 0.08080512 0.057542842 0.006809313
000280 c4 1d 1f b9 98 b5 af 3d 45 11 27 bb a0 09 96 bd
       -0.0001517451 0.08579558 -0.0025492471 -0.073260546
000290 b4 d1 55 bc f2 d8 ce bd 7e 78 b4 3d a0 ba cf 3c
       -0.013050485 -0.10099973 0.088120446 0.025357544
0002a0 1e e5 0e 3d 4d af 0e bd 85 a0 c6 3d da 7a ca bd
       0.034886472 -0.03483515 0.096985854 -0.09886713
0002b0 92 ea 45 bd a5 38 fd bd c9 ea ed 3d 46 ac 97 3d
       -0.048319407 -0.1236432 0.11617047 0.074059054
0002c0 47 ac a6 3c 30 ed 0f 3d 67 6a 1b bd 56 bb 94 bd
       0.02034582 0.03513831 -0.03794327 -0.07262294
0002d0 b1 6d 20 bd 1e bc 0f bb f8 73 98 3c 9b ff 76 3c
       -0.03916711 -0.0021932195 0.018609986 0.0150755895
0002e0 e0 c4 21 bc 53 4d 70 bd af 3b e5 3c 70 63 a7 3c
       -0.009873599 -0.058667492 0.02798256 0.020433158
0002f0 bb 70 bb 3d e8 5f b1 b8 85 6e ca 3d 15 c0 e4 3d
       0.09152361 -8.4578816e-05 0.09884361 0.11169449
000300 51 30 18 bd 2d 24 17 3d c4 cb b6 bd 6f 5b b6 bd
       -0.037155453 0.036899734 -0.08925584 -0.08904158
000310 41 a0 92 3c c5 fa 99 3d 68 84 73 bc c3 06 9d 3d
       0.01789868 0.075185336 -0.014863111 0.07667305
000320 67 7c 53 3c 7b 7c 0a 3e 27 b3 95 3c 77 a2 c3 3d
       0.012908078 0.13524048 0.018273903 0.09552472
000330 24 26 a4 3d ea e6 dc bd 1f 33 3e bd 18 8c 91 3d
       0.08015087 -0.10786231 -0.04643547 0.07106799
000340 46 03 00 bd 38 d6 ef bc fd 76 74 3d 5c c0 d3 3d
       -0.03125312 -0.029276952 0.05968379 0.10339424
000350 6a 8e fa 3c a3 9d 17 bd 15 58 cd 3d 08 25 b1 3d
       0.030585486 -0.03701557 0.10026566 0.08649641
000360 10 f4 4c 3d a5 11 fc bd 45 59 f0 3d 13 80 f0 bd
       0.050037444 -0.12308053 0.11735777 -0.11743178
000370 75 e0 f8 3c 23 46 91 3d 47 36 27 bd 3f fb 08 3e
       0.030380467 0.07093456 -0.040823247 0.13377093
000380 9a a1 9a 3d 7e 1b 27 bd 3b 16 95 3d 7f e7 e4 3c
       0.07550354 -0.040797703 0.07279631 0.027942417
000390 cd 09 b6 bd 77 e3 46 bc fb 13 cd bd 3a 2f 0c bd
       -0.08888588 -0.012139193 -0.100135766 -0.034224726
0003a0 69 eb 3c 3a 9e 75 2a 3c 32 c1 b0 3c 4a f6 ee bd
       0.00072067097 0.010404019 0.021576498 -0.1166807
0003b0 05 f2 aa 3d bf 35 e4 3d 65 83 c9 3d 46 15 7d 3d
       0.08346943 0.11143064 0.09839515 0.061787866
0003c0 18 d9 57 3d d5 dd 70 bd ec 92 a7 3d 0e ae c4 bd
       0.05269727 -0.058805306 0.0818232 -0.09603511
0003d0 92 27 ec bd b8 10 c4 bd 05 b1 c5 bd 8e 66 9b bd
       -0.11530985 -0.09573501 -0.096529044 -0.0758792
0003e0 19 17 03 be e3 0b cd 3d 9b ea 18 3d 32 04 c2 3d
       -0.1280178 0.10012033 0.037333112 0.094734564
0003f0 1d 90 0d be 39 16 8e bb 4c 22 bf 3d c5 7e 91 3c
       -0.13824506 -0.0043361452 0.093327135 0.017760644

encoder.layers.0.ffn.0.bias f4 [64]
000000 47 52 c6 3c 07 c7 bb bd 62 3e 79 3d 0c 62 cf bd
       0.024209155 -0.09168821 0.06085051 -0.10126123
000010 17 d5 91 bd 2a a7 f9 3d f6 99 d1 3c 9e 52 82 3d
       -0.07120722 0.12190087 0.02558611 0.06363414
000020 a2 e5 ee bd 61 53 20 3d bb 03 42 3d 43 8b 1c bd
       -0.11664893 0.039142016 0.04736684 -0.038218748
000030 92 73 9b 3d 3f d3 24 3d cb ff b2 bc 00 a1 a3 3c
       0.07590403 0.040240522 -0.021850487 0.019974232
000040 0b 28 ca 3d 49 c9 c6 3d ff e2 6f bc a5 5c 97 bd
       0.09870919 0.09706361 -0.014641522 -0.073907174
000050 1d f3 e1 3c 64 e1 53 bd 65 0f 5a 3c 2b 82 58 bd
       0.027581746 -0.05172862 0.013309334 -0.052858513
000060 b3 e3 9e bd 57 64 56 3b 9e 88 4f 3c 7d 45 bc 3c
       -0.07758274 0.0032713616 0.012666849 0.022982353
000070 ad ec 83 3d f0 13 8b b9 97 d7 15 3e 02 97 ab 3d
       0.06441627 -0.00026527 0.14633022 0.08378412
000080 1f e2 bf bd d1 a7 93 3d b5 e4 3e bb 4b 1f 41 bc
       -0.09369301 0.07209743 -0.002912802 -0.011787246
000090 22 ba b5 bd ce 60 87 bd ba 2d 76 3c a0 d3 f8 3c
       -0.08873393 -0.06610261 0.0150255505 0.030374348
0000a0 27 ae 08 3e a2 87 27 bd a4 61 1e 3d 9c 38 70 bd
       0.13347684 -0.040900834 0.038667336 -0.058647737
0000b0 82 f9 15 bc 19 31 09 3e 6e 3e d1 bb 0d 81 3c bd
       -0.009153726 0.13397636 -0.006385616 -0.04602151
0000c0 88 22 f4 3d 5e 1c 27 bd 3c a3 96 bd f2 5c 64 3d
       0.11920649 -0.040798537 -0.07355353 0.055752702
0000d0 5a e0 d4 bd 7e 72 04 be e0 06 cd 3d be 55 9b 3d
       -0.10394354 -0.129343 0.10011077 0.075847134
0000e0 f2 69 0b be ca 1b c0 bc 79 4f 30 bc 31 96 e3 3d
       -0.13614634 -0.02345075 -0.010761135 0.11112631
0000f0 85 56 a8 3d 53 a6 8e 3c 27 32 1f 3e 62 52 43 3d
       0.08219627 0.017413294 0.15546475 0.04768599

encoder.layers.0.ffn.3.weight f4 [64, 64]
000000 ff 02 2a bd 0f b4 f7 3c 70 b9 d4 3c 45 d9 1e 3d
       -0.041506764 0.030237226 0.02596733 0.038781423
000010 6f 80 8e 3d 6d 86 91 3c bd cb 96 3d 83 05 83 3d
       0.069580905 0.017764295 0.07363079 0.06397536
000020 0e 95 76 3d c9 fb 13 be b3 b5 e9 3d f9 55 ba bd
       0.060200743 -0.14451517 0.114116095 -0.09098429
000030 7e 5b 4f 3d 7e 4e 12 bd 68 c8 c5 bd 3b 98 ba bd
       0.050624363 -0.035719387 -0.09657365 -0.09111067
000040 c2 3b a2 3d c9 3e 4c bd 35 1d 1e bd 5b 71 f4 3d
       0.07921554 -0.049864564 -0.038602073 0.11935683
000050 cd aa 86 3d 0d d1 8b bc 6c 73 46 3d 18 1e 7b bd
       0.065755464 -0.017067457 0.04844992 -0.061307997
000060 89 f2 e0 bd ae 0f a0 bd 77 ff af bd c2 ca 9d bd
       -0.1098376 -0.07815491 -0.08593648 -0.077046886
000070 6a f8 42 bc 9b 9d e1 bd 18 63 a4 3c 05 0d 24 bd
       -0.011900047 -0.11016389 0.020066783 -0.04005148
000080 c7 f3 84 b9 73 02 47 bd 49 52 1c 3d 26 ae 17 3d
       -0.0002535863 -0.04858632 0.03816441 0.037031315
000090 57 d3 0a 3d 85 23 3f 3d 83 72 ad 3d 08 7d 0c be
       0.033892956 0.046664733 0.08469107 -0.1371957
0000a0 e6 7e 92 bd cc b5 de 3c 1f a9 e5 bd 5f e4 93 bc
       -0.0715311 0.027186297 -0.11213898 -0.018053232
0000b0 f7 9a a1 3d 37 76 fa 3c f3 bf a2 bd 9b 6a f4 bd
       0.07890885 0.030573947 -0.07946768 -0.11934396
0000c0 23 b1 a1 bc 8f dc 96 bc a6 17 5c bd 7b f8 eb 3d
       -0.019737786 -0.018415717 -0.05373349 0.11522003
0000d0 e6 28 0d bd 5d bd 10 3e f7 e7 aa bd 21 53 19 3c
       -0.034462832 0.14134736 -0.08345025 0.009358198
0000e0 f2 a6 55 3c 5e ab 7c bd 74 98 31 bd f9 be d9 bd
       0.013040291 -0.061686866 -0.04335828 -0.10632128
0000f0 b3 8e 3f bc 41 7c 8d bd 36 14 aa 3d f7 cc 4b bd
       -0.011691737 -0.06908465 0.08304636 -0.049756017
000100 82 2c 6f 3d be a9 ce bc d9 07 da 3d 3e d7 ba 3d
       0.058392055 -0.025227424 0.10646028 0.091230854
000110 b0 54 ff bc 00 db fd bc aa 7f 77 3d fd ad 32 3c
       -0.031168312 -0.030988216 0.060424484 0.01090574
000120 5d 2f a7 bd 3f f6 a3 3d 17 a3 9d 3d 3d b4 9a 3d
       -0.08163331 0.08005952 0.076971225 0.07553909
000130 09 74 ad 3d 3d 84 81 3d c4 41 b4 3d a6 53 85 3d
       0.084693976 0.063240506 0.08801606 0.06510095
000140 2f 2d 4d 3d c6 a9 0b bd b2 38 e3 3d 1b 25 88 bd
       0.05009192 -0.034097455 0.11094798 -0.06647702
000150 99 b1 89 3d f7 28 af 3d cb 1a 3a 3d f1 6a da 3d
       0.06723327 0.08552735 0.045435708 0.10664929
000160 22 c0 9b bc c6 23 8a bd d6 56 ba 3c 16 58 f2 3d
       -0.019012515 -0.067451045 0.022746485 0.11833207
000170 c5 13 ec 3c 19 14 a3 3c 04 89 db 3c 30 79 cc bc
       0.02881802 0.019907044 0.026798733 -0.02496013
000180 7f f0 03 be 7d 64 52 bd 58 80 f7 3c 96 3a ee 3b
       -0.1288471 -0.051365364 0.030212566 0.0072701676
000190 e4 a6 32 bd 1e d8 d3 3d 05 b1 a8 3d 08 fb 15 bd
       -0.04361619 0.103439555 0.08236889 -0.036616355
0001a0 7b 26 80 bd 00 27 ed 3d ec de 3a bd 50 c6 81 3d
       -0.062573396 0.11579704 -0.04562275 0.06336653
0001b0 fd 16 b7 bd 1e a0 cb 3b fb 36 66 3b 59 65 b8 3d
       -0.089399315 0.006214156 0.0035127986 0.090037055
0001c0 bb 0f 09 bd cd 6c 84 bd 92 7e 8e bc 61 ab 60 3d
       -0.033462267 -0.064660646 -0.017394338 0.05485094
0001d0 5b 34 98 3d c1 ff e7 bd 6a e3 bd 3d 33 52 8d 3d
       0.07431861 -0.11328078 0.092718914 0.06900444
0001e0 96 b4 0f 3c e1 65 05 be 48 d4 0d 3c c2 48 b3 bc
       0.008771082 -0.13027145 0.008656569 -0.02188528
0001f0 87 5b b4 3c 22 f7 d0 3d c6 f4 c3 bd f1 43 cd 3d
       0.0220163 0.10203387 -0.09568171 0.100227244
000200 76 19 d3 3c 4b 09 f8 3c 0a 27 db bd d1 8f fb 3b
       0.025768977 0.030277869 -0.107008055 0.0076770564
000210 25 98 c8 3d cd cf c4 3d 11 c5 8e bd 26 7c b9 3d
       0.09794644 0.09609947 -0.06971181 0.090568826
000220 af 99 a5 3b b9 b2 58 3d 32 7d 86 bd 3e b2 13 3d
       0.005053721 0.05290482 -0.06566848 0.036058657
000230 98 86 b3 3d 7d 87 e0 3c f8 e6 4a bd 41 c2 0a bd
       0.08765906 0.027408356 -0.049536675 -0.03387666
000240 bd 08 e1 3d 14 7f 06 bd a7 09 06 be 93 03 df 3d
       0.10987995 -0.032836035 -0.1308962 0.108893536
000250 59 93 04 be 5d 27 c2 bb 15 21 de bd 03 ca c4 bd
       -0.12946834 -0.0059251026 -0.10846154 -0.09608843
000260 d2 67 a2 bd 85 48 ca 3d ad 83 cd 3d 98 c2 04 3d
       -0.079299584 0.09877113 0.10034881 0.03241214
000270 27 22 df bd 98 92 d7 bb fa 57 3d bd 4e 1a d9 bd
       -0.10895186 -0.0065787546 -0.04622648 -0.1060072
000280 35 fb f0 3d 3f 8d 9b bd 17 17 c1 3c 41 ab 0d 3e
       0.11766664 -0.075953 0.02357058 0.1383486
000290 a4 34 9c bc 7c 45 17 bc 66 8f 7d bd 58 f4 57 3d
       -0.01906807 -0.009232875 -0.061904334 0.05272326
0002a0 90 4d 04 be ee 6d 80 3d 5d b7 00 3e 2a e7 e7 3d
       -0.12920213 0.062709674 0.12569948 0.11323388
0002b0 1b 04 e9 bd d9 c9 d0 bd e5 7a 27 3c 4f e2 ec bc
       -0.11377736 -0.101947494 0.010222171 -0.028916506
0002c0 84 55 74 bd 84 e9 de 3d 30 8e a0 bc 29 4d d6 bd
       -0.059651867 0.10884383 -0.01959905 -0.10463936
0002d0 1e 86 e4 bd 3c fb cd 3d c4 a5 ab bd 39 c9 bf bd
       -0.11158393 0.10057685 -0.08381227 -0.09364552
0002e0 10 dd c5 3d 70 6c 21 bc b6 06 45 3d 5b 1e c9 bd
       0.09661305 -0.009852514 0.048102103 -0.09820243
0002f0 52 b6 0d 3d b0 90 db 3d d0 8b b2 bb 92 c1 98 3c
       0.034597702 0.10720956 -0.005448796 0.018646989
000300 6f 53 fa bc 97 aa f3 3c 47 3d 04 3e 29 38 fd 3c
       -0.030557362 0.02974443 0.12914 0.030910568
000310 1c f5 91 3d f0 0b 69 bc 8d be 97 3d 17 33 79 bc
       0.07126829 -0.0142240375 0.074093916 -0.015209935
000320 57 dd 5c bb c9 d1 de bd 40 4d 49 bd 4d 38 a1 bd
       -0.0033701265 -0.10879857 -0.049145937 -0.07872067
000330 9b a7 8d 3d 41 00 7b bd f5 38 2a bd f2 2f 27 3d
       0.06916734 -0.06127954 -0.041558225 0.04081721
000340 d3 80 e4 3d 11 13 8f 3d 6c 31 75 bb f9 b5 73 bc
       0.11157384 0.069860585 -0.003741349 -0.014874929
000350 ce cd b2 3c f2 32 06 3d 75 df 97 3d c3 bf 88 bc
       0.021826651 0.03276343 0.07415668 -0.016693002
000360 50 da 12 3c 9b e6 2e bd 46 e1 97 bd 84 65 ec bd
       0.008963183 -0.04270039 -0.074160144 -0.115428
000370 a5 7e 58 bd 9e 5d 3d bd cd 44 d4 bd 44 bb 64 3d
       -0.052855153 -0.04623186 -0.10364685 0.055842653
000380 9a 04 9f 3d d5 3e a5 bd 74 a7 08 bd 49 bf e8 3d
       0.077645496 -0.08068625 -0.03336282 0.1136461
000390 1a 28 ef 3d 76 62 a5 3d d9 69 e8 bb 4e ed e6 3d
       0.11677571 0.080754206 -0.007092696 0.11275731
0003a0 00 c8 81 bd 05 25 5e bd e9 0d b8 bd 49 58 f0 3d
       -0.06336975 -0.054234523 -0.08987028 0.11735589
0003b0 73 94 a9 bd b1 c6 de 3d 73 3b 49 3d dd b0 bb 3c
       -0.082802676 0.10877741 0.04912896 0.022911483
0003c0 4d 64 94 3d c6 d8 f4 bc 31 ea a9 bd 5b 35 ca bd
       0.07245693 -0.029888522 -0.082966216 -0.09873458
0003d0 2b 19 c1 3b 15 b5 22 3d a7 da ec bd 58 4d 6e bd
       0.005892893 0.039723475 -0.11565142 -0.05817923
0003e0 0b fd 5e bd 2a cb e2 3c ed 45 f6 3c 3e 5b c6 3c
       -0.05444054 0.027684767 0.03006264 0.02421343
0003f0 c9 5b 72 ba bc 2f a3 3b 8d 9e e8 3c 4f 7f 89 3a
       -0.00092452444 0.0049800556 0.028395915 0.0010490211

encoder.layers.0.ffn.3.bias f4 [64]
000000 be 0c c7 bd 5b cf 89 bc 1e bd ef bd fb 74 ac bd
       -0.09719227 -0.016822508 -0.11705993 -0.0842075
000010 75 4a a1 3b 20 39 c1 3d f2 66 f4 bd e4 49 39 3d
       0.004922206 0.09434724 -0.11933698 0.045236483
000020 5e 55 80 bd 17 f8 f6 3b 53 29 25 be d7 15 88 bc
       -0.062662825 0.007536899 -0.16129045 -0.016611977
000030 cd 4f d5 3b 96 81 91 3d f2 4d b9 3c a7 7a 45 3b
       0.006509757 0.07104795 0.022620175 0.003013292
000040 32 f0 a0 bd 39 d6 e4 bd 44 27 67 bd 2c 35 ef bd
       -0.078583136 -0.11173672 -0.05643393 -0.116800636
000050 04 11 1e bd 93 fb 0c 3d a0 a0 9c bd 80 59 2b be
       -0.038590446 0.034419607 -0.07647824 -0.1673336
000060 f9 1d ce bd ad 7a aa 3d 65 cd f9 3d 62 85 1e bd
       -0.100643106 0.0832418 0.12197379 -0.038701423
000070 f7 84 83 bd 6a 9d 6f bd e1 2f 56 bd 6b 2c 14 be
       -0.064218454 -0.05849973 -0.052291755 -0.14470069
000080 f7 14 9a bd f3 34 c9 3d c3 dc 0e be c2 21 12 3e
       -0.0752353 0.098245524 -0.13951401 0.1427069
000090 22 5d 55 bd b5 c1 b9 3d 16 6a 23 be 2a c8 a7 3c
       -0.05209077 0.0907015 -0.15958437 0.020481188
0000a0 a2 84 7f 3d 5a d9 20 3c ae 30 47 bd d8 d3 83 bc
       0.062382348 0.009817446 -0.04863041 -0.016092226
0000b0 2b 91 8d 3d 9e 05 03 3e cd e2 ee bd 51 61 1a bd
       0.06912454 0.12795112 -0.116643526 -0.037690464
0000c0 e9 18 ea 3d aa 38 dd 3c 90 52 06 3e 46 33 8d bd
       0.114305325 0.027004559 0.13117433 -0.06894545
0000d0 ab bc 67 bd 1d 16 3e 39 b6 f4 a0 bd a0 a9 f6 3d
       -0.056576412 0.0001812805 -0.07859175 0.12044072
0000e0 d8 5c 20 bd 6f 04 f7 3d ba 03 44 3e 2a e0 a5 3d
       -0.039151043 0.120613925 0.19142047 0.080993965
0000f0 8e f6 93 bd 18 5f 9c 3a e5 71 0d be f0 12 92 bd
       -0.07224761 0.0011930196 -0.13812979 -0.07132518

encoder.layers.0.layer_norm2.weight f4 [64]
000000 ab cb 7c 3f 47 b7 74 3f 40 37 81 3f 0b b3 7b 3f
       0.9874827 0.9559216 1.0094986 0.9832007
000010 c1 da 7c 3f 28 be 7a 3f 1c 89 80 3f 78 d2 82 3f
       0.9877129 0.97946405 1.0041842 1.022048
000020 3c a0 7b 3f eb 69 7a 3f bc d2 7e 3f 94 a2 81 3f
       0.98291373 0.9781787 0.99540305 1.012774
000030 82 59 74 3f e9 69 81 3f a5 e3 84 3f 1a 88 7b 3f
       0.9544908 1.0110446 1.0381972 0.9825455
000040 6e 19 7d 3f 5a af 7e 3f 37 1a 80 3f 29 a9 7c 3f
       0.9886693 0.99486315 1.0008 0.9869562
000050 24 5b 7d 3f 32 32 78 3f d3 4b 80 3f 8a c9 7c 3f
       0.98967195 0.9695159 1.002314 0.98745024
000060 44 3d 82 3f 03 45 7c 3f e5 d7 80 3f a6 71 75 3f
       1.0174947 0.98542804 1.0065886 0.9587654
000070 45 84 80 3f d7 8c 80 3f 31 a4 81 3f 69 6d 82 3f
       1.0040365 1.0042981 1.0128232 1.0189639
000080 aa 1b 82 3f 3e a6 76 3f 98 9d 83 3f 49 6c 82 3f
       1.0164692 0.96347415 1.0282469 1.0189296
000090 33 29 80 3f 4c 05 82 3f be a9 82 3f f7 41 77 3f
       1.0012573 1.0157866 1.0208051 0.9658503
0000a0 a0 69 80 3f b5 73 7e 3f 32 1c 7a 3f 0b d9 82 3f
       1.0032234 0.99395305 0.9769927 1.0222486
0000b0 36 ee 7b 3f c4 00 7b 3f e2 6f 7a 3f 9c 56 7c 3f
       0.98410356 0.98048043 0.9782697 0.98569655
0000c0 3c e2 88 3f 00 8e 80 3f 5b 34 83 3f 0c 86 7b 3f
       1.0694041 1.0043335 1.0250353 0.98251414
0000d0 e8 3f 7f 3f c7 6a 73 3f 04 1e 83 3f 48 4c 86 3f
       0.9970689 0.95084804 1.0243535 1.0492029
0000e0 e4 20 84 3f 4b 54 82 3f 22 8d 85 3f 05 fc 89 3f
       1.0322537 1.0181974 1.0433695 1.0780035
0000f0 56 38 7d 3f 1a c6 75 3f 50 c3 82 3f 5e b7 7f 3f
       0.98914087 0.96005404 1.0215855 0.9988917

encoder.layers.0.layer_norm2.bias f4 [64]
000000 34 49 4f 37 22 0e 81 b6 7d 9c 1a 38 b7 6f 3c b8
       1.2355205e-05 -3.846145e-06 3.6862202e-05 -4.4926735e-05
000010 7e e4 b0 37 c3 6c 09 b8 1c c0 03 39 ce 37 f1 b7
       2.1087235e-05 -3.2764638e-05 0.000125647 -2.8755425e-05
000020 4a f1 b5 b6 3e 52 68 38 16 94 5f b7 b7 56 77 37
       -5.42231e-06 5.5389704e-05 -1.3326315e-05 1.4742537e-05
000030 c0 8a 40 b8 71 63 c1 b7 f1 61 97 38 e6 6e ad 35
       -4.590559e-05 -2.3053699e-05 7.218484e-05 1.292178e-06
000040 b8 23 85 b8 be c1 57 39 f1 fb 28 38 80 6c 66 b8
       -6.348587e-05 0.00020576172 4.028896e-05 -5.493732e-05
000050 3e 52 ec 38 48 19 cd 38 62 c6 0e b9 52 ba 10 b7
       0.00011268676 9.779871e-05 -0.00013616079 -8.62645e-06
000060 a5 68 2c b7 46 c4 85 b7 07 d1 0b 38 f9 1d 1b 39
       -1.0276363e-05 -1.5946232e-05 3.3334854e-05 0.00014793118
000070 f6 0f 1a 38 be 66 ca b7 48 3a 35 38 dc 32 14 38
       3.6731326e-05 -2.412812e-05 4.320804e-05 3.5333316e-05
000080 4d cc 12 b9 41 35 0e b9 4e 6a 6a b8 9a 10 78 36
       -0.00013999753 -0.00013562014 -5.588895e-05 3.6964543e-06
000090 59 40 8c b7 1f 77 81 b8 e3 09 01 39 75 3c 08 b8
       -1.6719265e-05 -6.1733874e-05 0.00012306082 -3.248123e-05
0000a0 3b 89 f5 b8 21 26 38 b7 6c 56 fc b8 23 f0 65 b8
       -0.000117080715 -1.0976132e-05 -0.00012032394 -5.48215e-05
0000b0 b8 d3 14 b9 34 d6 17 36 1a c9 0e b8 e1 ae 15 b9
       -0.00014193251 2.2625436e-06 -3.404273e-05 -0.00014274895
0000c0 0c c9 16 b7 ca f9 09 39 31 b8 1d 38 bd 1c d4 b8
       -8.987507e-06 0.00013158392 3.760326e-05 -0.00010114301
0000d0 13 2f 97 38 ed 9d 86 37 0c 57 04 b8 89 23 c1 b8
       7.209009e-05 1.6047585e-05 -3.155232e-05 -9.209576e-05
0000e0 d8 f1 55 b7 4b 71 15 b8 db 1c 83 38 cb 78 7f 37
       -1.2752098e-05 -3.562988e-05 6.2519415e-05 1.5227309e-05
0000f0 fb 24 a8 b8 1c 7f 7d 37 5d 2c c8 38 7b 16 a2 35
       -8.0177524e-05 1.510957e-05 9.5450065e-05 1.2076483e-06

encoder.layers.1.layer_norm1.weight f4 [64]
000000 7f fa 7c 3f 87 be 74 3f 30 db 81 3f 8d 8e 7c 3f
       0.98819727 0.9560322 1.0145016 0.98655015
000010 e3 86 7c 3f e9 9c 7a 3f 57 fa 80 3f f1 aa 82 3f
       0.9864332 0.97895676 1.0076398 1.0208417
000020 58 c7 7b 3f 56 6c 7a 3f 08 ce 7e 3f 98 a8 81 3f
       0.9835105 0.9782156 0.9953313 1.0129576
000030 6a eb 74 3f fb db 82 3f e1 c2 85 3f b7 76 7b 3f
       0.95671713 1.0223383 1.0450097 0.9822802
000040 98 f9 7c 3f c5 98 7e 3f ae 2c 80 3f ea e9 7c 3f
       0.9881835 0.9945186 1.0013635 0.98794425
000050 76 6a 7e 3f 4e 24 78 3f 21 5e 80 3f e6 3d 7a 3f
       0.99381196 0.96930397 1.0028726 0.977507
000060 86 bc 82 3f f6 5f 7c 3f 19 23 81 3f 50 aa 75 3f
       1.0213783 0.98583925 1.0088836 0.95963
000070 0c b5 80 3f 46 a5 80 3f 3b be 81 3f db 54 82 3f
       1.0055251 1.0050437 1.0136179 1.0182146
000080 40 c1 82 3f 3b f4 77 3f 93 f8 83 3f e5 85 82 3f
       1.0215225 0.9685704 1.0310234 1.0197111
000090 3b 18 81 3f 4e a8 81 3f e6 ed 82 3f 60 eb 76 3f
       1.008552 1.0129488 1.0228851 0.96452904
0000a0 52 6c 80 3f c2 b0 7e 3f a3 5d 7a 3f 8e 51 83 3f
       1.0033057 0.9948846 0.9779913 1.0259264
0000b0 24 b1 7b 3f 68 c2 7d 3f 55 78 7b 3f 13 af 7c 3f
       0.9831717 0.99124765 0.9823049 0.9870464
0000c0 28 5e 8a 3f b5 9d 80 3f 45 7e 83 3f 20 60 7b 3f
       1.0809984 1.0048128 1.0272909 0.9819355
0000d0 4d ff 7f 3f ef 95 73 3f 98 3a 83 3f 07 0b 87 3f
       0.99998933 0.95150656 1.0252256 1.055024
0000e0 5f 9c 85 3f 9a 6e 83 3f 69 3e 86 3f 26 56 8c 3f
       1.0438346 1.0268128 1.0487796 1.096379
0000f0 eb 25 7d 3f 64 cc 78 3f 10 01 83 3f ba a8 80 3f
       0.98885983 0.97186875 1.0234699 1.0051491

encoder.layers.1.layer_norm1.bias f4 [64]
000000 14 d9 45 38 96 94 d7 b8 3f a7 55 b7 73 8c d0 b7
       4.717063e-05 -0.00010279675 -1.2734729e-05 -2.4860934e-05
000010 23 a7 09 38 2a e8 0b 39 18 de cd b8 34 6a 5b b8
       3.2819004e-05 0.00013342561 -9.81653e-05 -5.231258e-05
000020 81 1e ec b4 55 f9 46 38 0d d8 77 b7 35 4f 3c b9
       -4.398062e-07 4.7439087e-05 -1.47726505e-05 -0.00017958584
000030 4d f8 01 b9 e1 d5 05 b7 64 14 44 39 25 8e 12 b8
       -0.00012394898 -7.977215e-06 0.00018699613 -3.4941495e-05
000040 39 e4 72 37 4b e8 cb 38 e4 d7 bb b9 cb 36 be b8
       1.4477461e-05 9.723062e-05 -0.0003582827 -9.070112e-05
000050 c5 a6 0f 38 c3 1d 2d b9 b0 34 6d 39 9f 97 22 b7
       3.4249173e-05 -0.00016509653 0.00022621709 -9.6912545e-06
000060 50 c8 3a b8 c9 08 fc 38 b9 03 b7 b8 40 d2 28 36
       -4.453241e-05 0.00012017933 -8.7268134e-05 2.5156332e-06
000070 6d 77 a4 b6 b1 44 94 38 40 3b 34 b9 3c 3e 79 38
       -4.901484e-06 7.069985e-05 -0.0001718821 5.9424186e-05
000080 e8 f1 0c 39 48 46 b9 38 80 af bf b7 03 5b 96 37
       0.00013441558 8.834578e-05 -2.2850698e-05 1.7923774e-05
000090 27 0f ac b8 29 03 03 b8 80 ee ca 38 be 50 4a b8
       -8.2044215e-05 -3.1235777e-05 9.676535e-05 -4.823575e-05
0000a0 cc 0f db 37 90 2d c1 b7 c5 81 3f b9 d6 ed 1e b8
       2.611419e-05 -2.302861e-05 -0.00018263522 -3.7891637e-05
0000b0 ed 7a e5 b8 98 fa c8 b8 a5 2d a2 38 f3 9e 7a b9
       -0.000109424676 -9.58342e-05 7.733264e-05 -0.00023901071
0000c0 d8 a4 2f b7 ac 6b a5 38 db fd 31 b9 92 a1 90 b7
       -1.04691935e-05 7.8878686e-05 -0.00016974604 -1.7241375e-05
0000d0 1d 0d 21 b9 8d c5 0c 37 f8 a9 9c b7 4f 83 a7 b8
       -0.00015359042 8.390646e-06 -1.8675797e-05 -7.987639e-05
0000e0 8e 78 96 37 ce 06 5a 37 17 4a 8c b8 91 99 28 b8
       1.7937531e-05 1.2995397e-05 -6.6895205e-05 -4.019734e-05
0000f0 b6 e0 92 38 5e a3 3e 39 58 77 98 38 ef dc 6b b8
       7.003678e-05 0.00018180671 7.270154e-05 -5.6234127e-05

encoder.layers.1.ffn.0.weight f4 [64, 64]
000000 19 4e 9d 3d b1 d3 f8 3d d4 f8 c0 3d fd 86 27 be
       0.076809116 0.12149752 0.0942246 -0.16360088
000010 da 64 26 be 8a 99 2e 3d 4c 1b 1b bd 19 82 e2 3d
       -0.1624941 0.042626895 -0.03786783 0.110599704
000020 64 2e 6f 3d f6 bb 38 3d 6a 7f 4e bd b4 c6 dd bd
       0.05839385 0.04510113 -0.05041448 -0.10828915
000030 bd ca 16 be f4 9e 17 3e bc 37 df 3d 24 35 82 3d
       -0.14725776 0.1480673 0.10899302 0.06357792
000040 6a 7d 83 bb fe 89 d4 3d 3a 46 28 3d 9a 3d 97 bd
       -0.0040127533 0.103778824 0.0410826 -0.073847964
000050 60 c0 09 be 1c 49 78 3d f0 60 2d 3e 88 77 3f bd
       -0.13452291 0.060616598 0.1693151 -0.046744853
000060 c3 98 b4 3d 4d 7e cf bd 87 67 84 3d 2f 38 d0 bd
       0.088181995 -0.10131512 0.06465059 -0.10166966
000070 a9 43 7e bd 98 dd cc 3d 33 c1 97 3d 73 5b 96 bd
       -0.062076245 0.10003203 0.07409897 -0.07341661
000080 cc 40 b3 3d 40 7f 20 3e 72 89 82 3c f7 a1 1a bd
       0.087525934 0.15673542 0.01593468 -0.037752118
000090 df d1 8a 3d fc 19 0c 3e 1d 09 49 bb bc fb f9 3c
       0.06778311 0.13681787 -0.0030675598 0.030515544
0000a0 35 6d 17 3d f2 f6 aa bd 5c 26 95 3c 33 8a 1a 3e
       0.036969382 -0.08347882 0.018206768 0.15091781
0000b0 90 60 02 3d 48 8f 3a bd 36 a6 c6 3d a3 79 de 3d
       0.03183037 -0.0455468 0.09699671 0.10863044
0000c0 e7 7f ce 3c 23 89 dd 3b 2f 59 cb bd fa 8e 67 bd
       0.025207473 0.0067607327 -0.0992912 -0.056532837
0000d0 cc b5 2c 3e ee e3 52 bd e4 2f 5d be fc d1 14 be
       0.16866225 -0.051486902 -0.216003 -0.14533228
0000e0 e9 25 09 3c eb ea ea 3d 96 e9 39 bd 06 c3 9f bd
       0.008370855 0.11470588 -0.04538878 -0.0780087
0000f0 30 fd 6f 3d 84 34 f3 3d f9 c6 08 bd 0b 17 49 bd
       0.058591068 0.11875251 -0.03339288 -0.04909424
000100 5a b1 96 bc fd fa c0 bd c3 0e 1e 3d b3 bc a8 3d
       -0.018395115 -0.09422872 0.038588297 0.082391165
000110 e8 2d 74 3d 12 56 d5 bd 05 8f 5a 3d f5 70 43 3d
       0.059614092 -0.10416807 0.05335905 0.047715146
000120 3f 56 c0 3d f8 b9 9b bb 09 cc 37 3c 9c 2f e5 bd
       0.0939145 -0.004752394 0.011218079 -0.111907214
000130 32 9d ac bd 75 fc f7 bd f3 69 90 3d ba bc c2 3d
       -0.0842842 -0.12108699 0.07051458 0.09508653
000140 fa ea 3f bd 82 10 6a 3d 5c a6 cc 3d da 27 b9 3c
       -0.04685495 0.05714465 0.09992668 0.02260201
000150 9c b6 15 3c 11 08 a1 bd 2e be f2 bd d0 99 8c bd
       0.009137776 -0.07862867 -0.1185268 -0.06865275
000160 c8 cf e8 bd 77 30 dd bd e5 3b 81 bd 14 da f2 bd
       -0.11367756 -0.108002596 -0.06310252 -0.11858001
000170 db 88 e1 bd e4 7a 9b 3d d7 5c 9c bb 43 73 90 3d
       -0.11012431 0.07591799 -0.0047718096 0.070532344
000180 22 aa c8 bd 2c 32 8f 3c 04 e8 8a bd 0c 33 55 bd
       -0.09798075 0.017479979 -0.06782535 -0.052050635
000190 f5 01 88 3d 6e 07 19 bd 3a 23 9d bc e4 c9 c8 bd
       0.06640998 -0.0373606 -0.019181836 -0.098041326
0001a0 33 62 dc 3d dc ca d6 3d f1 c1 cc bd 43 86 ec 3d
       0.107609175 0.10487911 -0.09997929 0.11549046
0001b0 52 6f a1 bd 7c 43 5d bd 02 8a 82 3d 9f 19 a5 bd
       -0.07882561 -0.054019436 0.06373979 -0.080615275
0001c0 fa 0c e2 3d 1f b6 f7 bd d3 fb ae bd 37 a7 c7 bd
       0.11037631 -0.12095284 -0.085441254 -0.097486906
0001d0 24 98 ba bb a5 2b 17 3e f3 a2 51 3c ae df 40 bc
       -0.005694406 0.14762743 0.012795198 -0.011772079
0001e0 23 49 1a bd bd 0c e7 bd 06 ce 2d 3d 1b 1b af 3d
       -0.037667405 -0.112817265 0.042432807 0.08550092
0001f0 32 b1 b9 3d 1c d8 8c bc 73 4f bd 3d 61 bf 52 3d
       0.090670004 -0.017192893 0.09243669 0.051452044
000200 c8 27 84 3c e7 42 64 bd 37 61 11 bd 01 c6 a9 bc
       0.01613225 -0.055727866 -0.035493102 -0.020724298
000210 87 cd 5d 3c 58 74 02 3d e2 eb ff bc 21 6d b1 3d
       0.013537771 0.031849235 -0.031240407 0.08663393
000220 d4 46 b8 bd d7 c8 a6 3d 8c 18 81 bd f0 1f 93 3c
       -0.089978844 0.08143776 -0.0630351 0.017959565
000230 4e be 06 3d ce 7e 95 bd f6 6f df bc 23 fe 01 be
       0.032896332 -0.07299577 -0.027275067 -0.12694602
000240 f7 0d f4 3d 39 41 b5 3d 19 a0 9a 3d 7f 65 23 bd
       0.11916726 0.08850331 0.075500675 -0.039891716
000250 4d 54 b2 bc ad d9 12 bd 16 50 e1 bc 06 60 f2 bd
       -0.021768713 -0.035852123 -0.027504008 -0.11834721
000260 49 d2 cc bd fe 4a a4 bd bc 90 72 bd fc 4a d8 bd
       -0.10001046 -0.08022116 -0.05922006 -0.10561177
000270 cd a1 9f 3d 11 b0 48 ba 04 68 f1 3c 23 bd 32 3d
       0.07794533 -0.00076556305 0.029468544 0.043637406
000280 cf 7a f6 3d 82 8d c7 bd 4b 68 3a 3d 09 1d d1 3b
       0.12035143 -0.09743787 0.045509618 0.006381635
000290 46 ad 90 bd fb 61 e1 bc 75 47 8b 3d a8 7d 53 3a
       -0.07064299 -0.027512541 0.06800739 0.00080677355
0002a0 ce c1 3c 3d f7 ed c3 bd 4c 9e 4d bd da 42 a0 3d
       0.046083264 -0.095668726 -0.05019979 0.07825251
0002b0 fd db cb 3d 73 01 06 be 5c a0 ae bc dc d8 6f 3d
       0.09954069 -0.1308649 -0.0213167 0.058556423
0002c0 d9 1d c0 bd d3 c1 8c bd 8e fa b2 bd bc e8 28 bd
       -0.09380693 -0.068729065 -0.08739196 -0.041237578
0002d0 46 be 10 3e f5 49 09 be 77 6e 69 bd e6 17 38 bd
       0.14135084 -0.13407119 -0.056990113 -0.044944666
0002e0 1d 10 e2 bc 77 92 17 3d 1f ec 11 bd a6 5c f5 3d
       -0.027595574 0.037004914 -0.035625573 0.11980562
0002f0 34 bc 6e bb 1c a5 bd bd a8 54 b4 3d fd e4 b6 3d
       -0.0036428096 -0.09260008 0.088052094 0.08930395
000300 92 3a 4e bd ec 46 43 bd 68 bf 74 3d d3 81 9c bd
       -0.050348826 -0.04767506 0.05975285 -0.076419495
000310 46 11 ec bd a7 4f 4a 3d 65 f6 5e 3d 50 97 64 3d
       -0.11526732 0.04939237 0.0544342 0.055808365
000320 6c 89 b9 bd 7e e0 06 bd 01 ce 5c 3c c9 fd 67 3d
       -0.09059414 -0.032928936 0.0134768495 0.056638513
000330 c2 77 c1 bd ad 16 05 3c 48 52 da bd e8 e3 13 3c
       -0.0944667 0.008123082 -0.10660225 0.009026505
000340 a8 01 1b 3b 69 54 8f 3d 8d 11 88 bd fa 67 3b 3d
       0.002365211 0.06998522 -0.066439725 0.045753457
000350 a0 99 79 3d b9 93 72 bd 08 71 e5 3d 71 f1 44 3c
       0.060937524 -0.05922291 0.112031996 0.012020455
000360 29 fb bf 3d 5e a2 e1 3d d1 ae fc bd 3c 17 a5 3d
       0.09374077 0.11017297 -0.12338031 0.08061072
000370 13 55 c9 bd e6 65 13 3d b2 89 6b 3d 9c d7 ab bb
       -0.0983068 0.03598585 0.057504363 -0.0052442085
000380 5a 9b a4 bd 18 2f d8 3b 78 d5 bb bc 3c 1e d9 ba
       -0.080374435 0.006597411 -0.022928938 -0.0016564797
000390 87 f9 95 bd 26 ab dc bc 22 29 ad bd f4 96 85 3d
       -0.07322984 -0.026937079 -0.08455111 0.06522933
0003a0 d6 98 00 3d 05 10 01 3e 55 b5 ff 3c be b5 16 bd
       0.031395756 0.12603767 0.031214396 -0.036794417
0003b0 6f d0 cb bb c4 e9 9c bd 3b e5 b8 3d f8 d5 b4 bd
       -0.0062199156 -0.07661775 0.09028097 -0.08829874
0003c0 e1 50 20 bd 3d ff 4f bd a8 0d 10 be f7 e2 14 3c
       -0.039139632 -0.050780524 -0.1406771 0.009087316
0003d0 a9 98 e6 3d 82 23 d4 bc 1f 0a cf 3c 22 d1 90 bd
       0.11259586 -0.025895838 0.02527338 -0.07071139
0003e0 c1 d7 bd bb d3 8a 95 bd 6f e6 d3 3d ae 6c dc 3d
       -0.005793542 -0.07301869 0.10346686 0.107629165
0003f0 00 9f 54 3d f7 71 f3 bd 8e 7b 12 3d 2d 51 34 3d
       0.051909447 -0.118869714 0.035762362 0.044022728

encoder.layers.1.ffn.0.bias f4 [64]
000000 a2 f6 90 bd 9e 9f f8 bd 65 e8 81 bd 7f a5 9a bd
       -0.070782915 -0.121398196 -0.06343154 -0.07551097
000010 30 f4 b1 3d 1a d2 90 bd 12 e0 93 3d fe 7f 81 3c
       0.08689153 -0.07071324 0.072204724 0.015808102
000020 f6 51 82 3d 21 85 44 3d 06 2d a2 bd 2a da 41 3d
       0.06363289 0.047978524 -0.07918744 0.047327198
000030 75 8e f7 bd d0 f3 87 bc 3a 76 bf 3d 71 c1 08 bc
       -0.120877184 -0.016595751 0.09348722 -0.008346901
000040 35 b3 ba bd d6 e9 9e bc c6 35 d3 bd d2 fb 3a 3c
       -0.09116212 -0.019398611 -0.10312991 0.011412578
000050 e1 d2 49 3d ed 85 10 3e 0a 3a 63 bd 27 54 8a 3d
       0.049273375 0.14113589 -0.055475272 0.06754332
000060 16 35 a9 bd a4 d1 92 3c 92 e4 e1 bd 4a ee 28 bd
       -0.082620785 0.01792223 -0.110299245 -0.041242875
000070 39 33 99 bc 0c 9e be 3a 87 9d 62 bc cf 88 c6 bc
       -0.018701183 0.0014542951 -0.013831503 -0.024235157
000080 cd 28 e6 3d 35 63 e9 bc 6c 28 ca 3d 5e a6 69 3d
       0.11238251 -0.028489688 0.09870991 0.057043426
000090 b4 31 a9 bd 53 33 8b 3d 02 88 19 bb 2c 8f 28 bd
       -0.08261433 0.06796899 -0.0023427014 -0.041152164
0000a0 4d 91 8a 3d 91 3f 2d bb 02 e4 7c 3d 4f 66 e9 bd
       0.06765995 -0.0026435594 0.061740883 -0.11396467
0000b0 0f b5 93 bd e6 d3 03 bd 01 a4 c1 3d 0f 85 da bd
       -0.072122686 -0.032184504 0.094551094 -0.1066991
0000c0 3b 77 cc 3d c0 9a d8 3d 8c 93 d1 3d 7f f2 ea bd
       0.09983679 0.10576391 0.102332205 -0.11472034
0000d0 05 fc 99 bd be eb c1 3d 1e 0a b0 bd 53 7a 1e bc
       -0.07518772 0.094687924 -0.0859568 -0.009672719
0000e0 8c fe f7 3d fd d8 19 3d 4c 87 8a bd 48 ed d4 3c
       0.12109098 0.03756045 -0.06764087 0.02599205
0000f0 2d f9 c0 3d 83 48 96 3c bc 22 a2 bd cd 11 fc bc
       0.094225265 0.018345123 -0.07916781 -0.030770207
