BDG2/results/FEDformer-BDG2.pt (torch, 10894 bytes, 6 tensors)

input_proj.weight f4 [64, 4]
-0.42603028 -0.5322343 0.11842606 -0.18029667 -0.13430327 0.08912401 -0.27419764 0.24222583
-0.05697188 0.60049325 -0.20181912 0.1758028 -0.20839812 0.27050558 -0.2937724 -0.12824829
0.38035274 0.032096617 0.38217992 0.32424787 0.35864213 -0.57445896 0.3553192 0.2076621
-0.021599812 0.2956552 -0.3888006 0.36727622 -0.5635821 0.12204581 -0.517069 0.36174062
-0.1249769 0.49761844 0.4485801 -0.12870727 0.09125361 -0.5663643 0.37581417 -0.1994765
-0.1729804 -0.2641244 -0.14566377 -0.111982614 -0.027308801 -0.29800522 -0.29624528 -0.0633408
-0.24099177 -0.23199737 -0.102187924 0.29557714 0.014005553 0.5644451 -0.45025367 -0.1460865
0.53131807 0.60958105 -0.29434508 0.11667591 0.1396552 -0.06202412 -0.09007127 0.3379999
-0.045073543 -0.12352058 -0.020584632 -0.08279548 0.008079967 -0.26778898 0.21474676 0.12519868
-0.23607051 -0.19376327 0.4158721 -0.113684714 -0.36060026 0.28786612 -0.1262719 0.13327448
0.0050137583 -0.06634831 -0.44037372 -0.2939657 0.0682941 -0.45461175 0.2526097 0.30196238
-0.026002508 0.28641063 -0.14223836 -0.29938442 -0.35844257 0.13486306 -0.16328745 0.078973666
0.0031237053 -0.19429846 -0.088689096 -0.27872422 -0.10304355 0.3634337 0.08875867 -0.24506013
-0.08181738 0.2679131 0.09980724 -0.105978884 -0.1234555 -0.26039317 -0.40379006 -0.12812942
0.45566562 0.14637771 -0.34321833 -0.4389408 0.2018278 0.3544632 -0.08555663 0.3732659
-0.050328463 0.23026715 -0.12194729 -0.24949238 0.44563466 -0.3989842 0.1181552 -0.016631301
-0.036819298 -0.21222329 0.044917513 -0.23056674 0.09854358 0.3822878 0.023495276 -0.078533866
0.22041915 -0.3044701 -0.3826795 0.30321047 0.47287196 0.5848683 0.76891226 0.3374095
0.42816675 0.0074991863 0.15353058 -0.18979052 -0.32472548 0.18731672 0.11146542 0.31373495
0.22029725 -0.26955888 0.35809654 0.09884311 -0.14988168 -0.03214293 -0.31880563 0.33658794
0.117662445 0.33318007 0.31294167 0.36486763 0.061238304 -0.06728118 -0.33049962 0.3994796
-0.053134978 0.31248668 0.3584078 -0.011621403 0.24464768 -0.2797063 -0.24035877 0.40641728
0.2201538 -0.15412183 -0.25485113 -0.11379027 -0.28589427 -0.52436817 -0.058022253 -0.096207865
0.37629312 -0.32271436 0.360022 0.28829798 0.38796866 -0.4496885 0.15090047 -0.17118955
0.05193079 -0.45677006 -0.36260238 0.32436326 -0.019094365 0.5095042 -0.13308543 -0.40342724
0.16322811 -0.3197049 0.26386708 0.2167955 0.2093599 -0.45763594 -0.06740817 0.29924908
-0.039203472 -0.24094915 -0.25877926 -0.076499954 -0.30120587 -0.08979218 -0.020349175 -0.030063685
0.085168645 -0.064613946 0.20315614 -0.2711252 -0.392819 0.3428866 -0.22026278 -0.36976054
0.06438025 -0.39131472 0.06937424 -0.42009616 -0.23430897 -0.32659584 0.010195919 0.06278844
-0.13547951 0.36451992 0.10989037 0.21482721 -0.09053524 -0.13248563 0.09791528 -0.24284194
-0.33231008 -0.6379563 -0.42032304 -0.4566428 -0.329193 0.5294094 0.27005896 -0.36578417
-0.10222295 0.4574019 -0.05727473 0.38685676 0.2983885 0.45864397 -0.22741124 0.1623191
00000000: a420 dabe 8240 08bf 5d89 f23d b19f 38be
00000010: cc86 09be a686 b63d a263 8cbe 0c0a 783e
00000020: 595b 69bd edb9 193f aca9 4ebe a605 343e
00000030: 5166 55be b57f 8a3e 5669 96be 8553 03be
00000040: 98bd c23e be77 033d 16ad c33e d103 a63e
00000050: f19f b73e be0f 13bf 66ec b53e 60a5 543e
00000060: 17f2 b0bc 1e60 973e df10 c7be a10b bc3e
00000070: eb46 10bf 27f3 f93d a25e 04bf 1136 b93e
00000080: e4f3 ffbd d8c7 fe3e 4aac e53e d7cb 03be
00000090: 2ce3 ba3d 40fd 10bf b76a c03e 9143 4cbe
000000a0: c621 31be 503b 87be e228 15be 2457 e5bd
000000b0: b5b6 dfbc 2494 98be 76ad 97be d2b8 81bd
000000c0: 8cc6 76be b890 6dbe e747 d1bd e355 973e
000000d0: 8c77 653c 797f 103f a687 e6be b397 15be
000000e0: 7604 083f 810d 1c3f 66b4 96be c8f3 ee3d
000000f0: c601 0f3e 010d 7ebd 4977 b8bd 530e ad3e
00000100: 099f 38bd 5cf8 fcbd 1aa1 a8bc ad90 a9bd
00000110: d761 043c a31b 89be 93e6 5b3e 1534 003e
00000120: 78bc 71be e169 46be 30ed d43e 88d3 e8bd
00000130: 99a0 b8be 3063 933e 6c4d 01be 1b79 083e
00000140: 744a a43b 9fe1 87bd aa78 e1be ac82 96be
00000150: c7dd 8b3d dfc2 e8be 0f56 813e d09a 9a3e
00000160: 3603 d5bc 6aa4 923e efa6 11be ea48 99be
00000170: c985 b7be 8b19 0a3e d334 27be f2bc a13d
00000180: 14b7 4c3b 2df6 46be a1a2 b5bd f1b4 8ebe
00000190: 7f08 d3bd fb13 ba3e 1bc7 b53d 0bf1 7abe
000001a0: df8f a7bd e82b 893e bd67 cc3d 750b d9bd
000001b0: 3dd6 fcbd 4152 85be 92bd cebe 5c34 03be
000001c0: 014d e93e 0ae4 153e 50ba afbe d9bc e0be
000001d0: f2ab 4e3e 337c b53e 5038 afbd b51c bf3e
000001e0: 3825 4ebd 27cb 6b3e 80bf f9bd ee7a 7fbe
000001f0: 3a2a e43e a847 ccbe 5afb f13d 5e3e 88bc
00000200: d5cf 16bd 1051 59be 6dfb 373d b019 6cbe
00000210: 37d1 c93d 3abb c33e 2a79 c03c 5dd6 a0bd
00000220: 8fb5 613e 81e3 9bbe 91ee c3be 673e 9b3e
00000230: 461c f23e eeb9 153f 6fd7 443f f0c0 ac3e
00000240: ac38 db3e bcbb f53b 1f37 1d3e 7258 42be
00000250: 6b42 a6be f4cf 3f3e fb47 e43d dea1 a03e
00000260: 9a95 613e 9f03 8abe 6e58 b73e 426e ca3d
00000270: 957a 19be 4ea8 03bd 7e3a a3be 4155 ac3e
00000280: 02f9 f03d 9496 aa3e e439 a03e eecf ba3e
00000290: 04d5 7a3d b7ca 89bd 3f37 a9be 9788 cc3e
000002a0: 10a4 59bd 41fe 9f3e 3a81 b73e b267 3ebc
000002b0: ec84 7a3e aa35 8fbe 9c20 76be ed15 d03e
000002c0: ff6f 613e 1dd2 1dbe d97b 82be e00a e9bd
000002d0: bc60 92be fe3c 06bf bea8 6dbd a108 c5bd
000002e0: 7ea9 c03e d13a a5be ce54 b83e cb9b 933e
000002f0: d4a3 c63e 923d e6be a785 1a3e 504c 2fbe
00000300: 61b5 543d c4dd e9be 05a7 b9be f112 a63e
00000310: c96b 9cbc de6e 023f 8c47 08be 048e cebe
00000320: 4525 273e 5cb0 a3be 9619 873e a4ff 5d3e
00000330: 7162 563e 424f eabe 4b0d 8abd 2d37 993e
00000340: d293 20bd 60bb 76be b77e 84be 02ac 9cbd
00000350: a837 9abe f6e4 b7bd 50b3 a6bc 1e48 f6bc
00000360: e66c ae3d 5154 84bd 2a08 503e ecd0 8abe
00000370: 921f c9be d58e af3e 918c 61be 4151 bdbe
00000380: cbd9 833d 675a c8be 1514 8e3d d816 d7be
00000390: b1ee 6fbe 9237 a7be c90c 273c 3a97 803d
000003a0: 24bb 0abe 5ba2 ba3e 340e e13d aafb 5b3e
000003b0: 8a6a b9bd 50aa 07be ce87 c83d 8fab 78be
000003c0: 8c24 aabe 1b51 23bf 9534 d7be 16cd e9be
000003d0: fc8b a8be 6087 073f 2b45 8a3e 1048 bbbe
000003e0: 445a d1bd 9530 ea3e e898 6abd 1712 c63e
000003f0: 61c6 983e 62d3 ea3e 7ede 68be fa36 263e

input_proj.bias f4 [64]
0.19053085 0.28885743 0.053388722 -0.52952987 -0.24757525 -0.23423931 0.21075359 -0.60542005
-0.21654195 -0.18718679 -0.15772726 -0.039404396 0.31943172 0.2042511 -0.38558015 0.21316987
0.077273406 -0.13246167 0.3488882 -0.25781053 0.43896058 -0.053657804 0.0059753587 0.21479568
0.10132678 0.2596857 0.09644132 0.4103667 -0.34300742 0.036363635 0.3283594 -0.08660672
-0.3425562 -0.17784573 0.2685365 0.82870907 0.55875254 0.03775846 -0.26737112 0.24969633
-0.27249625 -0.23164017 -0.32454982 0.004448303 -0.38664794 0.2466793 -0.019919485 0.023623494
-0.12518555 0.27033323 0.09041999 -0.105710946 0.087716125 -0.033377696 -0.32367772 0.3592116
0.49267173 -0.46677357 0.39825392 -0.040454824 -0.47430435 -0.08711229 -0.05482048 -0.3066254
00000000: 851a 433e 1fe5 933e 22ae 5a3d 458f 07bf
00000010: 5e84 7dbe 6edc 6fbe cacf 573e cffc 1abf
00000020: 2cbd 5dbe e5ad 3fbe 4183 21be 8166 21bd
00000030: 8e8c a33e 3327 513e c36a c5be 3449 5a3e
00000040: 8541 9e3d 08a4 07be 79a1 b23e beff 83be
00000050: 71bf e03e 49c8 5bbd f1cc c33b 66f3 5b3e
00000060: 6a84 cf3d 86f5 843e 0783 c53d 961b d23e
00000070: ab9e afbe 09f2 143d b91e a83e dd5e b1bd
00000080: 8763 afbe 311d 36be 9e7d 893e 4726 543f
00000090: 680a 0f3f 9da8 1a3d dee4 88be 65b0 7f3e
000000a0: a184 8bbe 1533 6dbe 652b a6be 12c3 913b
000000b0: b8f6 c5be 8099 7c3e 302e a3bc 0f86 c13c
000000c0: a430 00be 1e69 8a3e 1e2e b93d fb7e d8bd
000000d0: 83a4 b33d 0db7 08bd 16b9 a5be 95ea b73e
000000e0: 783f fc3e f2fc eebe f0e7 cb3e f5b3 25bd
000000f0: 05d8 f2be ee67 b2bd 718b 60bd 01fe 9cbe

norm.weight f4 [64]
0.9420609 0.8556584 1.0974178 0.88120115 0.85986423 0.86861074 0.9070406 0.8703099
0.95318305 0.9290185 0.8491832 0.85215026 0.8710917 0.9952808 0.860134 0.8305788
0.9251728 0.9315299 0.9006998 0.87777764 0.8929318 0.84909296 0.8963738 0.9196241
0.95908844 0.8550449 0.8467242 0.84260744 0.9187 0.87048453 0.8608066 0.9249083
0.7909901 0.8956104 0.893427 0.83106476 0.82821167 0.98397815 0.9397974 0.8733974
0.94564486 0.8531067 0.84618974 0.92784476 0.8342392 0.89227825 0.9202463 0.87624156
0.8819675 0.92547715 0.85471 0.9077993 0.90722024 0.83260393 0.9339299 0.82830083
0.8667332 0.86506104 0.8825059 0.9594172 0.80744076 0.8640608 0.8692305 0.8513848
00000000: e72a 713f 6e0c 5b3f 3078 8c3f 6696 613f
00000010: 1020 5c3f 465d 5e3f d033 683f a1cc 5e3f
00000020: ce03 743f 28d4 6d3f 1264 593f 8526 5a3f
00000030: deff 5e3f b9ca 7e3f be31 5c3f d0a0 543f
00000040: 20d8 6c3f be78 6e3f 4394 663f 09b6 603f
00000050: 2e97 643f 285e 593f c178 653f 7c6c 6b3f
00000060: d286 753f 39e4 5a3f ebc2 583f 1fb5 573f
00000070: ec2f 6b3f 13d8 5e3f d25d 5c3f cac6 6c3f
00000080: 547e 4a3f b946 653f a2b7 643f a9c0 543f
00000090: ae05 543f fee5 7b3f 9096 703f f996 5f3f
000000a0: c815 723f 3365 5a3f e49f 583f 3c87 6d3f
000000b0: b390 553f 596c 643f 4395 6b3f 5e51 603f
000000c0: 9fc8 613f 12ec 6c3f 46ce 5a3f 8965 683f
000000d0: 963f 683f 8825 553f 0816 6f3f 860b 543f
000000e0: 3ae2 5d3f a474 5d3f e8eb 613f 5e9c 753f
000000f0: 70b4 4e3f 1733 5d3f e485 5e3f 5bf4 593f

norm.bias f4 [64]
-0.018377637 -0.12436384 0.020270435 0.12380696 -0.09228978 -0.113999635 -0.06681257 0.12026334
-0.04204667 -0.041748043 0.1657837 0.15840988 -0.12077882 0.028470566 0.14251406 -0.18572757
-0.032637313 0.0045579593 -0.103180975 0.1087565 -0.09778895 -0.17048292 0.11971 -0.024940964
-0.0310028 -0.15212798 -0.18078327 -0.08062614 0.082736224 -0.15606557 -0.1449824 -0.0562652
0.23138061 0.12388975 -0.085660055 -0.14832284 -0.16348258 -0.021346653 -0.0004161739 -0.033432733
-0.051893424 0.13735248 0.12603839 0.040764805 0.16616246 -0.017896466 -0.0885693 -0.12659822
0.12582156 -0.08158189 -0.17105377 0.09600492 0.09134518 0.21921416 0.028753787 -0.094238155
-0.11582815 0.1449711 -0.12646975 0.035506085 0.18575253 0.047054496 0.09583386 0.10694352
00000000: b38c 96bc 78b2 febd 2f0e a63c 818e fd3d
00000010: 6d02 bdbd a478 e9bd 07d5 88bd a04c f63d
00000020: 2139 2cbd ffff 2abd 34c3 293e 3336 223e
00000030: e35a f7bd 1b3b e93c 35ef 113e 5e2f 3ebe
00000040: b4ae 05bd ef5a 953b 8c50 d3bd babb de3d
00000050: 9345 c8bd 1393 2ebe 842a f53d fe50 ccbc
00000060: 96f9 fdbc 70c7 1bbe 401f 39be 511f a5bd
00000070: 9c71 a93d a7cf 1fbe 4476 14be 5776 66bd
00000080: 0aef 6c3e e9b9 fd3d 8a6e afbd f1e1 17be
00000090: fa67 27be 2ddf aebc ea31 dab9 c3f0 08bd
000000a0: 338e 54bd 21a6 0c3e 3510 013e fff8 263d
000000b0: 7e26 2a3e 9c9b 92bc d263 b5bd f7a2 01be
000000c0: 5ed7 003e 6814 a7bd b828 2fbe 3a9e c43d
000000d0: 2f13 bb3d ad79 603e 108d eb3c efff c0bd
000000e0: 4f37 edbd 4e73 143e 4981 01be d46e 113d
000000f0: e935 3e3e 37bc 403d 8b44 c43d 3405 db3d

decoder.weight f4 [24, 64]
-0.035525706 0.03871122 0.054585334 0.00088422117 -0.01156746 0.047975257 0.019991511 -6.533916e-05
0.04327035 -0.035481475 -0.0152910175 -0.0101625 -0.011447242 0.10445154 0.027680708 -0.017000988
0.03968403 -0.0689219 -0.0060453215 -0.006294121 -0.03738517 -0.044957884 0.04580752 0.0056111175
-0.06724299 -0.008156893 0.029001905 -0.044632453 0.008506478 -0.008623604 0.018616386 0.013193398
-0.023709875 0.0883835 -0.043519896 0.00045423157 -3.3366934e-05 0.01567736 -0.0570028 -0.063535586
0.035922766 0.006129289 0.060942408 0.012720206 -0.009764035 -0.039398275 0.01251225 -0.03110442
-0.014106241 0.03219343 0.02299497 0.021485627 -0.056474246 0.037134446 0.009917112 0.0332736
-0.008684857 -0.0011261294 0.0024465292 -0.03222853 0.0008858566 0.017722102 -0.010868066 0.0357585
-0.02477214 -0.042047665 0.050295703 -0.0024201723 0.08532226 -0.03229478 0.036542192 0.0009999301
0.08764353 -0.11974154 0.015078358 -0.08420169 -0.05646014 0.07481491 0.021877643 -0.029355144
0.053784642 -0.040090613 -0.03485945 -0.022858962 0.0011898921 -0.043387562 -0.06914713 -0.018201677
0.032012403 0.060060114 0.06365485 -0.054999717 0.024631616 0.042237066 0.016049055 0.075204566
0.049675673 -0.0385648 0.06007063 0.00013443532 0.023439862 0.018218093 0.060017385 0.057443105
0.05333273 0.03217203 0.058283348 -0.049300298 -0.023297736 -0.025492953 -0.015396684 -0.024534548
-0.018416367 0.06752916 -0.005077352 -0.00897428 -0.0053181704 -0.0055721714 -0.0556318 -0.009049303
0.044546228 0.020841941 -0.035605147 0.023717536 -0.0077234344 0.051885866 0.083220035 -0.018501993
-0.001223774 -0.024664175 0.058597762 0.010815256 -0.014707142 0.057070326 -0.040979173 -0.0013884966
0.043416914 -0.07531848 -0.00046146693 -0.00871694 -0.007844644 0.109215446 -0.023473931 -0.045013666
-0.06718195 -0.07867104 0.01954303 -0.030748077 0.008413598 -0.012069285 0.10187754 -0.087973244
-0.04698527 -0.0066979527 0.0527263 0.035233594 0.032340743 -0.02197568 0.022669207 -0.03349236
0.035054687 0.012983566 -0.034793947 0.0036556753 -0.0027352446 0.04494349 0.05658425 0.024975695
0.054143623 -0.016474562 -0.02668819 0.046179 -0.003356219 -0.09368019 -0.011540847 0.063566275
-0.04750813 0.011484257 0.021107273 -0.014672361 -0.029486435 0.045941617 0.0013162665 -0.050136592
0.010723197 -0.031828023 -0.005049161 -0.13574938 -0.014235537 0.07688363 0.12551096 0.05155956
-0.007572275 -0.047611035 0.06650483 -0.0052080536 0.04488157 0.003908855 0.038058553 -0.0043693334
0.05452297 -0.02168739 -0.032504417 -0.036549512 0.01692313 0.031917434 0.009137881 -0.0160451
-0.02837751 -0.00452712 0.0074791084 -0.0019675826 0.026966663 -0.07830297 0.07779685 -0.025629338
-0.03317538 0.024028452 0.004092355 -0.04111895 0.0047906497 0.007288119 0.016574701 0.061424024
-0.040620275 0.07934152 -0.03770933 0.0037417375 0.011101749 -0.005297971 -0.045455713 -0.104188554
0.052828144 -0.025124926 -0.0027045326 0.05055828 0.004209165 -0.021929823 0.036119223 -0.008507254
-0.030358363 0.0062532686 -0.02128413 0.022333203 0.009535284 -0.04578513 -0.03079447 0.044750977
0.004080685 -0.014270763 0.019280303 -0.06773267 -0.0042823926 0.039642934 0.06753567 0.018355476
00000000: 6783 11bd a88f 1e3d df94 5f3d 14cb 673a
00000010: 7285 3dbc b481 443d 3dc5 a33c b206 89b8
00000020: 403c 313d 0655 11bd 2d87 7abc 9d80 26bc
00000030: 378d 3bbc b0ea d53d a7c2 e23c a845 8bbc
00000040: b98b 223d ed26 8dbd d517 c6bb ea3e cebb
00000050: 3121 19bd c225 38bd aba0 3b3d 77dd b73b
00000060: b1b6 89bd 7da4 05bc 6795 ed3c 85d0 36bd
00000070: c15e 0b3c 044a 0dbc 6481 983c 1f29 583c
00000080: 363b c2bc 6902 b53d eb41 32bd ee25 ee39
00000090: 79f3 0bb8 cf6d 803c c57b 69bd f21e 82bd
000000a0: c023 133d 34d8 c83b bf9e 793d 6968 503c
000000b0: 55f9 1fbc 1660 21bd 2e00 4d3c b2ce febc
000000c0: dd1d 67bc 42dd 033d f35f bc3c a002 b03c
000000d0: 8a51 67bd 4a1a 183d 627b 223c e649 083d
000000e0: ee4a 0ebc a29a 93ba f355 203b 1002 04bd
000000f0: d538 683a f12d 913c f90f 32bc 8177 123d
00000100: f1ee cabc 2c3a 2cbd de02 4e3d c19b 1ebb
00000110: 70bd ae3d 8847 04bd 44ad 153d 1610 833a
00000120: 737e b33d 0d3b f5bd 380b 773c f071 acbd
00000130: bf42 67bd 8f38 993d be38 b33c 337a f0bc
00000140: 494d 5c3d 0e36 24bd c8c8 0ebd b842 bbbc
00000150: 27f6 9b3a 28b7 31bd 039d 8dbd af1b 95bc
00000160: 701f 033d 9801 763d 795d 823d 6247 61bd
00000170: 3ec8 c93c c600 2d3d 4f79 833c da04 9a3d
00000180: b878 4b3d 20f6 1dbd 9f0c 763d 35f7 0c39
00000190: f404 c03c 1c3e 953c cad4 753d 7649 6b3d
000001a0: 6c73 5a3d d2c6 033d 85ba 6e3d 1cef 49bd
000001b0: e5da bebc 99d6 d0bc 6042 7cbc adfc c8bc
000001c0: ecdd 96bc ba4c 8a3d ea5f a6bb dc08 13bc
000001d0: 0c44 aebb c396 b6bb 2cde 63bd 8743 14bc
000001e0: 1b76 363d b8bc aa3c b4d6 11bd 474b c23c
000001f0: dd14 fdbb 4686 543d 446f aa3d 7e91 97bc
00000200: 0b67 a0ba 860c cabc 3504 703d 7932 313c
00000210: 39f6 70bc 93c2 693d c7d9 27bd 37fe b5ba
00000220: efd5 313d 9340 9abd 0bf1 f1b9 7fd1 0ebc
00000230: d286 00bc 59ac df3d 674c c0bc 4060 38bd
00000240: b196 89bd 481e a1bd b418 a03c 64e3 fbbc
00000250: 30d9 093c 40be 45bc 2ca5 d03d 512b b4bd
00000260: a073 40bd 807a dbbb 88f7 573d 1a51 103d
00000270: ba77 043d 5706 b4bc c6b4 b93c 492f 09bd
00000280: 8195 0f3d 06b9 543c 1984 0ebd 0e94 6f3b
00000290: ca41 33bb aa16 383d e3c4 673d d499 cc3c
000002a0: b4c5 5d3d a9f5 86bc 31a1 dabc 3126 3d3d
000002b0: 03f4 5bbb 66db bfbd d215 3dbc 092f 823d
000002c0: e397 42bd 7728 3c3c 29e9 ac3c 5864 70bc
000002d0: 898d f1bc 472d 3c3d 9386 ac3a 075c 4dbd
000002e0: 59b0 2f3c 1a5e 02bd 6f73 a5bb e301 0bbe
000002f0: 2b3c 69bc 2a75 9d3d f285 003e 1e30 533d
00000300: d920 f8bb ca03 43bd af33 883d 52a8 aabb
00000310: bdd5 373d da15 803b 49e3 1b3d a02c 8fbb
00000320: 7a53 5f3d c1a9 b1bc 5a23 05bd f1b4 15bd
00000330: 60a2 8a3c dbbb 023d 0db7 153c 0371 83bc
00000340: f477 e8bc 3c58 94bb 4f13 f53b 8ff2 00bb
00000350: 31e9 dc3c 4f5d a0bd f453 9f3d 9ef4 d1bc
00000360: e8e2 07bd 51d7 c43c 2919 863b 586c 28bd
00000370: e2fa 9c3b 2cd1 ee3b abc7 873c c297 7b3d
00000380: 7261 26bd cf7d a23d 1975 1abd f037 753b
00000390: 1ce4 353c 9a9a adbb c52f 3abd cf60 d5bd
000003a0: 5362 583d cad2 cdbc 873e 31bb 3316 4f3d
000003b0: 09ed 893b 2ca6 b3bc c0f1 133d 0262 0bbc
000003c0: 1ab2 f8bc 38e8 cc3b 0e5c aebc 1ff4 b63c
000003d0: e139 1c3c 3089 3bbd af44 fcbc cd4c 373d
000003e0: 44b7 853b ebcf 69bc baf1 9d3c 6db7 8abd
000003f0: 5053 8cbb a160 223d 2450 8a3d 395e 963c

decoder.bias f4 [24]
0.14416976 -0.0003186452 0.038389828 -0.08155264 0.031159714 -0.036846556 -0.07883632 -0.001985624
-0.054340694 -0.029408053 0.050951835 -0.03703898 0.06291294 -0.0636089 -0.053010672 0.07938015
-0.067676514 -0.08368683 0.06888356 -0.04150892 0.103448465 0.08156732 0.06904957 0.06491554
00000000: 3da1 133e d60f a7b9 a73e 1d3d 1205 a7bd
00000010: a842 ff3c 6aec 16bd f074 a1bd 3e21 02bb
00000020: 5994 5ebd 28e9 f0bc dfb2 503d 2fb6 17bd
00000030: 80d8 803d 6245 82bd b821 59bd 0f92 a23d
00000040: fc99 8abd 0064 abbd d312 8d3d 4205 2abd
00000050: cadc d33d c40c a73d dc69 8d3d 70f2 843d
