BDG2/results/FEDformer-BDG2.pt (torch, 10894 bytes, 6 tensors)

input_proj.weight f4 [64, 4]
0.1368637 -0.4666474 -0.3415032 0.3390799 0.36040643 -0.03702717 -0.0034304555 -0.071118996
0.28457344 0.36090404 0.30435577 0.46542782 -0.2579522 0.46348143 0.0016603416 0.31982186
0.35356104 -0.43495357 -0.42065042 -0.1527051 -0.14204758 0.095029116 0.15351142 0.071092784
-0.16784155 -0.4185225 -0.21774508 0.2417368 0.30278435 0.26753595 -0.047094326 -0.19741064
-0.1730624 0.45447257 -0.12672043 0.27225575 0.509486 0.5135089 -0.4673895 -0.35458148
0.36171848 -0.08642701 -0.06148715 0.37876916 0.35996693 -0.51107794 -0.09660407 -0.40280935
0.26016682 -0.50040746 -0.13387316 0.32931924 -0.2559962 -0.43616593 0.17453513 0.09840921
0.33767718 -0.3630246 0.073382534 -0.2508393 0.2620853 0.4665377 -0.21304351 0.30263063
-0.4550275 0.39902523 -0.008239068 -0.29253313 -0.023787886 -0.8171759 -0.5689932 -0.113921694
0.4666237 0.45443267 0.46400163 0.43538943 -0.13955225 -0.055153638 -0.40689555 0.25151405
0.1848526 0.46320483 0.09725299 -0.3468426 0.20070271 -0.3082673 0.35388237 -0.415831
-0.37477165 0.09000602 -0.04775402 0.13247092 -0.1775028 -0.03500946 -0.30455393 0.0664311
0.050562102 -0.44242248 -0.31643316 0.062318582 0.06977518 -0.17130469 -0.3198797 0.022003435
-0.1750322 0.48401934 0.40419838 0.062252488 0.38112637 0.14005318 -0.4611165 -0.057633456
-0.031690847 -0.001926974 0.41432196 -0.38945037 0.14689356 0.43626446 -0.40608028 0.08305406
-0.42107844 0.3351403 0.499394 -0.20428339 -0.10914655 0.32690692 -0.026789922 -0.111700684
0.15444438 0.33975962 0.36913264 0.18248963 0.16879435 -0.32195288 0.052857324 -0.0059480625
-0.22022809 -0.41964552 0.1235718 0.061033245 -0.34511054 0.13585374 -0.0991921 -0.15368904
-0.20558767 0.40395778 0.32618976 -0.2872072 0.12823604 0.031068476 0.15386358 -0.21627523
0.24211518 0.16548805 -0.39028525 0.03902767 -0.26568872 0.5018907 0.16959366 -0.14892402
0.07892841 -0.3601925 -0.120602615 0.20132884 0.08495047 -0.026007686 0.16400334 -0.07894656
-0.1195581 0.200314 0.5863707 0.18083392 -0.4339385 -0.10193484 -0.11329518 0.3025946
0.21463728 0.37454462 -0.2809925 -0.3754502 0.13004662 -0.4539413 0.22260839 -0.3310403
0.20653152 -0.20336035 -0.051643334 -0.12039941 0.37397233 -0.41339004 0.3183331 0.064799406
-0.4159694 -0.065105036 -0.20935574 0.041637458 0.04526586 -0.22322044 0.15985847 0.043692917
0.41489324 -0.37856048 -0.043749306 -0.10362636 0.39975038 -0.27728584 -0.14675777 -0.37093836
0.026092792 -0.061431106 0.11957199 -0.1886083 0.3791501 -0.36770058 -0.53508157 -0.22710791
-0.13158363 -0.06897801 0.06596609 -0.3418257 -0.24852464 0.39315382 -0.41059774 0.12883823
0.2238948 0.5807491 0.33442226 0.0630292 -0.40980873 -0.112336874 -0.27545157 -0.23262538
-0.30573732 -0.51205736 0.11772227 -0.17622639 -0.41406995 0.47455013 0.31829625 0.2855662
0.0896571 0.53598297 -0.31037357 -0.2978386 -0.0143565675 -0.10548126 -0.0769298 0.14357375
-0.43189794 0.18399699 -0.09237777 -0.33203307 -0.05509708 0.50755984 0.019351287 -0.15888503
00000000: ff25 0c3e 68ec eebe 82d9 aebe e19b ad3e
00000010: 3187 b83e cda9 17bd 7ed1 60bb d6a6 91bd
00000020: 9cb3 913e 6ac8 b83e 85d4 9b3e 8e4c ee3e
00000030: 5012 84be 704d ed3e d29f d93a b1bf a33e
00000040: f405 b53e 3cb2 debe 7e5f d7be ba5e 1cbe
00000050: ec74 11be a09e c23d 1932 1d3e 1899 913d
00000060: a8de 2bbe 9548 d6be 91f8 5ebe da89 773e
00000070: 8d06 9b3e 79fa 883e fbe5 40bd 0426 4abe
00000080: 4537 31be a1b0 e83e 00c3 01be 1b65 8b3e
00000090: ad6d 023f 5275 033f ad4d efbe b48b b5be
000000a0: 2a33 b93e a500 b1bd f3d9 7bbd 08ee c13e
000000b0: 964d b83e 01d6 02bf 5bd8 c5bd 073d cebe
000000c0: 9634 853e b41a 00bf 0c16 09be 889c a83e
000000d0: ef11 83be 2451 dfbe 56b9 323e c58a c93d
000000e0: 06e4 ac3e 5cde b9be 9549 963d 026e 80be
000000f0: 0b30 863e 08de ee3e 1428 5abe 67f2 9a3e
00000100: 5df9 e8be 094d cc3e 28fd 06bc e7c6 95be
00000110: d0de c2bc 7132 51bf 8aa9 11bf c74f e9bd
00000120: 4de9 ee3e 66ab e83e 9f91 ed3e 5deb de3e
00000130: c9e6 0ebe c8e8 61bd 9d54 d0be 73c6 803e
00000140: 004a 3d3e 2f29 ed3e 932c c73d 5a95 b1be
00000150: 0385 4d3e 36d5 9dbe 1230 b53e cde7 d4be
00000160: 12e2 bfbe 1455 b83d b899 43bd 75a6 073e
00000170: 4bc3 35be 1466 0fbd 7eee 9bbe 070d 883d
00000180: 351a 4f3d 3385 e2be 8703 a2be c541 7f3d
00000190: 4ae6 8e3d 7f6a 2fbe 46c7 a3be 8c40 b43c
000001a0: a43b 33be 62d1 f73e 17f3 ce3e 77fc 7e3d
000001b0: ff22 c33e 1a6a 0f3e 7617 ecbe 0f11 6cbd
000001c0: 43ce 01bd 8592 fcba 0222 d43e 0a66 c7be
000001d0: 446b 163e 0e5e df3e c1e9 cfbe 3f18 aa3d
000001e0: 9897 d7be 8297 ab3e 92b0 ff3e aa2f 51be
000001f0: 3a88 dfbd 5860 a73e 8a76 dbbc 54c3 e4bd
00000200: ab26 1e3e f9f4 ad3e f4fe bc3e 90de 3a3e
00000210: 6dd8 2c3e 02d7 a4be ec80 583d f7e7 c2bb
00000220: 7983 61be c7db d6be 3613 fd3d fffd 793d
00000230: 54b2 b0be 3e1d 0b3e 3a25 cbbd a960 1dbe
00000240: 9385 52be 8ed3 ce3e 5802 a73e d20c 93be
00000250: 4f50 033e 5183 fe3c 6a8e 1d3e 4177 5dbe
00000260: 0bed 773e b375 293e 78d3 c7be 7adb 1f3d
00000270: 5a08 88be e97b 003f f6a9 2d3e 8a7f 18be
00000280: 38a5 a13d 276b b8be 81fe f6bd 2629 4e3e
00000290: 83fa ad3d 120e d5bc 7ef0 273e bcae a1bd
000002a0: e1da f4bd 1d1f 4d3e 641c 163f 872c 393e
000002b0: 302d debe 37c3 d0bd 4e07 e8bd aeed 9a3e
000002c0: e0c9 5b3e 50c4 bf3e 40de 8fbe 023b c0be
000002d0: f12a 053e fe6a e8be 74f3 633e 1d7e a9be
000002e0: 007d 533e b23d 50be f687 53bd f793 f6bd
000002f0: 4d79 bf3e dca7 d3be 8efc a23e 8db5 843d
00000300: f1f9 d4be ca55 85bd 5a61 56be 0a8c 2a3d
00000310: b268 393d e693 64be f0b1 233e 58f7 323d
00000320: e36c d43e aed2 c1be 7932 33bd 0f3a d4bd
00000330: 15ac cc3e 69f8 8dbe ab47 16be a2eb bdbe
00000340: 8dc0 d53c 2f9f 7bbd 29e2 f43d 8922 41be
00000350: f61f c23e 4043 bcbe 1bfb 08bf fa8e 68be
00000360: dcbd 06be 5844 8dbd 3b19 873d c703 afbe
00000370: 3e7d 7ebe 754b c93e de39 d2be 2bee 033e
00000380: ae44 653e f9ab 143f 6539 ab3e 7415 813d
00000390: 73d2 d1be e010 e6bd fd07 8dbe 5935 6ebe
000003a0: 9a89 9cbe 3116 03bf 6018 f13d b174 34be
000003b0: fa00 d4be 3cf8 f23e baf7 a23e bc35 923e
000003c0: 249e b73d 2e36 093f 49e9 9ebe 4d7e 98be
000003d0: cf37 6bbc 8f06 d8bd 5f8d 9dbd ff04 133e
000003e0: ba21 ddbe b569 3c3e 8e30 bdbd 3d00 aabe
000003f0: 7aad 61bd 71ef 013f 9786 9e3c c2b2 22be

input_proj.bias f4 [64]
0.03175956 -0.0014180274 0.32245287 0.26881847 -0.09708969 0.0882844 -0.11291234 0.15956584
0.15568621 0.078105286 -0.17716154 0.44647607 0.08675266 0.120768026 -0.2676966 0.016398419
0.18434164 -0.5032931 0.60665494 0.46167606 -0.2988947 -0.16555336 0.40600827 0.34409836
0.42558825 0.16942394 0.4355082 -0.3187756 -0.36624703 0.32627925 -0.15622957 0.19283147
-0.23310448 0.06432828 0.14327191 0.28164944 -0.00483244 0.27812937 -0.050007645 0.046569545
0.41315854 -0.022084966 0.71921 0.31559125 -0.48933095 -0.029131256 0.066951 0.25234833
0.3873666 0.013170617 -0.12074936 -0.056189083 -0.08514449 0.3586338 0.23641422 -0.43258137
0.10849851 0.3170769 0.0023417715 0.05879569 0.424677 0.29513678 0.061724335 0.061393186
00000000: 5016 023d 1bdd b9ba 8b18 a53e 93a2 893e
00000010: f6d6 c6bd 74ce b43d 963e e7bd 3a65 233e
00000020: 356c 1f3e aaf5 9f3d d669 35be 8398 e43e
00000030: 61ab b13d 3a55 f73d 870f 89be fa55 863c
00000040: 0ec4 3c3e d1d7 00bf bd4d 1b3f ce60 ec3e
00000050: ba08 99be d286 29be 51e0 cf3e a92d b03e
00000060: b4e6 d93e 787d 2d3e eefa de3e 8e36 a3be
00000070: bb84 bbbe 130e a73e a5fa 1fbe 9d75 453e
00000080: f1b2 6ebe 8cbe 833d dfb5 123e 5b34 903e
00000090: 7259 9ebb f966 8e3e d1d4 4cbd b5bf 3e3d
000000a0: 8489 d33e 88eb b4bc 261e 383f 2d95 a13e
000000b0: 9689 fabe aca4 eebc 9b1d 893d cd33 813e
000000c0: ea54 c63e 92c9 573c 714b f7bd 8626 66bd
000000d0: 3c60 aebd d99e b73e 9216 723e 4e7b ddbe
000000e0: 7834 de3d e757 a23e 6878 193b c0d3 703d
000000f0: 446f d93e 2b1c 973e a8d2 7c3d 6c77 7b3d

norm.weight f4 [64]
0.78401065 0.9064571 0.73146766 0.8330341 0.8958144 0.9250843 0.8657311 0.90061396
0.9478085 0.90190417 0.85200924 0.76477295 0.8927371 0.8969288 0.8824151 0.9563547
0.8839242 0.79459244 0.79566026 0.79587716 0.911883 0.85108334 0.8627942 0.856271
0.8344678 0.9294934 0.88905096 0.9084056 0.81662095 0.84607655 0.8711842 0.86823165
0.82963634 0.9560486 0.8717012 0.9661942 0.9268459 0.87816256 0.76985985 0.9290435
0.76582766 0.92489636 0.890048 0.85150164 0.816302 0.8871529 0.93549323 0.91146994
0.90852773 0.90316796 0.90105283 0.84171236 0.95311373 0.8751415 0.80897313 0.9083775
0.7611816 0.8620857 0.91038245 0.88978857 0.84160125 0.8578927 0.8244391 1.0393286
00000000: ecb4 483f 930d 683f 7741 3b3f b941 553f
00000010: 1854 653f 53d2 6c3f 8ea0 5d3f a38e 663f
00000020: 94a3 723f 31e3 663f 471d 5a3f 29c8 433f
00000030: 6b8a 643f 209d 653f f5e5 613f a9d3 743f
00000040: db48 623f 696a 4b3f 64b0 4b3f 9bbe 4b3f
00000050: 2a71 693f 99e0 593f 15e0 5c3f 9434 5b3f
00000060: af9f 553f 48f3 6d3f d898 633f 458d 683f
00000070: 120e 513f 7998 583f ed05 5f3f 6e44 5e3f
00000080: 0c63 543f 9abf 743f cf27 5f3f 8158 773f
00000090: c645 6d3f 43cf 603f 8915 453f cbd5 6d3f
000000a0: 480d 443f 02c6 6c3f 30da 633f 03fc 593f
000000b0: 2bf9 503f 741c 633f 7c7c 6f3f 1856 693f
000000c0: 4695 683f 0436 673f 66ab 663f 767a 573f
000000d0: 43ff 733f 4609 603f dd18 4f3f 6e8b 683f
000000e0: ccdc 423f a6b1 5c3f d30e 693f 2fc9 633f
000000f0: 2e73 573f db9e 5b3f 710e 533f b808 853f

norm.bias f4 [64]
0.24334894 -0.06782611 -0.26095816 -0.1505755 0.11639657 -0.05052556 0.115002126 -0.12075981
0.036299147 0.06542682 0.113051586 -0.20530148 -0.018898914 0.063484475 0.12204533 0.060249902
0.075941846 0.18142854 -0.18308859 -0.11841337 0.08392208 -0.011246491 -0.09455932 0.0188487
-0.15971608 0.08874801 -0.11170864 0.09402481 0.17675947 -0.17969933 0.068742245 -0.1319178
-0.024704084 -0.066479646 0.03938917 -0.0014793229 -0.008298131 -0.11884366 0.19923413 0.030247986
-0.24828526 -0.042911567 -0.09014847 0.049839105 0.20842181 -0.058030315 -0.03093607 -0.088171646
0.031948857 -0.034693796 0.11314117 0.12094537 0.026121708 -0.085042745 -0.19333805 0.095745645
-0.22813573 0.118114 0.098832324 -0.043661438 -0.15770037 -0.18369307 0.1768233 0.004682831
00000000: 7730 793e 6ae8 8abd 4f9c 85be 7730 1abe
00000010: 5361 ee3d e4f3 4ebd 3c86 eb3d eb50 f7bd
00000020: 6aae 143d 7ffe 853d 9787 e73d 8d3a 52be
00000030: e5d1 9abc 2604 823d e7f2 f93d 9ac8 763d
00000040: 6687 9b3d 67c8 393e 937b 3bbe b582 f2bd
00000050: 57df ab3d 3443 38bc 51a8 c1bd 9768 9a3c
00000060: 9d8c 23be 84c1 b53d 80c7 e4bd 1490 c03d
00000070: 6f00 353e 1a03 38be bcc8 8c3d 7615 07be
00000080: 3860 cabc 7b26 88bd 8a56 213d d7e5 c1ba
00000090: e2f4 07bc 4e64 f3bd 0804 4c3e a0ca f73c
000000a0: 7e3e 7ebe 0ac4 2fbd c39f b8bd 1724 4c3d
000000b0: 876c 553e 32b1 6dbd a46d fdbc 5693 b4bd
000000c0: cedc 023d 151b 0ebd 8fb6 e73d 35b2 f73d
000000d0: 31fd d53c e42a aebd 69fa 45be 4b16 c43d
000000e0: 6a9c 69be c1e5 f13d 9a68 ca3d 56d6 32bd
000000f0: 357c 21be 091a 3cbe 2b11 353e 6f72 993b

decoder.weight f4 [24, 64]
-0.015184436 -0.030786144 0.00423257 0.0025358004 -0.017821835 -0.06416898 -0.002127804 0.04903607
0.11536402 0.054513328 0.03107317 -4.6727335e-05 -0.02029921 -0.008744843 -0.008564522 0.039566506
-0.029323248 -0.00338191 0.0035810454 -0.0010582238 0.001283781 0.016091628 -0.05243404 -0.039320413
-0.0011822238 -0.03146734 0.005217948 -0.0018914788 0.005397792 0.07063664 -0.008819878 0.048998166
0.05692827 -0.09058554 -0.029561795 -0.024536598 0.07946751 0.0007058636 -0.019438284 0.045332164
0.02584465 0.0788943 -0.00094489823 -0.073148586 -0.0024153276 -0.017904809 -0.06987111 0.0017781326
0.024292864 0.018201385 -0.05518214 -0.04020602 -0.034504153 -0.031440686 -0.08659399 -0.0027785867
0.02350379 0.010766179 -0.017231628 -0.016189544 0.044387456 0.021289106 0.0014781456 0.08035581
-0.039979275 0.017849587 0.013781898 0.035395037 -0.005648257 0.054061007 -0.0029724194 0.05271178
0.021955788 0.03963337 0.02101432 -0.018128559 -0.020331893 -0.036462713 -0.033046406 0.09060012
-0.0074912575 -0.0047216383 0.0039227395 -0.014434543 -0.012953791 -0.06911182 -0.06364098 0.027987877
0.0029732743 -0.03657983 0.0026576389 -0.004907104 0.048989758 -0.022387264 -0.026848685 0.025961012
0.03643577 0.03631016 0.005230984 -0.016969895 -0.008312741 0.020142315 0.02335745 0.08710501
0.024626596 0.098472394 0.0013454196 -0.01564562 0.015492337 -0.0006900108 -0.08224605 0.007282741
-0.0421243 -0.059897117 -0.034899294 -0.03581202 0.028862007 0.035430476 0.038246542 -0.0019644913
0.01284354 -0.0038588324 -0.04972687 0.06364568 0.057389285 -0.08208715 -0.017309183 0.082267985
-0.04935571 -0.027228395 0.021592578 -0.026090458 -0.010596791 -0.07171371 -0.0044212104 -0.0058580413
0.05448187 0.013116141 0.005802303 -0.021957532 -0.041753132 -0.10538547 -0.034800652 0.10169495
0.0027963836 -0.0011969557 0.0044245026 -0.051031012 0.035181094 -0.012808433 0.0019682318 -0.056081917
-0.038192317 -0.025284648 0.0051380764 -0.0095720505 -0.03817251 -0.051298216 0.017945679 0.03653866
0.051619887 -0.042783264 -0.016683653 -0.043024186 -0.0011744521 0.019704483 0.057007175 0.09358375
0.028206943 -0.053135797 -0.0005295861 -0.003194209 0.012993243 -0.04010384 0.05762608 0.013029777
-0.0153132435 0.107393734 -0.017091766 -0.004913125 -0.05483836 0.06341016 0.07240458 0.005326657
0.033514317 -0.046416283 -0.0341637 0.039240506 0.024710733 0.02091709 0.037562232 0.02760912
-0.052442744 -0.032349214 -0.024114398 -0.01843687 -0.032552056 -0.01988054 -0.012344382 0.015545446
-0.06495858 0.050986048 0.055620473 -0.026851837 -0.08501682 0.00019141036 -0.091230296 0.074025035
-0.05788078 -0.007206589 0.008122799 0.07996426 0.05679208 0.049270112 -0.03257296 0.00891647
-0.04976116 -0.014644243 -0.020972144 -0.007097851 0.0147553515 0.041541085 -0.06797018 -0.061746877
0.048569724 -0.08839969 -0.103159696 0.032924447 0.08983592 0.05820169 -0.0067131505 0.016129259
0.0676785 -0.012869809 0.0025642894 0.018212177 0.0297472 -0.051498413 -0.08975099 0.0039609466
-0.08098969 0.0793722 0.068840936 -0.041041512 -0.08471559 -0.06070891 0.084550776 0.010176512
-0.033175144 0.007985329 -0.009886572 0.040286016 -0.013405732 -0.043841828 -0.082984485 0.08679123
00000000: 24c8 78bc 3933 fcbc 5fb1 8a3b ac2f 263b
00000010: 19ff 91bc 076b 83bd a172 0bbb 0cda 483d
00000020: f943 ec3d 5e49 5f3d 298d fe3c 18fd 43b8
00000030: 874a a6bc 8846 0fbc 3552 0cbc 7d10 223d
00000040: 4f37 f0bc 09a3 5dbb f9af 6a3b 19b4 8aba
00000050: 8b44 a83a 97d2 833c 13c5 56bd 710e 21bd
00000060: d9f4 9aba e6e3 00bd 52fb aa3b 7feb f7ba
00000070: f6df b03b f1a9 903d 4081 10bc 4db2 483d
00000080: 9e2d 693d e984 b9bd 942b f2bc fa00 c9bc
00000090: ddbf a23d b409 393a 093d 9fbc 38ae 393d
000000a0: 29b8 d33c 5693 a13d 0cb3 77ba edce 95bd
000000b0: 794a 1ebb 1bad 92bc 9618 8fbd 3b10 e93a
000000c0: d401 c73c 121b 953c ab06 62bd 11af 24bd
000000d0: 3a54 0dbd f3c7 00bd 3158 b1bd f318 36bb
000000e0: 058b c03c a164 303c 5829 8dbc ef9f 84bc
000000f0: 9fcf 353d 7e66 ae3c 56be c13a 9691 a43d
00000100: 4fc1 23bd 4c39 923c 78cd 613c 63fa 103d
00000110: 0415 b9bb 136f 5d3d eccc 42bb 4fe8 573d
00000120: a0dc b33c 9a56 223d 3926 ac3c 5882 94bc
00000130: 128f a6bc ed59 15bd ab5b 07bd 8e8c b93d
00000140: 3979 f5bb f9b7 9abb 538a 803b dd7e 6cbc
00000150: 233c 54bc 7f8a 8dbd 3456 82bd d546 e53c
00000160: 44db 423b bbd4 15bd c82b 2e3b c6cb a0bb
00000170: 7ca9 483d 7f65 b7bc c6f1 dbbc 30ac d43c
00000180: ad3d 153d f6b9 143d ad68 ab3b 7304 8bbc
00000190: 2a32 08bc 7f01 a53c 1f58 bf3c 1d64 b23d
000001a0: b7bd c93c e5ab c93d ca58 b03a 3e2b 80bc
000001b0: 92d3 7d3c d7e1 34ba 9e70 a8bd 0fa4 ee3b
000001c0: 888a 2cbd ae56 75bd 90f2 0ebd a0af 12bd
000001d0: 0470 ec3c 8c1f 113d 68a8 1c3d b2be 00bb
000001e0: b66d 523c 77e4 7cbb 67ae 4bbd ab58 823d
000001f0: 0711 6b3d 4f1d a8bd fdcb 8dbc 1e7c a83d
00000200: 3729 4abd 150e dfbc ebe2 b03c a8bb d5bc
00000210: 2a9e 2dbc a3de 92bd cddf 90bb d0f4 bfbb
00000220: 6228 5f3d 15e5 563c 3f21 be3b 48e0 b3bc
00000230: 5505 2bbd 56d4 d7bd 218b 0ebd 7145 d03d
00000240: 8843 373b 2be3 9cba 6bfb 903b e505 51bd
00000250: 0d1a 103d 76da 51bc 73fd 003b 27b6 65bd
00000260: 8c6f 1cbd c021 cfbc 4f5d a83b 17d4 1cbc
00000270: c75a 1cbd 141e 52bd d102 933c 90a9 153d
00000280: 606f 533d 813d 2fbd 28ac 88bc 213a 30bd
00000290: 13f0 99ba 4c6b a13c 5b80 693d d6a8 bf3d
000002a0: 3f12 e73c eca4 59bd ecd3 0aba ef55 51bb
000002b0: 9ce1 543c ed43 24bd 5309 6c3d d97a 553c
000002c0: 66e4 7abc 3ff1 db3d 0804 8cbc 48fe a0bb
000002d0: 309e 60bd 30dd 813d da48 943d 3d8b ae3b
000002e0: 4f46 093d 001f 3ebd 3cef 0bbd a7ba 203d
000002f0: 2a6e ca3c 515a ab3c dbda 193d 852c e23c
00000300: 34ce 56bd 9c80 04bd 8f8b c5bc eb08 97bc
00000310: 4e55 05bd 84dc a2bc 1740 4abc 54b2 7e3c
00000320: 0109 85bd bfd6 503d 4bd2 633d 62f8 dbbc
00000330: 4c1d aebd 54b5 4839 f3d6 babd 709a 973d
00000340: 6614 6dbd 4025 ecbb 7d15 053c 4dc4 a33d
00000350: d09e 683d 75cf 493d 396b 05bd 6316 123c
00000360: 5cd2 4bbd 68ee 6fbc c6cd abbc 1795 e8bb
00000370: 6ec0 713c fc26 2a3d f333 8bbd 4bea 7cbd
00000380: 0cf1 463d e60a b5bd 6445 d3bd c9db 063d
00000390: e5fb b73d e564 6e3d fdf9 dbbb 8221 843c
000003a0: 079b 8a3d e4db 52bc a30d 283b b431 953c
000003b0: 66b0 f33c 00f0 52bd 5ecf b7bd d4ca 813b
000003c0: ecdd a5bd e48d a23d 7afc 8c3d 251b 28bd
000003d0: 5e7f adbd e8a9 78bd f528 ad3d 63bb 263c
000003e0: a9e2 07bd e6d4 023c 4afb 21bc f302 253d
000003f0: b7a3 5bbc 7d93 33bd c5f3 a9bd 9abf b13d

decoder.bias f4 [24]
-0.0057556177 -0.007202827 0.03171959 0.06187224 -0.05669811 0.045024246 -0.03491748 0.044148657
-0.070177436 0.06305954 -0.055328134 0.0010465744 -0.02421581 -0.0065024113 -0.05751137 -0.056301963
-0.021649128 -0.05576737 0.052111167 0.1140379 0.069787875 0.10712675 0.092160575 0.054515395
00000000: 9f99 bcbb b105 ecbb 67ec 013d bf6d 7d3d
00000010: 473c 68bd 586b 383d a205 0fbd 39d5 343d
00000020: 30b9 8fbd 5c25 813d c19f 62bd 362d 893a
00000030: 3c60 c6bc 2e12 d5bb 0b91 6bbd e39c 66bd
00000040: 8359 b1bc 536c 64bd 8572 553d b48c e93d
00000050: f2ec 8e3d 4565 db3d afbe bc3d 894b 5f3d
