BDG2/results/Informer-BDG2.pt (torch, 644447 bytes, 59 tensors)

embedding.input_proj.weight f4 [64, 4]
00000000: 9a3a 183f c6e3 9a3e 4ba6 d23e 7f2e df3e
00000010: 8e2a e73e 4354 46be 9145 03be eaba ef3d
00000020: 3a12 7c3e 825b 21bf f36f 1dbe a5cf b73e
00000030: 4e56 893e 9b68 3d3f 98e6 b53d c87e 9dbe
00000040: 1337 1b3f 123f 013f f6bf 88be c2b0 073e
00000050: ffba af3e 5504 b83e 24f5 8e3d 34bf c13d
00000060: 312d 48bd 794f ea3e 478b d83e f77e 843e
00000070: 4b5b 13bf 2884 50bf fe9a 5abd bccc ee3c
00000080: 2f63 6fbe 4213 aebe 6048 25be d345 25be
00000090: 98e6 e53e 0ffe aabe 5da5 68be b204 a6bc
000000a0: 8781 cabe d80a 1ebf 73e0 993e 10a3 02be
000000b0: 137c 283f c703 2d3f 6120 ca3c 36b6 db3e
000000c0: 438a b3bd 2c00 0bbe a3ba 02be 0c02 203e
000000d0: 4cc5 22bd 6cc1 eebe 0c28 9f3e 0a82 2bbc
000000e0: 687b b13e f2f1 fc3e 5049 4d3d e94a aabe
000000f0: 4a37 183e 4fcd 323f 5580 41be d553 f9be
00000100: b231 253f de94 e23e b161 a23d 86ac 28be
00000110: 7e70 22bf 8ff0 23bf 182b e3bd 7324 2e3e
00000120: e314 a43d 70fa 4abf 1e46 06bf 1c9b b43d
00000130: 3eb5 f0be 293f 24be 8fea 21be 1b91 16be
00000140: 86e0 6bbd f010 693e 43e7 ee3e bde3 063e
00000150: 1e0a 43be 6731 5a3c ce7e 5fbd 40df 00be
00000160: 8a4d acbe edd1 483f d7fc c73e 802c 07bf
00000170: a61e 343e a246 1e3f 2210 d2bd e78a 40be
00000180: 443a e1bd 5f41 2a3f f42c 123f 4bf2 d4be
00000190: b87a c4be a9fd 16bf 868c b3be 93d2 a03c
000001a0: dede 113f 2592 96be 5dfc 883e 5528 ca3e
000001b0: 1edb dcbd f1c2 0ebf fd53 5ebd e032 9b3d
000001c0: dc49 b13e 8f53 b43e 0fc2 833e 4e5b cb3c
000001d0: 6311 ac3e 235f 063f caa3 963c 5d17 e2be
000001e0: 0ccc f03e d68a 0d3f 7658 8d3e 857a 9c3e
000001f0: 1600 80be a241 1e3f 4bee ae3e cc2a 04bf
00000200: aeab 073f 0527 e43d 4eab 343e 1aee e3ba
00000210: 84f2 e4be 24be 41bf dbae 39be b501 813b
00000220: ff42 12bd d666 383e cb9c eebc 8c50 b3be
00000230: 651b 58be b170 3fbf 1af2 95be cd97 d53e
00000240: a8a8 13bf aa7c f2be 3fd9 0e3e 0999 d0be
00000250: e273 cabe 394b 1b3e afef 58be 1b62 f2bd
00000260: ca62 efbe 9806 f63d 0b8e bc3c d81c 693e
00000270: 4e43 253f 26ba 793e bcff 20be 435e a33e
00000280: af1d 1e3f aae7 203e c615 8ebd d8a7 9d3e
00000290: ee1c 173f 123e be3e 3ca9 143f dc07 023e
000002a0: 993a b8be 2738 1bbf ea08 a9be 55b7 aabe
000002b0: 1e99 c93e 5730 143e a32d c23e e8fc bc3e
000002c0: b930 04bf dcf7 02bf 7ff5 3b3e 4835 84be
000002d0: 38c7 843e f12d 323f c1b6 10be 01dd a13d
000002e0: b982 bf3e ee07 a93e 82e9 f53e 87b3 e4be
000002f0: b5ad 74be b15c 3abf 3dd6 2dbe a27d 343e
00000300: 20a3 82be fa09 fdbe 51be 923e 2dc0 a43e
00000310: 362b 30bf 58e4 34bf ae1f 0abf 9f91 da3d
00000320: 1dbe 303f d957 da3d 2ea2 783e ba53 6c3e
00000330: cc14 df3e b7b2 81be 28b9 9abd 0a10 c43e
00000340: a936 d43e d36e 033f 819a 9ebd 8370 8ebe
00000350: 3a8c f4be d99f 12bf 5bbf bdbe a7c0 533e
00000360: f55e 8c3e 4c9d bc3e 8a66 f33e 4bce 8b3e
00000370: 46e2 223f 8f0b 19be 3864 893e ba89 55bd
00000380: ec12 3bbe c45a d1be 5022 cebe bf56 57bd
00000390: 0e8e 453e 0cb6 17bf e9ed 25bd 6fcb d33e
000003a0: bc36 10bf bb39 ffbe 815d 2cbe e5e4 a6bd
000003b0: 180f b33c 6fa2 a2be 5177 f4be fbba 6a3e
000003c0: 3e66 313f 4789 603f 104c a43e 1b85 f4be
000003d0: 0a73 1cbf 060a 27bf 6367 c3be 3ac7 b4be
000003e0: e533 483f 3815 413f c172 e23e 1023 f63b
000003f0: 7011 13be eca0 afbe d432 ddbe 4029 86be
0.5946442 0.30251902 0.41142496 0.4359016 0.45149654 -0.19368081 -0.12819506 0.11705573
0.24616328 -0.63030255 -0.15374736 0.35900608 0.26823658 0.7398774 0.08881873 -0.3076079
0.6063091 0.5048686 -0.26708955 0.13251022 0.34322354 0.35940805 0.069803506 0.09460297
-0.048871223 0.45763758 0.4229376 0.25878116 -0.57561177 -0.81451654 -0.05337047 0.02915036
-0.2337768 -0.33999068 -0.1614089 -0.16139917 0.44902492 -0.33396956 -0.22719331 -0.02026591
-0.39551947 -0.61735296 0.30054054 -0.12757516 0.6581432 0.6758389 0.024673643 0.42912453
-0.08766606 -0.13574284 -0.12766509 0.15625781 -0.03973894 -0.46631944 0.3108524 -0.010468015
0.34664464 0.4940334 0.050118744 -0.33260277 0.14864841 0.69844526 -0.18896611 -0.4869677
0.64528954 0.44254202 0.079287894 -0.16472062 -0.634529 -0.6403894 -0.11092204 0.17006092
0.08011796 -0.7928839 -0.5245074 0.08818647 -0.47013277 -0.16039719 -0.15812133 -0.14703791
-0.05758717 0.22760367 0.46660814 0.13172813 -0.19046828 0.0133174425 -0.05456429 -0.12585163
-0.33652908 0.7844532 0.3906009 -0.52802277 0.17589816 0.6182653 -0.10256983 -0.18802987
-0.109974414 0.66506 0.57099843 -0.41591105 -0.38374877 -0.58980805 -0.35068148 0.01963166
0.56980693 -0.29408374 0.26755038 0.39483896 -0.10783981 -0.55766207 -0.054279316 0.07578063
0.34626663 0.3522 0.25733992 0.02482381 0.33607015 0.5248892 0.018388648 -0.4415845
0.47030675 0.5528997 0.27606553 0.30562225 -0.25000066 0.618189 0.34166178 -0.516278
0.5299634 0.11140255 0.17643473 -0.0017389685 -0.44716275 -0.75680757 -0.18133108 0.003936971
-0.035708424 0.18007979 -0.0291275 -0.3502239 -0.211042 -0.7478133 -0.2928627 0.41717377
-0.57679224 -0.47360736 0.1395006 -0.40741757 -0.39541537 0.15165414 -0.21185182 -0.118351184
-0.46755058 0.120129764 0.02301695 0.2276491 0.64555824 0.24387416 -0.15722555 0.31907853
0.61764044 0.15713373 -0.06937747 0.30792117 0.5902852 0.3715673 0.5807073 0.1269831
-0.35982206 -0.60632557 -0.33014613 -0.33342996 0.39374632 0.14471565 0.37925443 0.36911702
-0.51636845 -0.51159453 0.18355368 -0.258219 0.25933242 0.6960135 -0.14132215 0.07903481
0.3740442 0.33013862 0.48029715 -0.44668218 -0.23894389 -0.72797686 -0.16976257 0.1762605
-0.2551508 -0.49421674 0.28660825 0.32177868 -0.68815935 -0.70660925 -0.5395459 0.10672306
0.6904009 0.10661287 0.24280617 0.23078814 0.43570554 -0.2533166 -0.07554847 0.38293487
0.41447952 0.5134098 -0.07744313 -0.27820215 -0.47763234 -0.5727516 -0.37060055 0.2067896
0.27416196 0.36838758 0.4753917 0.27305827 0.63626516 -0.14945816 0.26834273 -0.0521333
-0.18268937 -0.4088956 -0.40260553 -0.052572962 0.19292471 -0.59262156 -0.040510092 0.41366145
-0.5633352 -0.49848732 -0.16832544 -0.08149127 0.021857783 -0.31764552 -0.4774728 0.2292289
0.69296634 0.8770947 0.3208928 -0.477578 -0.61113036 -0.6524967 -0.38164815 -0.35308248
0.78204185 0.75423 0.44228175 0.007511504 -0.1436212 -0.3430246 -0.4320284 -0.26203346

embedding.input_proj.bias f4 [64]
00000000: e58f e73e 5682 853e f43f 22bd 4d75 0ebe
00000010: 4082 973c 42eb 51be 1840 313b c36e c73e
00000020: 5cd7 cf3d 66a8 d2be 205f 923e c293 293d
00000030: 4616 23be 1994 a1be 7254 3b3d 051f fdbd
00000040: eb6e b5be de92 a13d 148a c13e 7fc1 d7be
00000050: 0346 e23e 3d36 883e 2753 66bd 519f f8be
00000060: ec9c b8be 7da3 8c3e 2a96 733e b2c7 b53e
00000070: fbdc d53e 9646 8bbe 5763 ecbe 7778 d2bd
00000080: 6c73 8b3e 39eb a2be a8f5 0dbe 13da 2ebe
00000090: 6576 b03e 5204 97be 469c f5bd 0306 17be
000000a0: f8d1 a63e 1da2 d2be 76c2 b8be bf87 ae3e
000000b0: 663d 823e 8949 31bd 0042 843e 4fd0 d1be
000000c0: 163c bfbe 122d d23c 0f2b ae3e a5cc d6be
000000d0: cd1e b63e 432c 8abd 145f e4be af8e a83e
000000e0: 4823 5cbe 58bd 953e 94b0 b73c eada debd
000000f0: 7988 0d3f fce1 623e 554c d33e 1df1 9b3e
0.4522697 0.26076 -0.03961177 -0.13911934 0.018494725 -0.204999 0.002704626 0.38951692
0.101484984 -0.41144103 0.285882 0.04140068 -0.15926465 -0.31558302 0.04573483 -0.12359432
-0.35436186 0.07889341 0.37800658 -0.42139813 0.4419404 0.2660388 -0.056231644 -0.4855905
-0.36057222 0.27468482 0.23787752 0.35503918 0.41770157 -0.2720229 -0.4616954 -0.10276883
0.27236497 -0.31820086 -0.13863242 -0.17075376 0.34465328 -0.29495484 -0.119926974 -0.14748387
0.32582068 -0.41139308 -0.36085862 0.3408794 0.25437468 -0.04328302 0.25831604 -0.4097924
-0.3735053 0.025656257 0.34017226 -0.41953006 0.35570374 -0.067467235 -0.4460379 0.3292136
-0.21497834 0.2924602 0.022423066 -0.10881598 0.55286366 0.22156519 0.41269174 0.30457392

embedding.pos_encoder.pe f4 [1, 500, 64]
00000000: 0000 0000 0000 803f 0000 0000 0000 803f
00000010: 0000 0000 0000 803f 0000 0000 0000 803f
00000020: 0000 0000 0000 803f 0000 0000 0000 803f
00000030: 0000 0000 0000 803f 0000 0000 0000 803f
00000040: 0000 0000 0000 803f 0000 0000 0000 803f
00000050: 0000 0000 0000 803f 0000 0000 0000 803f
00000060: 0000 0000 0000 803f 0000 0000 0000 803f
00000070: 0000 0000 0000 803f 0000 0000 0000 803f
00000080: 0000 0000 0000 803f 0000 0000 0000 803f
00000090: 0000 0000 0000 803f 0000 0000 0000 803f
000000a0: 0000 0000 0000 803f 0000 0000 0000 803f
000000b0: 0000 0000 0000 803f 0000 0000 0000 803f
000000c0: 0000 0000 0000 803f 0000 0000 0000 803f
000000d0: 0000 0000 0000 803f 0000 0000 0000 803f
000000e0: 0000 0000 0000 803f 0000 0000 0000 803f
000000f0: 0000 0000 0000 803f 0000 0000 0000 803f
00000100: a46a 573f 4151 0a3f ce7a 2e3f b054 3b3f
00000110: ba7d 083f 0d94 583f f090 d13e c792 693f
00000120: 3e39 9f3e 6b4e 733f 258f 703e f1d5 783f
00000130: 3a23 353e 83f6 7b3f f325 083e 28ba 7d3f
00000140: 7675 cc3d 98b8 7e3f 366f 993d d147 7f3f
00000150: ae36 663d 6898 7f3f faac 2c3d bdc5 7f3f
00000160: 5b81 013d 3cdf 7f3f a53e c23c 93ed 7f3f
00000170: 42ab 913c a3f5 7f3f 497a 5a3c 2cfa 7f3f
00000180: 57d6 233c b9fc 7f3f 16b9 f53b 28fe 7f3f
00000190: 5a44 b83b f7fe 7f3f 5a2e 8a3b 6bff 7f3f
000001a0: 1c3e 4f3b acff 7f3f 0369 1b3b d1ff 7f3f
000001b0: 2015 e93a e6ff 7f3f 8ac9 ae3a f1ff 7f3f
000001c0: 6d12 833a f8ff 7f3f 8994 443a fbff 7f3f
000001d0: 136a 133a fdff 7f3f 2117 dd39 ffff 7f3f
000001e0: 61cb a539 ffff 7f3f 0da8 7839 0000 803f
000001f0: 5377 3a39 0000 803f 6dd4 0b39 0000 803f
00000200: b7c7 683f 3311 d5be d95a 7f3f 534d 913d
00000210: 0af2 663f b2e8 dc3e 1135 3f3f 0339 2a3f
00000220: 1b54 173f ec7b 4e3f b5d3 e93e 69be 633f
00000230: f647 b23e a6fa 6f3f 82f0 863e f5f2 763f
00000240: f86f 4b3e a5e5 7a3f d300 193e 4f20 7d3f
00000250: 86d9 e53d f361 7e3f ae85 ac3d 0e17 7f3f
00000260: c870 813d f97c 7f3f aa30 423d 4eb6 7f3f
00000270: 5ca5 113d 8ed6 7f3f 5075 da3c b1e8 7f3f
00000280: 3ed4 a33c e5f2 7f3f 51b7 753c a1f8 7f3f
00000290: 9b43 383c dbfb 7f3f 0a2e 0a3c abfd 7f3f
000002a0: d83d cf3b b1fe 7f3f e768 9b3b 43ff 7f3f
000002b0: 0815 693b 96ff 7f3f 7fc9 2e3b c4ff 7f3f
000002c0: 6812 033b dfff 7f3f 8594 c43a edff 7f3f
000002d0: 126a 933a f5ff 7f3f 1f17 5d3a faff 7f3f
000002e0: 60cb 253a fdff 7f3f 0ca8 f839 feff 7f3f
000002f0: 5377 ba39 ffff 7f3f 6dd4 8b39 0000 803f
00000300: c381 103e 2670 7dbf de3c 473f cebf 20bf
00000310: d745 7e3f ab7f edbd 6321 743f 6318 9a3e
00000320: c209 503f 582f 153f b724 273f a2e7 413f
00000330: 6c2f 023f 296d 5c3f a768 c73e 37c9 6b3f
00000340: 6c4e 973e ef90 743f e26d 643e 928c 793f
00000350: d7ee 2b3e 9e5d 7c3f 2c33 013e 43f4 7d3f
00000360: c0ff c13d 4fd9 7e3f 0693 913d 3a5a 7f3f
00000370: 4e69 5a3d c3a2 7f3f c5d1 233d 90cb 7f3f
00000380: 1fb9 f53c 83e2 7f3f 4747 b83c 6bef 7f3f
00000390: c631 8a3c adf6 7f3f 4644 4f3c c1fa 7f3f
000003a0: 0d6e 1b3c 0dfd 7f3f 131d e93b 58fe 7f3f
000003b0: a8cf ae3b 11ff 7f3f 1317 833b 7aff 7f3f
000003c0: 929b 443b b5ff 7f3f 606f 133b d6ff 7f3f
000003d0: 171f dd3a e8ff 7f3f 56d1 a53a f3ff 7f3f
000003e0: 10b1 783a f9ff 7f3f 097e 3a3a fcff 7f3f
000003f0: 7ed9 0b3a feff 7f3f a4be d139 ffff 7f3f
0.0 1.0 0.0 1.0 0.0 1.0 0.0 1.0
0.0 1.0 0.0 1.0 0.0 1.0 0.0 1.0
0.0 1.0 0.0 1.0 0.0 1.0 0.0 1.0
0.0 1.0 0.0 1.0 0.0 1.0 0.0 1.0
0.0 1.0 0.0 1.0 0.0 1.0 0.0 1.0
0.0 1.0 0.0 1.0 0.0 1.0 0.0 1.0
0.0 1.0 0.0 1.0 0.0 1.0 0.0 1.0
0.0 1.0 0.0 1.0 0.0 1.0 0.0 1.0
0.84147096 0.54030234 0.68156135 0.731761 0.53316844 0.8460091 0.4093089 0.9123959
0.3109836 0.9504153 0.23492105 0.9720145 0.17689219 0.9842302 0.13295726 0.99112177
0.099833414 0.9950042 0.07491915 0.9971896 0.05620449 0.9984193 0.04215715 0.999111
0.031617504 0.99950004 0.023711512 0.99971884 0.017781857 0.99984187 0.013334819 0.99991107
0.009999833 0.99995 0.0074988706 0.99997187 0.0056233825 0.9999842 0.0042169513 0.9999911
0.0031622713 0.999995 0.0023713715 0.9999972 0.0017782785 0.99999845 0.001333521 0.9999991
0.0009999998 0.9999995 0.000749894 0.9999997 0.0005623411 0.9999998 0.00042169637 0.99999994
0.00031622782 0.99999994 0.00023713727 1.0 0.00017782794 1.0 0.00013335208 1.0
0.9092974 -0.41614684 0.99748 0.070948265 0.9021307 0.43146282 0.7469035 0.6649324
0.5911271 0.8065784 0.45669332 0.8896242 0.34820527 0.93741834 0.26355368 0.96464473
0.19866931 0.9800666 0.1494172 0.98877424 0.1122313 0.9936821 0.08423935 0.99644554
0.063203394 0.9980007 0.04740969 0.9988755 0.03555809 0.9993676 0.026667267 0.99964434
0.019998666 0.9998 0.014997319 0.9998875 0.011246587 0.99993676 0.008433828 0.9999644
0.006324511 0.99998003 0.00474273 0.99998873 0.0035565514 0.9999937 0.0026670394 0.9999964
0.0019999985 0.99999803 0.0014997876 0.99999887 0.0011246821 0.99999934 0.0008433926 0.99999964
0.0006324556 0.9999998 0.0004742745 0.9999999 0.00035565588 0.99999994 0.00026670416 1.0
0.14112 -0.9899925 0.7782725 -0.6279267 0.9932532 -0.11596616 0.95363444 0.3009673
0.8126489 0.58275366 0.652904 0.7574407 0.5085361 0.86104065 0.3894703 0.92103904
0.2955202 0.9553365 0.22307542 0.9748012 0.16790329 0.9858035 0.12617177 0.9920084
0.094726086 0.99550337 0.071081206 0.9974705 0.053323083 0.9985773 0.039994974 0.99919987
0.0299955 0.99955004 0.022494925 0.999747 0.016869437 0.9998577 0.012650555 0.99991995
0.009486687 0.999955 0.0071140616 0.9999747 0.005334813 0.99998575 0.0040005534 0.999992
0.0029999954 0.9999955 0.0022496805 0.9999975 0.0016870227 0.99999857 0.0012650888 0.9999992
0.00094868336 0.9999996 0.00071141176 0.99999976 0.0005334838 0.9999999 0.00040005625 0.99999994

embedding.norm.weight f4 [64]
00000000: 5459 7b3f 4acd 653f f71f 783f 6f6f 793f
00000010: 292d 7c3f e8ea 773f 617e 783f a7cd bb3f
00000020: 82a3 7d3f d348 6b3f 55cf 733f 652e 813f
00000030: 1145 753f 816a 6e3f c085 7b3f 05b7 6e3f
00000040: d9ce 753f 3cc0 7b3f d8fd 823f 7540 773f
00000050: 91d3 803f 5442 6e3f aa8e 7c3f 7bff 7d3f
00000060: faeb 723f 9ebe 823f f137 6c3f d2b8 6f3f
00000070: bdee 9e3f 5025 673f f4d4 7d3f aa97 793f
00000080: aea1 783f a912 833f 4090 703f 3ee7 be3f
00000090: afe9 7b3f ca4e 783f 3a20 763f e820 7c3f
000000a0: 9d4c 793f 59b1 7c3f 66a1 a23f 5897 773f
000000b0: 96e3 8e3f df61 7b3f c7fa 903f ce0b 7e3f
000000c0: 2d5a 7d3f 9132 803f 1629 963f 9bd9 733f
000000d0: 5430 863f 1b51 7b3f 677c 823f 8c7e 773f
000000e0: fea6 813f de0d 673f d944 833f 6de6 783f
000000f0: 5251 9f3f 2f2a 7f3f 8231 953f 9919 7a3f
0.9818318 0.8976637 0.96923774 0.9743566 0.9850641 0.96842813 0.9706784 1.4672135
0.9907762 0.91907996 0.9523824 1.0092283 0.9580851 0.9313126 0.9825096 0.93248016
0.9601875 0.983402 1.0233717 0.9658273 1.0064565 0.9306996 0.9865519 0.9921796
0.9489132 1.0214422 0.9227286 0.9364139 1.2416607 0.9029131 0.99153066 0.97497046
0.97121704 1.024007 0.9397011 1.491432 0.9840345 0.9699522 0.96142924 0.9848771
0.9738253 0.9870811 1.2705505 0.9671531 1.1163204 0.98196214 1.1326531 0.9923676
0.9896572 1.0015432 1.1731288 0.95253915 1.0483499 0.9817063 1.0194215 0.9667747
1.0129087 0.90255535 1.0255386 0.972266 1.2446692 0.9967374 1.1655734 0.9769531

embedding.norm.bias f4 [64]
00000000: 0553 293d 9617 dd3d 4024 2c3d 0ab7 38bd
00000010: 0a67 063d 7dd8 13bd 2b68 21bd 04f4 c1bc
00000020: cab3 d9bc f92f ba3d bc54 55bd 8618 a23c
00000030: d6d1 323d f495 a53d b988 033d c334 993d
00000040: 86d5 483d bd1e 243d fede 2e3d 5c23 21bd
00000050: 7c24 9a3c 94c6 973d bc2c 0cbd b2c0 dfbc
00000060: e30f 6f3d 9325 fbbc 41be 923d db07 9d3d
00000070: 2ecd 49bc cf24 cd3d c7cd 18bd cd10 e03c
00000080: 240c 1abd f890 1a3d e4d8 82bd 43a0 aaba
00000090: 5f91 08bd 668e f0bc 1125 2ebd 3fac 03bd
000000a0: 59a5 28bd 8ba4 35bd d90f e7bc d9b8 34bd
000000b0: eab4 27bc 7b66 06bd 767b 63bd 4b86 e8bc
000000c0: 25e9 503d c110 28bd 9305 903c be40 47bd
000000d0: 4960 af3c 6a11 20bd 5735 e53c e7d3 31bd
000000e0: b686 e13c 92ec ccbd ef62 503d bf69 12bd
000000f0: 33b9 6f3d ddd7 1cbd 54c4 b83d be6e fabc
0.04133894 0.10795514 0.04202676 -0.045096435 0.03281311 -0.03609513 -0.039405983 -0.023675926
-0.026574988 0.09091181 -0.052082762 0.019787084 0.043657146 0.08085242 0.03211281 0.074807666
0.049031757 0.040068377 0.04269313 -0.039340362 0.018816225 0.07410923 -0.03422235 -0.027313564
0.05836476 -0.030657565 0.07165194 0.07667514 -0.012316985 0.10016786 -0.03730562 0.027351761
-0.037609234 0.03773591 -0.06389025 -0.0013017732 -0.03334176 -0.029364776 -0.042515818 -0.03214669
-0.041173313 -0.044346374 -0.028205799 -0.044121597 -0.010236004 -0.032812577 -0.055537663 -0.028384348
0.051003594 -0.041031603 0.017580783 -0.048645727 0.021408217 -0.039079107 0.027979536 -0.043414976
0.027530055 -0.1000606 0.0508756 -0.03574538 0.05852623 -0.0382918 0.090218216 -0.030570384

encoder.0.self_attn.q_proj.weight f4 [64, 64]
00000000: d5ff 1b3d e4c4 3abd 9ab8 eabc 4673 103d
00000010: 3b34 6c3d 959b 893d 7dd9 b9bd d32e d33d
00000020: 57dd 2cbd 93cd a8bc 755c 003b cc18 743d
00000030: c20a f73d 7503 8fbd 76a1 0abd 82e7 013e
00000040: 4e8b e3bd 2628 b43d db21 3d3d e9d2 003e
00000050: 0df1 f03d db15 e7bd 0047 ec3d bd3b 023e
00000060: 2d1d b6bc 0fc0 093e a2d0 313d 4239 693d
00000070: d150 03bd 4eba 8f3c 04a4 a23c 741f ba3d
00000080: 0131 dcbd 5f65 903c e921 0c3d efca 15be
00000090: 3806 903d cb44 89bd 7afb dc3d 070b 8fbd
000000a0: 5765 9bbd 246f ec3d 482a 3cbd 99fc a2bd
000000b0: aefd 22bd a2cf b5bd b350 713d 2222 9f3d
000000c0: 1a95 883d cab5 3dbd 024f be3a cf77 e53b
000000d0: 9806 de3d dcca 863d 4777 52bd 2dda c6bd
000000e0: eb48 1d3d ef30 cbbc ad26 d0bc 728b 07bd
000000f0: 6722 cfbc 74ef a4bd 15d3 8dbd ce09 a3bd
00000100: 4823 953d eea5 48bd 6d0b 753d 97b1 f63c
00000110: f65d 1c3d 12af 2a3c f251 39bd ab38 95bd
00000120: 8884 113e 4ae7 513c ec6b 1bbd 608f 4ebc
00000130: a378 8a3b 5263 0fbd 0b65 97bd 2342 593c
00000140: 4ad5 4dbd 0a99 d13c 4eea 80bd 331b 50bd
00000150: f14f d5bd b46f 12be 0688 4e3c 5bc4 a3bd
00000160: 616d 37bd a3c5 92bd b4bc b43d 1e2c ab3d
00000170: 23e0 55bd 7582 13be f832 4abd 0b7e e8bb
00000180: 2a92 083e e782 e13c 659f 783d 1912 11be
00000190: d1b7 e43d ee0a 44bc 4afe 8bbd bafa 9d3d
000001a0: 84e1 123e 722d 05bd ee58 173d 5051 19bd
000001b0: 7d4e ab3c a05b e43b 7eeb 243d f2c7 fc3d
000001c0: 5342 35bc bbd8 b6bd 70c0 34bd 294d 7bbd
000001d0: 1be1 cf3d 517d 54bd 78d5 213d c60a 64bd
000001e0: 77f1 a0bd 6caa 1b3d 982d ab3d 298b c43b
000001f0: a3ed aabd 3774 463b b583 403d 51f0 d23d
00000200: e142 d13d f704 6c3d 482c aebb 98ae 98bd
00000210: d522 74bd 9873 813d d202 1cbd f0b9 07be
00000220: bdee 1abe 2e6b e7bd 0e5a 3abd c7cd 983c
00000230: 0336 2fbd 8648 213e 69d9 943d 67e6 ac3d
00000240: 5b48 123d 9024 f93c 9bf0 abbc 6856 5dba
00000250: 351c 49bd f486 313d 0d3c d1bd 6c3b ae3c
00000260: 48a2 1c3e 6d99 a3bb 2b44 d43d 3289 37bd
00000270: df39 adbd aedc 44bd 894e 56bd daa6 263e
00000280: dd32 a8bd fd22 64bb 0e7a 74bd 831a 50bd
00000290: 2365 d8bd 4cfe fcbd 797e 7dbd 4a69 03be
000002a0: 5ed1 ad3d e2a6 1dbd c4a9 25be 89a3 d7bc
000002b0: 18e4 d6bd 6ad2 f8bd a557 743d 91d5 91bc
000002c0: 4d4e 563d 8620 92bd 823e 5bbc 571a 87bd
000002d0: b5db 5b3d 756d d9bd 1fa7 a93d 0b8b d7bc
000002e0: 4b1e 923c b774 23be c473 97bd 8e1d 9fbc
000002f0: dfd5 aebd 8356 983d 20d9 843d d838 85bd
00000300: 4591 f23d 1cb3 99bd 499b 0d3d 9a41 be3d
00000310: 3884 e43c bffb 1e3d 6b5e 8dbd c1f0 6a3c
00000320: f693 b73d 6362 143d 8c4d ef3c 015e 893d
00000330: 08c9 9c3d 6b67 0e3d b8ee d6bd 584c 61bd
00000340: 1f98 d33c 1071 723d e07d cebd 7e98 bebd
00000350: 3554 303d f089 dcbd cc7d 8e3d 78fa 6dbd
00000360: 7089 3c3d 90b9 92bd acbd 9bbd 00a0 ac3d
00000370: ceca a8bd 79da 1a3c d3f5 7c3d d600 8fbd
00000380: 95d2 e93c 5c17 ae3d 14a3 b5bd 4a35 fe3b
00000390: 728f ec3c 3612 42bc 8cad aabd 6fa7 4c3d
000003a0: f272 c9bb fc6e 563c 95ba a73d f520 28bc
000003b0: 530c 7c3b fccc fbbc 6737 8c3d e13f 943d
000003c0: da1a c2bd c591 e2bb 2e5a d3bd 851e 953d
000003d0: 85b1 5f3d 8349 38bc 369d 54bb d561 a53c
000003e0: f475 5fbd 5831 f6bc e46b d83c b772 e63d
000003f0: 6789 8e3d c115 863d 82c9 b43c 4783 a7bd
0.038085777 -0.045597926 -0.028652478 0.035266183 0.057667 0.06719128 -0.09074686 0.103116654
-0.042203274 -0.020605838 0.0019586359 0.05959396 0.12062599 -0.06983081 -0.033845387 0.1268597
-0.11110555 0.0879672 0.046174865 0.12580456 0.11764727 -0.112834655 0.1153698 0.12718101
-0.022230709 0.13452171 0.04341186 0.05693937 -0.032059494 0.017544892 0.0198536 0.090880305
-0.10751534 0.017626463 0.034212027 -0.14628194 0.07032436 -0.06702574 0.10790153 -0.06984525
-0.075876884 0.11544636 -0.04593876 -0.079583354 -0.03979271 -0.088774934 0.05891485 0.07770182
0.06669064 -0.046315946 0.0014519396 0.0070028077 0.108411014 0.06581661 -0.051383283 -0.097095825
0.038399618 -0.024803607 -0.025409067 -0.03309197 -0.025284959 -0.080534846 -0.06925026 -0.079608545
0.0728212 -0.048986368 0.05982535 0.030113978 0.038175546 0.010417717 -0.045244165 -0.07286199
0.14210713 0.012811491 -0.03794472 -0.012607425 0.004225807 -0.03500683 -0.07392319 0.013260397
-0.050252236 0.02558567 -0.0629469 -0.05080719 -0.10415638 -0.14300424 0.012605673 -0.07996436
-0.044782046 -0.071666025 0.08825055 0.08358024 -0.052215707 -0.14405234 -0.049365014 -0.0070951036
0.13337007 0.02752824 0.060698885 -0.1416706 0.11167873 -0.011965496 -0.06835611 0.07713838
0.1434384 -0.032514043 0.036950044 -0.03743106 0.02091145 0.0069689304 0.040263645 0.12342824
-0.011063176 -0.08928057 -0.044128835 -0.061352883 0.10150357 -0.051877324 0.03951022 -0.055674337
-0.07858556 0.038004324 0.08358306 0.0059980345 -0.08346107 0.0030281672 0.047000606 0.10299743
0.10217834 0.057621922 -0.0053153373 -0.07455176 -0.05960353 0.06320876 -0.038088627 -0.13254523
-0.15130134 -0.1129974 -0.04549604 0.01865281 -0.04277612 0.15750322 0.0726803 0.08442383
0.035713535 0.030412942 -0.020988753 -0.00084433565 -0.049099166 0.043341592 -0.10216532 0.021268569
0.1529628 -0.004992655 0.103645645 -0.044808574 -0.08458304 -0.04806202 -0.05232099 0.16274586
-0.082128264 -0.0034810894 -0.059686713 -0.050806534 -0.10566165 -0.12353191 -0.06188819 -0.12833133
0.08487199 -0.03848923 -0.16178042 -0.026323097 -0.10492724 -0.12149508 0.059653897 -0.017802032
0.052320767 -0.071351096 -0.013381602 -0.06596821 0.053676326 -0.106165804 0.08283829 -0.026311418
0.01783671 -0.15962492 -0.073951274 -0.019423272 -0.085368864 0.07438376 0.06486726 -0.06504983
0.11844114 -0.075048655 0.03457192 0.09289856 0.027895078 0.038814303 -0.069027744 0.014339627
0.08963768 0.03622664 0.029211782 0.06707383 0.07655531 0.034766596 -0.10494751 -0.055004448
0.025829373 0.059189856 -0.100826025 -0.09306429 0.043049056 -0.10768497 0.069575876 -0.058100194
0.046029508 -0.071642995 -0.076045364 0.08428955 -0.08241807 0.009451502 0.061757874 -0.06982581
0.028542796 0.08500549 -0.08868995 0.0077578174 0.028876994 -0.011845162 -0.08333883 0.049964365
-0.0061477358 0.013087984 0.081898846 -0.010261764 0.0038459494 -0.030737393 0.06846505 0.072387464
-0.09477778 -0.0069143497 -0.10319935 0.07281212 0.054612655 -0.011247995 -0.0032442338 0.020188252
-0.05455585 -0.030052826 0.026418634 0.11252349 0.06959801 0.06547118 0.022068743 -0.08179336

encoder.0.self_attn.q_proj.bias f4 [64]
00000000: a4aa c33d b6a3 5b3d 7213 ccbd fc20 80bd
00000010: 3f53 da3d 81f7 b73d b037 f13d f63c 22bd
00000020: cf73 563d 4150 d63d 5f51 5ebd 7732 d8bd
00000030: f10f 8d3d a8a2 f1bc 5f58 63bc 6811 e53d
00000040: 7845 343d 7663 9cbd cd13 8a3d 8119 1abd
00000050: e617 a53d 281f 363d ef78 163d 68fb d9bd
00000060: f797 163d 70ac 4d3c 68bd 1bbd 67cb 1ebd
00000070: 43fb c03c 877e 0ebe fbf9 77bd 9900 56bd
00000080: 1a07 c2bd 0ebe ab3d 2a1b d5bd b95f d83d
00000090: e351 e93d a936 a7bc fd8c b43d 23ba 05bb
000000a0: 7fa6 cc3d 9ada aabc 8a10 c43d 5769 55bd
000000b0: 0193 c1bd e9f4 68bc 09d4 aebd 0da2 07be
000000c0: 4a82 abbd c882 07be db0b 7bbd 2aaa c33c
000000d0: f4d9 14bd 4f72 debd 5cd2 a1bc fc25 8d3d
000000e0: 95bf bcbd bd53 d4bd ad48 f1bd 3f23 afbd
000000f0: 4f4a e5bd d32b b3bd a1e4 5a3d 1d57 913d
0.095540315 0.053622924 -0.099646464 -0.06256291 0.10660409 0.089827545 0.117782 -0.039608918
0.052356537 0.10464526 -0.05427682 -0.105565004 0.06887806 -0.029496506 -0.01387605 0.111849606
0.044011563 -0.07636158 0.06742058 -0.03762198 0.08061199 0.044463307 0.036736425 -0.10643655
0.03676602 0.012553319 -0.03802243 -0.0387682 0.02355731 -0.13915454 -0.060541134 -0.052246664
-0.09474011 0.083858594 -0.10405572 0.10565133 0.11392572 -0.020411806 0.08815954 -0.0020405136
0.09992694 -0.02085619 0.09573467 -0.052102413 -0.09451867 -0.014218547 -0.08536536 -0.13245411
-0.0837446 -0.13233483 -0.061290603 0.023884851 -0.03634067 -0.108616464 -0.019753627 0.068920106
-0.09216229 -0.10367534 -0.1178144 -0.085516445 -0.11195814 -0.08748593 0.053440694 0.07096694

encoder.0.self_attn.k_proj.weight f4 [64, 64]
00000000: b99f 81bd e73e 86bc d722 d6bd 2074 2e3d
00000010: 64fc b2bd 1853 96bd 31c1 213d 04b0 b1bb
00000020: 5345 bf3c 5f9c 233d c9c4 f6bc 9b06 3f3c
00000030: b752 16bc 7d42 c9bb 0a1b 943c 97e3 2c3a
00000040: 03df 27be ea4b 813d 56dd 043d e5cd c73c
00000050: ece9 d63d 4f1d 65bc 996d 95bd 7e3f 08be
00000060: 016c 113d ee37 71bd 2910 c63c d925 203b
00000070: dafc cb3d 8083 23bd eb1e 2a3d 6398 fb3d
00000080: 5cf6 2fbd 1bf5 b4bd 12a8 af3d 4209 d33c
00000090: b53c c33d 281f 8f3d f24a 903d 10c2 b5bd
000000a0: 0e82 a1bd 487e b1bd 01dd a43d 3f84 57bd
000000b0: 9030 d93d 2eb0 933d 0e0d d73d 0ba7 6bbc
000000c0: 88fb 17bd 0f52 a13d ec65 76bc 4513 36bc
000000d0: 2ad9 983d 43f3 023e 8e78 213d b19d d03d
000000e0: 1169 e33c 2ccf 043e 4f80 aa3d 802d 84bd
000000f0: 4475 f0bd bf60 203e 42be 3a3d b265 01bd
00000100: 6796 d83c f3d0 183d 5f85 683d 7134 01bd
00000110: 46b0 babd 7680 d7bd 9742 06bd 56c9 6dbd
00000120: d7e5 9a3d 40cb 25bd 75b4 c63d 5105 a13d
00000130: fab0 e43b 67c7 053e 5f29 973d 577d 08be
00000140: e2df b3bd c6ba 0c3d 629a c63b 69bc 31bd
00000150: f3f2 553d 6fe4 8bbd 9123 3fbd 00e0 99bd
00000160: ad3a 8c3d 2d07 bb3d 49b1 03b9 6cf8 c8bc
00000170: f4c3 83bd 7785 db3d 3135 86bc d7a3 c0bd
00000180: 4e5b 17bd 605e 30bd eb99 8dbd c3c0 ea3c
00000190: 6e13 61bd daa5 3c3d f26c f03a 98b3 113d
000001a0: f7cf 2b3d 45db e5bd 8f03 a43d 8148 a83d
000001b0: 8a02 e0bd abf2 81bd b889 cabc 1092 d73c
000001c0: dfda 8a3d 0acb 163d a63a f4bb a714 eabd
000001d0: 786d 4f3d a0d2 2d3d 281d e7bc fe13 58bd
000001e0: d04b 7ebd af4e d03d b1f3 833d 16f2 123d
000001f0: 282d e3bd 181c 973d ecc5 08be 25a5 57bc
00000200: 7fa0 843d 3acc c7bb 53e2 53bd d0e6 2cbd
00000210: 8eec 90bd 4486 ac3d 090e e1bd eec5 3ebc
00000220: 6a1c 863c e5b1 bebc 16d0 0dbe 1afb 8fbd
00000230: 9fa0 f83d 7776 21bd 8238 30bd e91d 0cbe
00000240: 20ab f6bd 8c71 f13c f696 dd3d ccc5 c9bc
00000250: 138e 0dbe 4c16 8ebd 578f 1a3d d2e2 acbd
00000260: b1c0 1b3e 5668 b53d 7000 c03d 37d2 543d
00000270: 51b5 b33d c32b 033e 691c 183c 0b3e 843a
00000280: 3df6 b6bd 046a c23d 03ff dc3d b20a 753d
00000290: 1a9a 0abe 16d8 a83b 5549 3b3d 1abb 643d
000002a0: d143 7abd 19db 04be 1df3 7f3d 0de1 353d
000002b0: afb9 a63d b076 85ba 1ca2 c63d 202a 1fbd
000002c0: da13 b53d 58ed 9cbd 4942 80bd cec0 ec3c
000002d0: a121 b73c cbc3 693d 6606 1cbd 851f 5a3d
000002e0: 40c7 9c3d 4c12 8c3d 09ee a4bd 3e3b 933d
000002f0: 1eb5 ac3d 4bd5 c8bd 1df9 ddbd e4d6 53bd
00000300: d07d 143d 951d 1abd fed4 7bbd 74bf debd
00000310: 170b 983c 335c 7f3d ed0d ecbd 3092 cabd
00000320: 9b6a 263e ca97 c3bc 6513 cf3c 2a5f 463b
00000330: 3075 00be 7b48 cc3b 7dbb f33d 156e abbd
00000340: c0cc 903b 31be db3d 6665 aabd c01c ccbd
00000350: 5fb8 b93d 18a9 dabd 58d2 903b 8a43 d03d
00000360: e464 15bd f0dc e7bd 924a 803d 43bb 0bbe
00000370: 444c 10be b514 c7bd dd64 a2bd 0724 573d
00000380: a577 993d aa56 eebd c5ed 5a3d cba2 833d
00000390: 1942 6cbd 8387 20be 923e 1cbd 6cc5 a53d
000003a0: d23f 063d 09f5 6ebd 5d48 7ebd d815 ad3a
000003b0: 06a2 22bd 32b6 133d 24a6 083d 70b7 07bd
000003c0: 99aa adbd 1ceb 453d 0209 a83d c343 c3bd
000003d0: 1d3f 913d d005 133d 2256 393c 2b9d 8a3c
000003e0: 4663 cc3c 46d4 533d 7c40 cb3d afb1 ad3d
000003f0: f288 b6bd 27ee 36bd 858a ea3d a6a4 3cbd
-0.06329293 -0.016387416 -0.10455864 0.042591214 -0.08739546 -0.073400676 0.039490882 -0.005422594
0.023348486 0.03994405 -0.030123131 0.01165929 -0.009174994 -0.006141959 0.0180793 0.0006595193
-0.16393666 0.063133076 0.032437645 0.02439017 0.10493836 -0.0139840385 -0.07296295 -0.1330547
0.03550339 -0.05889123 0.024177628 0.0024436621 0.09960337 -0.03992033 0.041533392 0.12284925
-0.042959556 -0.08835813 0.08576979 0.02576125 0.09533063 0.069883645 0.07045545 -0.08874905
-0.07886134 -0.08666664 0.08049966 -0.052616354 0.10604966 0.07211338 0.10500537 -0.014383088
-0.037105113 0.078769796 -0.0150389485 -0.011112993 0.07463296 0.1278811 0.03942161 0.10186327
0.02776006 0.12969655 0.08325254 -0.06453991 -0.11741117 0.15661906 0.0455916 -0.031591125
0.026438905 0.037308645 0.056767818 -0.031544153 -0.09115653 -0.10522549 -0.03277835 -0.058053337
0.0756337 -0.040477037 0.09702388 0.07862342 0.006979105 0.13064347 0.07380938 -0.13329063
-0.08782937 0.03435781 0.0060608843 -0.043392573 0.052233648 -0.068306796 -0.04666478 -0.07513428
0.06847129 0.09132228 -0.00012559177 -0.02453252 -0.064338595 0.10718816 -0.016382786 -0.0940625
-0.03695231 -0.043058753 -0.06914123 0.02865637 -0.05495017 0.046056606 0.0018343015 0.035571665
0.041946378 -0.11223463 0.08008491 0.08216954 -0.10937984 -0.06345113 -0.024723873 0.026314765
0.067800276 0.036814727 -0.0074532805 -0.1142972 0.050641507 0.042437196 -0.028212145 -0.05275344
-0.06208402 0.10171258 0.06442965 0.035875402 -0.11092597 0.07378405 -0.13356751 -0.013161932
0.06475925 -0.0060973438 -0.05172951 -0.042212307 -0.07076369 0.08424047 -0.10989005 -0.01164387
0.01637097 -0.023278186 -0.1384891 -0.07030316 0.12140011 -0.039419618 -0.04302264 -0.13683285
-0.12044358 0.029473089 0.10819809 -0.02463045 -0.13823728 -0.069378465 0.037734356 -0.084417
0.15210225 0.08857791 0.093750834 0.05195829 0.08774818 0.12809663 0.009284117 0.0010089291
-0.08933685 0.09492877 0.10790827 0.059824653 -0.13535348 0.0051527126 0.04572423 0.055842496
-0.06109983 -0.12974204 0.06248771 0.04440408 0.08140885 -0.0010182466 0.09698889 -0.038858533
0.08841677 -0.07662457 -0.06262643 0.02890053 0.022354903 0.05707149 -0.03809204 0.053252716
0.076551914 0.06839427 -0.08053214 0.07189034 0.08432983 -0.098063074 -0.1083853 -0.051718608
0.036252797 -0.037625868 -0.061482422 -0.108763605 0.018559976 0.062343787 -0.11526094 -0.09891164
0.16251604 -0.02387609 0.025277803 0.0030269125 -0.12544703 0.0062342263 0.11900995 -0.08370606
0.0044189394 0.107296355 -0.083201215 -0.09966421 0.09068369 -0.10676783 0.004419606 0.10169132
-0.03647317 -0.11321437 0.06264223 -0.13645653 -0.14091593 -0.097207464 -0.079293944 0.052524593
0.074935235 -0.116376236 0.05344941 0.06427535 -0.057680223 -0.15676694 -0.03814561 0.08094296
0.032775708 -0.058339152 -0.06208073 0.0013205362 -0.0397053 0.036062427 0.03336157 -0.033133924
-0.084798045 0.04831992 0.08204843 -0.09534409 0.07092116 0.035894215 0.01131204 0.016920647
0.024949681 0.05171611 0.09924409 0.08481156 -0.08912839 -0.044660714 0.11452202 -0.04605546

encoder.0.self_attn.k_proj.bias f4 [64]
00000000: b25a e7bd bb7a 2ebd 76ec 89bb d14e 8e3d
00000010: f5b5 b93c 5378 8c3c c1c8 bd3d 0745 9ebd
00000020: ec7b 8bbc b0f2 acbc 69ee 553d 39e7 6d3c
00000030: 8a33 f5bc c67c 50bd 56f2 803c 263f 85bb
00000040: 3a4b 6abd 66a4 f73c d079 993d b99c dfbd
00000050: de32 a6bd 1d59 363d ca35 07bd 7d59 be3b
00000060: 8736 e73c d369 96bd 2949 9e3d cebe e4bd
00000070: 3248 a7bd b301 5abd f52e dbbd 6fe7 c13c
00000080: 9559 833d 8fa3 d3bd 2196 2b3d 8897 be3d
00000090: 3108 bd3d ab06 6bbd 7c48 933d e200 83bd
000000a0: 35d2 0b3d 8721 7a3d 7ef2 82bd f84f b7bd
000000b0: 7ab9 29bd 7225 d5bd 040c 9f3b 68bc 4abd
000000c0: d71f 9e3c 82ad 723d d2dc f1b8 1cad 8cbd
000000d0: fe6c 1bbd bd04 b2bd 28f0 42bd 619c 053d
000000e0: 602d c33d 31a3 423c 4f24 ae3d 9095 f83d
000000f0: 17f2 6dbc 4d60 ca3d e98c 9a3d a0d8 fdbb
-0.11296596 -0.042597514 -0.0042090965 0.06948627 0.022669772 0.017147219 0.092668064 -0.0772801
-0.017026864 -0.021111816 0.05222932 0.01452046 -0.029931802 -0.050900243 0.015740555 -0.004066366
-0.057200648 0.030229758 0.07493937 -0.10918564 -0.08115171 0.04451858 -0.03301028 0.0058090077
0.028224243 -0.07344403 0.07728798 -0.111692056 -0.08168067 -0.053224277 -0.10702316 0.023669926
0.06413571 -0.10333931 0.04189122 0.09306246 0.09230078 -0.057379406 0.0719156 -0.06396653
0.034136016 0.06106713 -0.06393908 -0.089508 -0.04143665 -0.10407533 0.0048537273 -0.049496084
0.019302292 0.0592475 -0.000115329065 -0.068689555 -0.03794574 -0.0869231 -0.047592312 0.032619838
0.09530139 0.011879728 0.08503019 0.12137902 -0.014523051 0.09881649 0.07546408 -0.007746771

encoder.0.self_attn.v_proj.weight f4 [64, 64]
00000000: 1ec1 d6bd cd4b f63c 20ec d43c 886b d83c
00000010: abc1 52bd a95d ad3a d626 fcbd 9c4c c63d
00000020: 8be4 ac3d 6273 4c3c 6818 8c3d 84d7 893d
00000030: 6b8f 87bd 4b53 863d af8b f43c 6dd2 fdbd
00000040: 4d07 cfbd b12e e3bc 3d6a 6ebd 9010 b1bd
00000050: c5c4 ec3d df59 623d 21b3 e13d bad4 04be
00000060: a9cc 92bd 8553 b33d 89f2 e53c b9e8 bdbd
00000070: 4f76 5f3c df9c a7bd 92ec aa3c c6cb 003c
00000080: 9846 d73d 33cd debc 6fa4 8abd e9e5 8b3d
00000090: 1fc7 a53d 9bce bd3d 1436 f83d 0de1 333d
000000a0: 4028 5abd 22bb 703c 39e2 f9bb e6c0 bdbd
000000b0: 4736 bd3d f7b1 a23d a20b 64bd 5a63 ba3d
000000c0: e0e0 463d eb4b e13d e81e dc3d 88e5 613d
000000d0: 4713 c23d 3868 0dbd f0e8 41bd 4bd0 dbbd
000000e0: e2b5 b6bc 5119 293c 2a6d 203d c20f 033d
000000f0: 88cf f0bc 8262 d03d 4253 443b f790 e03d
00000100: 2d8f 0c3e 5337 87bd 8b2e 533d d374 b83d
00000110: e35d 81bc a534 86bd 7b90 ca3c 1966 81bd
00000120: 00fa b1bd 7f94 afbd facd 0e3d cb32 adbd
00000130: 73e7 4dbd e5ad dfbd 2c40 2dbd 6da9 b5bd
00000140: a91b 65bc d853 56bd a7d6 e4ba d4ea b53c
00000150: 7c66 03be b9f0 b0bd 3f44 af3c 39ac be3d
00000160: 0dee 483d 74a2 c13d 2232 a03c 9edc 5ebc
00000170: 43dc e1bd e590 553d f483 95bc 80f0 3d3b
00000180: feff 81bd f75b 22bb 762e ad3d dec6 3bbd
00000190: da8d 17bd 4757 7b3c 3416 b73d 1a94 e2bd
000001a0: d8d4 2c3d ca55 da3d d9af ce3d 4a7b 08be
000001b0: 2225 b43c 50e9 973c 5527 943d ac9a 823d
000001c0: dbd1 bbbd dbfa 0bbd 19ed a83d 532f d13d
000001d0: a7b5 29bd cd5a b5bc 6987 b0bd bc1b 68bd
000001e0: ef4d e53c 1dd2 6b3d d28f c4bd 4406 e4bd
000001f0: 1396 c43d 1e17 c73d 8abc 9dbc 7b29 203d
00000200: f2ab 91bd 9f4f d63c 4ef3 b2bd f60d 4a3d
00000210: 1c12 833d e788 163d 3fa8 763d f915 0f3e
00000220: 986f b2bd fd82 8abd 9914 a63d f557 afbd
00000230: ec5a 60bd 53ff a03d dec9 aabc f718 613d
00000240: 9521 49bd c4a7 bf3d 3e1a 9ebb 63d7 c33d
00000250: c60c ffbd e219 19bd eb20 273d 7a4f 9dbd
00000260: 4e06 e1bd 7fe6 1c3e 082b 57bb b195 00bc
00000270: fc99 dcbd 407f 38bd 5b5c 153d 19ff 94bd
00000280: 63af a5bd 8882 8c3d f2b8 9abd e50a e7bd
00000290: 8020 423d acf7 eebb c348 f53d 1ad5 253d
000002a0: 73da cfbd 0a3a 7bbd f037 1a3e 3856 1f3d
000002b0: cf8c b6bd e948 0dbe e782 abbd f8a7 293d
000002c0: 9f60 90bc 4ce2 c0bc b49e 94bd 4cb5 543d
000002d0: 76c1 53bd 1702 2d3b e774 b9bd aaff 59bd
000002e0: 4b74 163e 8089 82bd 1140 823d cfb2 5abd
000002f0: db75 96bd 9a8c babd 7754 ad3d 741c cabc
00000300: 4c38 0f3e 6a1a 86bd 9c3e 913d b349 903d
00000310: fcef b8bd f3a9 393d 4867 8ab8 751b 083d
00000320: 8976 30bd 6a7c f03d 416f 24bd 5919 5a3c
00000330: 5205 dab9 abf0 923d 0e97 f53d a8c4 abbd
00000340: f6b3 99bd 122a e63d d3ef 1f3e b2f8 443c
00000350: a5e3 be3d 355b 7a3d 0956 843d 4b24 d1bc
00000360: e866 0e3e 3f8a 1a3e ea0e 90bc fe0f 12bb
00000370: f88b 1abd 0582 3ebd a261 173d ad70 643d
00000380: 65a5 0fbe de12 c13a 4cdd 413d fd0b a43d
00000390: c4d3 57bd 1f99 06be 8bf3 fc3d 7f78 633d
000003a0: ba41 f73d d4be cabd e2c6 c9bc 4c2f ac3d
000003b0: 739d 11bc bacd 3f3d 0bc2 d63d e328 b0b6
000003c0: 328e 7fbc 4e0c 583d 1790 4fbd 6dea f2bd
000003d0: f1f1 163e 53f0 fdbd dfc7 6fbb 084a d8bd
000003e0: 76f6 bdbc 0aab 11bb 5bdd a73d 0046 cdbd
000003f0: ab1c a6b9 d1f7 e73a fb96 74bd 345d 0a3c
-0.10486053 0.030065442 0.0259915 0.026418462 -0.051454227 0.0013226765 -0.12312095 0.09682581
0.084420286 0.012478681 0.068405926 0.067305595 -0.06619152 0.065588556 0.029851763 -0.12393651
-0.101088144 -0.027732225 -0.058206785 -0.08645737 0.11560968 0.05526149 0.11020494 -0.12971774
-0.07167942 0.087561645 0.028069751 -0.09272904 0.013639047 -0.08184218 0.020864759 0.007861083
0.105115116 -0.027197456 -0.067696445 0.06830961 0.0809462 0.092679225 0.121196896 0.043915797
-0.05326104 0.014693053 -0.007625845 -0.09265308 0.09238868 0.079441 -0.055675156 0.09100981
0.0485543 0.11000808 0.107480824 0.05515054 0.09476333 -0.03452322 -0.047341287 -0.10733088
-0.022303525 0.010320977 0.039166607 0.03199745 -0.029395834 0.10175039 0.0029956852 0.1096515
0.13726492 -0.06602349 0.05155806 0.090066575 -0.015791839 -0.0655301 0.024727097 -0.06318302
-0.08690262 -0.08573245 0.034864403 -0.084569536 -0.050269555 -0.109218396 -0.042297527 -0.08870206
-0.0139836455 -0.052326053 -0.0017458991 0.022206701 -0.12832063 -0.08639664 0.021394847 0.093101926
0.049055148 0.094548136 0.019555155 -0.013602404 -0.1102834 0.052140135 -0.018251397 0.002898246
-0.06347655 -0.0024774054 0.08456127 -0.04584395 -0.037000515 0.015340633 0.08939782 -0.110634044
0.04219517 0.10660894 0.10092134 -0.13328281 0.021990363 0.01854387 0.072340645 0.063771576
-0.09170886 -0.03417478 0.08248348 0.102141045 -0.041433003 -0.022138024 -0.086195774 -0.056667075
0.027991263 0.057573427 -0.09597744 -0.111340076 0.09598937 0.09721206 -0.019254941 0.03910206
-0.07112874 0.026161013 -0.08737813 0.04932972 0.063999385 0.036751654 0.060219046 0.13973226
-0.08712691 -0.06763265 0.081093974 -0.08561698 -0.05477421 0.07861199 -0.02084821 0.05495545
-0.049104292 0.09358171 -0.0048249057 0.09562566 -0.12453608 -0.0373782 0.040802877 -0.076811746
-0.10987531 0.15322302 -0.0032832045 -0.007848189 -0.10771558 -0.04504323 0.03646503 -0.072752185
-0.08090093 0.06860834 -0.07554807 -0.11281375 0.047394276 -0.0072927084 0.11976769 0.040486433
-0.10149088 -0.061334647 0.15060401 0.038900584 -0.08913576 -0.13797344 -0.08374577 0.041419953
-0.017624198 -0.023545407 -0.07256833 0.05193071 -0.05169817 0.002639895 -0.090555005 -0.053222336
0.146928 -0.06373882 0.06359876 -0.05339318 -0.07346698 -0.09108849 0.08463376 -0.02467177
0.1398632 -0.06548007 0.0709202 0.07045307 -0.090301484 0.04532809 -6.5995904e-05 0.03322931
-0.043081794 0.1174248 -0.040145162 0.013311707 -0.00041584164 0.0717481 0.11991702 -0.083871186
-0.07505028 0.11238493 0.1561883 0.012022184 0.093207635 0.061122138 0.064617224 -0.025530001
0.13906443 0.15091799 -0.017585237 -0.0022287364 -0.03773114 -0.046510715 0.036958344 0.05577152
-0.14027937 0.0014730354 0.047330186 0.08010099 -0.05269219 -0.13144349 0.1235114 0.055534836
0.12073083 -0.09899679 -0.024630968 0.08407459 -0.0088876365 0.046827056 0.104862295 -5.2499686e-06
-0.015597867 0.05274611 -0.050674524 -0.118611194 0.14740731 -0.12399354 -0.0036587638 -0.10560995
-0.02318881 -0.0022227191 0.08196517 -0.10023117 -0.00031683347 0.0017697756 -0.0597143 0.008445073

encoder.0.self_attn.v_proj.bias f4 [64]
00000000: 371b 15bc 332f 75bc 915e f7bd df48 a03d
00000010: 679d cc3d 3f6b e63d 11a0 65bc 01d2 633d
00000020: 56ec b9bc 2522 173e 574b 253b c616 4a3d
00000030: 18c0 7f3d 5de6 12bd 4414 01be 29b3 153c
00000040: 94fb a6bd 0cbc e53d 824e c2bc c828 023d
00000050: ad68 023d b527 9d3d f144 cf3d 3b28 c0bd
00000060: 7b93 76bd 6e31 703d f785 85bd 0cfe 2abc
00000070: fbe9 883d 2325 273d 7192 8a3d 2a36 f23d
00000080: fefb 523d 643e 043c 4407 abbd c7bb f93c
00000090: af44 ed3d a86a f7bc af14 783c 1d8f 10bd
000000a0: df4f 813d 76ef a7bb e10f 2f3a c7f4 15bd
000000b0: 070a 663b 48c7 b1bd 4ba9 4b3d b8bd 58bd
000000c0: 5d0e 44bd 10ae a4bd c436 34bd f3a0 fa3d
000000d0: 1148 bcbd f992 213d 04be cc3b 192d 303d
000000e0: 6e05 bb3d 8e12 9b3d f447 debd e8ad a83d
000000f0: 4065 173d a5c4 d6bb fa20 bfbd c4fe fd3d
-0.009100727 -0.014964866 -0.12078584 0.07826399 0.099909596 0.11250924 -0.014015214 0.055620197
-0.022695702 0.14759119 0.0025221908 0.049338125 0.062439054 -0.035864223 -0.12605387 0.009136953
-0.081534535 0.11217508 -0.023719076 0.031777173 0.031838108 0.07673589 0.101205714 -0.09382673
-0.060199242 0.05864089 -0.065196924 -0.010436546 0.06685253 0.0408069 0.06766213 0.11826737
0.05150985 0.008071516 -0.08350995 0.030485047 0.11585366 -0.030202225 0.01514165 -0.035292733
0.06314062 -0.0051249815 0.00066780864 -0.03661039 0.0035101192 -0.08680588 0.049721997 -0.052915305
-0.04786526 -0.08041012 -0.04399754 0.1223773 -0.09193433 0.039446805 0.0062482376 0.04301176
0.09131895 0.075718984 -0.10853568 0.08236295 0.036961794 -0.0065542036 -0.09332462 0.12402108

encoder.0.self_attn.out_proj.weight f4 [64, 64]
00000000: d57d 78bd 9210 9dbd abcc 51bb b5bf 413a
00000010: ab34 d13d 9255 76bc 861d 87bd 38e8 0b3c
00000020: e2f8 863d 943e 763d c902 debd 5eaf acbb
00000030: 29b2 ddbd 6fd7 0dbe f0b9 1fbd 7204 cdbc
00000040: 6f8c c33d d6c3 f73d 1347 f33d 0837 a6bd
00000050: 56dc 213c 5b64 1bbc 210e 8abc b92f b03d
00000060: dd87 683d a743 0cbe 4190 ac3d aebf 403d
00000070: 5aa6 f8bd 463f 9c3d 17b9 96bd 6fc8 ad3d
00000080: abce d93d cd33 09bd 0f9f afbd 3134 97bc
00000090: 9929 983c d3e6 70bb d7d5 3e3c 135e ee3d
000000a0: 269a 843d fd30 1dbd 0d9c 933d 032d a33d
000000b0: b451 1a3c 1a8c 393d b62e 8ebd aa52 e33d
000000c0: 86e0 273d 6032 c3bd bffa b0bb e3d3 fcbd
000000d0: e0da 653d 775d e93c a69c d33c ead4 76bd
000000e0: 11e7 3dbd 7860 0e3c dc7b 753a 5d8b 9d3d
000000f0: d071 8e3d 5d8d d9bd 44ea 48bd 5cc3 183e
00000100: ad3b 5dbc 4335 42bc 0dce 4a3d 3a44 3e3d
00000110: 443a debd c2a7 7a3d b623 f43b ea8b ce3d
00000120: 6242 013e 7222 a53c 3233 efbc ac6f a33d
00000130: 2fb4 d23c 4527 86bd dce8 4abb 9583 473d
00000140: 682c a83d aea9 023e 2f76 d6bd 022d d93d
00000150: 6301 04bc 8093 e63a 33fe 20bd 3afa 26bc
00000160: 0b3b 413c f0d6 70bc ed7e 1f3d 2650 88bc
00000170: 0706 58bd 53c5 0fbd 69f8 1d3d 062e c3bd
00000180: 863f bf3d 5e81 af3d 193e 383d 6543 db3d
00000190: 0273 833d 8322 2ebc 536d cdbc 4156 7abc
000001a0: 0800 ac3c d992 8dbd ee47 b03d 3600 debd
000001b0: b1a1 8dbd 1e5f c5bd 4460 f6bd 7129 673d
000001c0: 8685 893c 554b 093b 5db8 99bd ceda 3bbd
000001d0: 9aa6 d7bd 8186 8abd 3e9c 763c 7d83 b3bd
000001e0: 3fa5 9b3d ef02 ca3b da2d 07be 2a90 11be
000001f0: 9b04 4c3d 485f e03d fd29 23bd 1141 193d
00000200: ae61 113e 9e62 c13a 0682 bf3d ebca b03d
00000210: 3343 0a3d 7613 ffbc 4a72 c5bd d138 0cbe
00000220: 3710 223d c467 073e eb02 473d 37d2 f53d
00000230: 342c f63d 80b2 0e3d cdd2 b2bd 9f61 3fbd
00000240: 7757 86bd 989a de3c 2149 c33c c6b7 1f3d
00000250: b00b 923c 19c3 a8bd 2b12 a83d 9e0a 0bbc
00000260: 827a 83bd 6b90 c83d 9094 8b3d 671b 703d
00000270: bbc6 533d 7b34 d8b9 514e c8bd e408 ebbb
00000280: 4786 7cbd 59a5 fd3d d4bc 063e c94e 483c
00000290: 4e6b d1bc 8f6f c83c 4fcc 473d 6836 583c
000002a0: e01e 7a3d a015 dfbb e25c 1b3a 8cd7 b6bc
000002b0: 55ba 94bd 8ab9 85bd e442 b73d c516 fdbc
000002c0: 1ce3 2cbe d977 02bc 9004 ba3c 6c6f bc3c
000002d0: 5458 183e 4046 fdbd 1c40 2c3d 434d 10bc
000002e0: 610b 04be 3c9a b8bd 509b 06bd 07dc acbb
000002f0: 1620 443c 6e7e fe3c 78e2 8abc fda8 44be
00000300: 4a60 c63d aee7 76bc 8679 613d f584 73bd
00000310: a04d 91bd 9124 c83d ed82 793c 7ed1 3bbd
00000320: f9ae c23d 0579 0bbe 2499 a3bc f6bc 8dbd
00000330: 906b c4bd fa63 5f3d cdce dabd 0f82 7ebd
00000340: 809c a63d dd82 7cbd 3fd0 97bb 2e43 a2bd
00000350: 9015 333b 4001 ba3d 0e05 a5bd d3ea 94bd
00000360: f9dd 233d f70a bc3d 80af 023e 7be1 303c
00000370: 19f7 d3bd 319b 8dbd 365b 83bd fb6d d93d
00000380: 8f06 80bc 4c63 033e 3281 6ebd 8e78 a43c
00000390: 6aa1 90bc c35c 2dbd 9727 49bd a85c c7bd
000003a0: 38c4 d5bd d735 e5bd 5a48 ad3d 8e8d c93d
000003b0: f1d1 53bd ff71 d73d c9ec fabd 7a8f c6bd
000003c0: 472c 92bd 6638 2b3d 8762 f5bd b363 5ebc
000003d0: 1fa3 51bd ee5e 2fbd 28cd 72bd 9fea 9d3b
000003e0: 903e 2b3d 8ff7 dfbd 02d3 1ebe b708 7fbc
000003f0: cff6 ea3d a7a5 ad3d f0d0 293d b0b8 eb3d
-0.060666878 -0.07669176 -0.003201286 0.00073909323 0.10215124 -0.01503505 -0.06597428 0.008539252
0.065904394 0.060118273 -0.10840375 -0.005269929 -0.10824997 -0.13851713 -0.038995683 -0.025026534
0.0954827 0.120978996 0.11878791 -0.08115965 0.009879192 -0.009484376 -0.01685244 0.086028524
0.056770194 -0.13697682 0.08425952 0.0470578 -0.12141104 0.07629256 -0.07359522 0.08485495
0.10635122 -0.033496667 -0.0857526 -0.018457504 0.018574523 -0.0036758676 0.011647663 0.11639037
0.06474714 -0.038376797 0.07207499 0.0796757 0.009418894 0.045299627 -0.06942503 0.11099751
0.040985607 -0.09531093 -0.005400985 -0.12345102 0.05611694 0.02848695 0.025831532 -0.060261644
-0.04636294 0.008689992 0.0009364465 0.07692597 0.06955302 -0.10622666 -0.049051538 0.14918274
-0.013502997 -0.011853519 0.04951291 0.046451785 -0.10850957 0.061195143 0.007450546 0.1008528
0.1262298 0.020158026 -0.029199217 0.07980284 0.025720684 -0.06550459 -0.003096155 0.04870947
0.08211595 0.1276004 -0.104717605 0.10604288 -0.008056971 0.0017591566 -0.039304923 -0.010191495
0.011793862 -0.014699683 0.038939405 -0.01663978 -0.052740123 -0.035100292 0.03856698 -0.09530263
0.09338288 0.08569597 0.044981096 0.10706214 0.064184204 -0.010628345 -0.025076544 -0.015279354
0.020996109 -0.069127746 0.086074695 -0.10839884 -0.06915606 -0.09637283 -0.1203008 0.056436006
0.016787302 0.0020949442 -0.07505868 -0.045862965 -0.105298236 -0.06763936 0.0150518995 -0.08765314
0.075998776 0.0061649005 -0.13201085 -0.1421515 0.04980908 0.109556735 -0.039834965 0.037415568
0.14197418 0.0014754122 0.09350972 0.086324535 0.033755492 -0.03113721 -0.096409395 -0.13693549
0.039566245 0.13223177 0.048586767 0.12002986 0.1202015 0.0348382 -0.08731613 -0.046723958
-0.06559651 0.027173325 0.023838582 0.03899362 0.017827839 -0.08240337 0.0820659 -0.008486418
-0.06419851 0.097931705 0.068154454 0.058619883 0.051703196 -0.00041237831 -0.09780563 -0.0071726907
-0.061651494 0.12385053 0.1315797 0.012225815 -0.025563862 0.024467258 0.04877883 0.013196565
0.0610646 -0.006807998 0.00059266214 -0.022319578 -0.072621025 -0.065295294 0.08948305 -0.030894646
-0.1688351 -0.007963144 0.022707254 0.023002349 0.14877445 -0.12366915 0.042053327 -0.008807483
-0.12894966 -0.09013793 -0.03286296 -0.0052752527 0.0119705405 0.031066146 -0.016953692 -0.19205089
0.096863344 -0.015069885 0.055047534 -0.05945297 -0.07094884 0.097725995 0.015228969 -0.045854084
0.0950603 -0.13620384 -0.019970484 -0.06920807 -0.095908284 0.054538704 -0.10683975 -0.062135752
0.08135319 -0.06164824 -0.004632979 -0.0792297 0.0027326085 0.0908227 -0.08057605 -0.07271352
0.04000661 0.09181779 0.1276226 0.010795946 -0.103498645 -0.06914366 -0.064138815 0.1061668
-0.015628127 0.12830848 -0.05822868 0.020077016 -0.017655093 -0.042324793 -0.04911002 -0.0973447
-0.104378164 -0.1119191 0.084610656 0.098414525 -0.051713888 0.1051979 -0.122521944 -0.09695335
-0.071373515 0.041801833 -0.11981683 -0.013573575 -0.051180955 -0.04281514 -0.059277683 0.004819229
0.04180771 -0.1093589 -0.1551018 -0.015566043 0.11472856 0.08478861 0.041459024 0.11509836

encoder.0.self_attn.out_proj.bias f4 [64]
00000000: d92e bcbd 1cb7 153e 78cc 823c 44f5 0a3c
00000010: df75 31bd fdcd b9bc 2a7c 94bd 88a7 c5bb
00000020: ffec 9abd f17a c33c 73d7 9bbc 2fdf f039
00000030: 5577 d1bd bac0 183e 1163 60bd 9335 633d
00000040: e112 c13d f86b 033d 6ec7 49b9 9cc6 853c
00000050: ed56 ac3b f3b4 8ebc c280 dcbd 5811 f3bd
00000060: 798f 573d 27f8 8b3d 8ea7 92bd 6dbe ad3d
00000070: 084d 373b 38e2 193e e5a6 4ebd 5029 ed3d
00000080: f5e6 a73d b2ce 8cbd f8e6 963c 41b0 143c
00000090: 1e60 2cbd 7e99 f3bd 1e7d 61bd 97ae 743d
000000a0: bd07 94bc 5701 e4bd 3aa8 553d 5728 4c3d
000000b0: 9d92 0abd 0259 8f3d 79d5 2fbd d3f2 cbbd
000000c0: ad9a 82bd 537c 75bd 448e d3bc 4a2e ccbd
000000d0: e430 c43d 4557 ac3d 4287 c4bd efc5 0f3d
000000e0: 8e9c c13d 94bc 393d 7259 0f3d 23e5 81bc
000000f0: 5c8a 47bd 272a 763c dd9f 873d aada 833c
-0.09188623 0.14620632 0.015966639 0.008481327 -0.0433253 -0.02268123 -0.07250245 -0.006031934
-0.07564735 0.023862334 -0.019023633 0.00045942652 -0.10227839 0.1491727 -0.054781977 0.055471014
0.09427429 0.03208539 -0.00019243147 0.016330056 0.005259386 -0.017420268 -0.10766746 -0.118685424
0.05262706 0.06834441 -0.07160865 0.084835865 0.0027969498 0.15027702 -0.05045213 0.11580145
0.081983484 -0.068753615 0.018420681 0.009075225 -0.042083852 -0.11894511 -0.05505096 0.059736814
-0.018070096 -0.11133068 0.052162386 0.04984316 -0.033831228 0.06999399 -0.042928193 -0.099584244
-0.06377158 -0.059933018 -0.025824673 -0.099697664 0.09579638 0.08415083 -0.09596111 0.035100874
0.094536886 0.045345858 0.03499741 -0.015856331 -0.048715934 0.015024698 0.066222884 0.016095478

encoder.0.norm1.weight f4 [64]
00000000: efec 7c3f 60ff 753f d6fa 7a3f a970 723f
00000010: 8163 793f 85b9 693f 8895 733f 2e51 6e3f
00000020: 80ed 6e3f 6f46 703f e1fd 6e3f ab0c 793f
00000030: fb0e 753f c0e7 763f adaa 793f bbc0 7a3f
00000040: f878 823f 55b1 7d3f 4914 7e3f 90e0 7c3f
00000050: c81a 753f 00e9 783f f935 763f b846 6f3f
00000060: 160c 723f be10 733f 8368 6e3f 0f8b 743f
00000070: c44a 723f 1973 743f c2c1 763f 427f 6f3f
00000080: ede2 7b3f 4b26 753f 0788 7a3f 8825 753f
00000090: e575 833f cc7b 773f 7774 803f 6f7c 793f
000000a0: 9b67 793f 3781 733f 4dc0 7e3f 22a2 6f3f
000000b0: 174f 683f d7dc 793f 5d29 7e3f e283 723f
000000c0: 3e15 783f 9e2e 7e3f ca12 743f 10b2 743f
000000d0: d6b9 7c3f 3a58 713f efe5 763f 78bd 693f
000000e0: 07ae 7a3f 6a6e 6f3f 695e 823f 56b9 703f
000000f0: 8b2d 803f 574e 7e3f d0f7 803f fd44 6e3f
0.9879903 0.96092796 0.98038995 0.94703156 0.97417456 0.91298705 0.9515004 0.9309262
0.93331146 0.93857473 0.9335614 0.97284955 0.95725983 0.9644737 0.97526056 0.97950333
1.0193167 0.9909871 0.992497 0.98780155 0.9574399 0.9723053 0.96176106 0.93467283
0.9454969 0.9494742 0.9312822 0.95524687 0.94645333 0.95488125 0.963894 0.93553555
0.98393136 0.95761555 0.9786381 0.95760393 1.0270354 0.96673274 1.0035542 0.97455496
0.97423714 0.9511904 0.9951218 0.9360677 0.9074568 0.976026 0.99281865 0.9473249
0.96907413 0.9928988 0.9534117 0.955842 0.98721063 0.9427525 0.964446 0.9130473
0.97921795 0.93527853 1.0185062 0.940328 1.0013899 0.9933829 1.0075626 0.9307402
