BDG2/results/Informer-BDG2.pt (torch, 644447 bytes, 59 tensors)

embedding.input_proj.weight f4 [64, 4]
0.6241732 0.21700323 -0.15352476 -0.30799586 0.18967102 0.039632723 -0.37575546 0.33212173
-0.040329657 0.5836259 0.38634437 -0.31342077 0.48143014 0.6054501 0.4220041 0.20942289
0.48209515 -0.12963441 -0.09571977 -0.20827156 0.4160919 0.28192756 0.083097525 -0.17933962
-0.31069398 -0.51344603 -0.6111746 0.48926437 -0.51699746 -0.7241201 -0.6349408 0.6033146
0.2568207 0.44456267 -0.17127672 -0.17299022 0.114321835 0.61372805 0.4873172 0.40054688
0.2049604 0.63776046 0.50032604 -0.23099901 0.21878222 0.55291355 0.44515035 -0.3558852
-0.29571882 -0.42495444 -0.0046045184 0.25830382 0.29657623 0.55016524 -0.2032344 0.2511056
-0.57431316 -0.067300275 -0.53520095 -0.15197846 0.4294294 0.24506253 0.16244042 0.03144896
-0.024534997 -0.34051493 0.28325063 0.0103465505 0.3718686 -0.24790044 0.4999732 -0.12721956
-0.07141184 0.5290284 -0.18078841 0.27473497 0.29543686 -0.0040915883 0.07036286 0.13568355
-0.22025396 -0.8460961 -0.41552028 -0.16235763 0.65346736 0.36864558 0.1874014 0.30821586
0.5167607 0.5931833 -0.047627237 -0.039793734 0.06119344 0.83762693 -0.23043093 -0.37460017
0.33091173 0.14183167 0.094833225 0.38167256 0.19967467 -0.63195044 -0.69631803 0.016767481
-0.4375489 -0.66723317 -0.40355945 -0.082703225 -0.14908366 -0.7157057 -0.10334413 0.16559765
0.10321372 0.9986899 0.37906173 0.0032035182 -0.016976414 0.29278818 -0.16526766 0.4789909
-0.47255144 -0.4492991 -0.2604804 0.028673293 -0.09230606 0.6754292 0.24958226 -0.52975476
0.09100952 0.30592594 -0.056145597 -0.17011712 0.40658754 -0.017294858 0.59251404 -0.31722456
-0.6723092 -0.37190136 -0.3406749 0.19426173 0.656447 0.39300698 -0.32393983 0.15909353
-0.63902664 -0.22813395 -0.13449882 0.13915747 -0.3144126 0.6737053 0.2383969 0.23450622
0.64542395 0.649324 -0.20185794 0.08187605 -0.43373513 -0.5778952 0.3232473 0.21736038
-0.24652655 -0.71414316 -0.17454748 0.1389418 -0.11349599 -0.07363352 0.11740944 0.15417303
0.45034721 0.425645 0.42943642 -0.4329521 0.22287259 -0.11400523 0.41969353 -0.46196795
-0.4545216 -0.5592265 -0.37972057 -0.07829151 -0.40130052 0.33733672 -0.08074832 -0.23880726
-0.64411926 -0.5149412 -0.13709368 0.067220576 -0.005134972 -0.24749269 -0.39903972 -0.45606664
-0.608552 -0.26959762 -0.10819593 -0.05771077 -0.0013979322 -0.34274545 -0.31199643 -0.33165306
0.56485844 0.8326037 0.196098 0.08967147 -0.43282017 -0.16185422 -0.5440588 -0.13179936
0.41785148 0.4594184 0.10373883 -0.6073735 -0.59957427 -0.17171821 -0.42152002 0.50183195
-0.122160755 -0.67144674 -0.40859815 -0.07806262 -0.21330474 -0.46667892 -0.44596064 -0.16693051
0.15968934 0.10228976 0.2265081 -0.22458038 0.30064055 -0.3291634 -0.17175737 -0.014944239
0.7979046 0.9134429 -0.012335007 -0.098643154 -0.09742171 -0.030754596 -0.40563074 0.08002249
-0.5647975 -0.661843 -0.060687147 0.3178952 -0.21177447 0.01187747 -0.55187047 0.45346346
-0.5716369 -0.73879075 -0.39561486 -0.18033911 0.4253492 0.248618 -0.44117314 0.10033563
00000000: d1c9 1f3f 1836 5e3e 9835 1dbe a2b1 9dbe
00000010: 1f39 423e ec55 223d 0563 c0be dc0b aa3e
00000020: b630 25bd 8268 153f eece c53e b078 a0be
00000030: 037e f63e c7fe 1a3f ec10 d83e f472 563e
00000040: 2dd5 f63e e2be 04be ba08 c4bd 2445 55be
00000050: ff09 d53e cf58 903e 092f aa3d cea4 37be
00000060: 4813 9fbe 3371 03bf f075 1cbf dc80 fa3e
00000070: f259 04bf ef5f 39bf 7b8b 22bf d372 1a3f
00000080: 017e 833e b89d e33e 2a63 2fbe 5924 31be
00000090: 9121 ea3d 481d 1d3f a481 f93e 7b14 cd3e
000000a0: 24e1 513e 4544 233f 5e15 003f 018b 6cbe
000000b0: 7208 603e be8b 0d3f bfea e33e 9636 b6be
000000c0: 7568 97be a193 d9be 80e1 96bb 6640 843e
000000d0: d7d8 973e a1d7 0c3f ae1c 50be ea90 803e
000000e0: 3006 13bf bad4 89bd ee02 09bf 3ea0 1bbe
000000f0: 2cde db3e acf1 7a3e c856 263e a0d0 003d
00000100: 9efd c8bc f957 aebe 3a06 913e 9484 293c
00000110: 9065 be3e 9dd9 7dbe 7dfc ff3e d845 02be
00000120: 5f40 92bd 686e 073f 9920 39be 10aa 8c3e
00000130: 8043 973e bb12 86bb 671a 903d a1f0 0a3e
00000140: 418a 61be c199 58bf 13bf d4be 1441 26be
00000150: a349 273f 1dbf bc3e 27e6 3f3e 78ce 9d3e
00000160: 6e4a 043f dcda 173f c714 43bd c1fe 22bd
00000170: f9a5 7a3d b86e 563f 16f6 6bbe 98cb bfbe
00000180: 436d a93e 523c 113e ec37 c23d 966a c33e
00000190: 8477 4c3e 81c7 21bf e641 32bf f55b 893c
000001a0: 6906 e0be cbcf 2abf 589f cebe 4f60 a9bd
000001b0: 63a9 18be 7d38 37bf 16a6 d3bd 6e92 293e
000001c0: b761 d33d 24aa 7f3f 6114 c23e 1ef2 513b
000001d0: 1f12 8bbc 55e8 953e ed3b 29be 4c3e f53e
000001e0: 43f2 f1be 880a e6be b05d 85be 41e4 ea3c
000001f0: f60a bdbd eee8 2c3f 7e92 7f3e 029e 07bf
00000200: 3363 ba3d 53a2 9c3e edf8 65bd 2f33 2ebe
00000210: 3e2c d03e f2ad 8dbc 00af 173f 426b a2be
00000220: 751c 2cbf db69 bebe f16c aebe 8cec 463e
00000230: e90c 283f 3638 c93e 71db a5be 6ae9 223e
00000240: 4097 23bf f29b 69be 0fba 09be 4c7f 0e3e
00000250: b0fa a0be f377 2c3f 511e 743e 6622 703e
00000260: 813a 253f 193a 263f d9b3 4ebe a1ae a73d
00000270: 8812 debe f1f0 13bf ac80 a53e b893 5e3e
00000280: 7571 7cbe 16d2 36bf 93bc 32be c246 0e3e
00000290: 9670 e8bd 2ccd 96bd 5c74 f03d 89df 1d3e
000002a0: e993 e63e 24ee d93e 17df db3e e6ab ddbe
000002b0: b638 643e 937b e9bd 12e2 d63e 1087 ecbe
000002c0: 0eb7 e8be 7829 0fbf bc6a c2be 4d57 a0bd
000002d0: 4377 cdbe 66b7 ac3e 605f a5bd e489 74be
000002e0: 00e5 24bf 30d3 03bf 4962 0cbe f1aa 893d
000002f0: 4443 a8bb b96e 7dbe ef4e ccbe 9181 e9be
00000300: 10ca 1bbf b308 8abe d495 ddbd 2162 6cbd
00000310: d23a b7ba 557c afbe ffbd 9fbe 6ece a9be
00000320: 909a 103f 8425 553f eacd 483e ada5 b73d
00000330: 9b9a ddbe 1dbd 25be 7047 0bbf 69f6 06be
00000340: a1f0 d53e e338 eb3e 0675 d43d d47c 1bbf
00000350: b37d 19bf e6d6 2fbe 79d1 d7be 0f78 003f
00000360: 6b2f fabd efe3 2bbf c733 d1be 4bdf 9fbd
00000370: 8f6c 5abe 8af0 eebe f454 e4be d5ef 2abe
00000380: 9a85 233e 4b7d d13d bdf1 673e 66f8 65be
00000390: 8fed 993e 1b88 a8be 2ae1 2fbe aed8 74bc
000003a0: 7a43 4c3f 65d7 693f c518 4abc 6c05 cabd
000003b0: 0985 c7bd 10f1 fbbc d5ae cfbe d5e2 a33d
000003c0: 9296 10bf 8b6e 29bf 1693 78bd 29c3 a23e
000003d0: 68db 58be b899 423c 6247 0dbf 5d2c e83e
000003e0: cc56 12bf 6421 3dbf 088e cabe d1aa 38be
000003f0: 5fc7 d93e b895 7e3e 72e1 e1be c47c cd3d

embedding.input_proj.bias f4 [64]
0.3396601 0.15789555 0.41348785 -0.091198 0.5018731 -0.26415086 -0.14941478 0.17518564
-0.3504015 -0.25620636 0.22021103 0.4571892 0.23875287 0.27117622 -0.34759387 -0.016033642
-0.26261044 -0.07812465 0.09748442 0.19986518 -0.1289996 -0.41707993 -0.3948938 0.33993638
-0.26835665 -0.16411635 0.13528013 -0.09362484 0.019855963 -0.4389179 0.33587143 0.2018638
-0.40477753 -0.016428394 -0.48701108 0.3240144 0.17877673 0.42406172 0.35852796 0.348772
-0.38921565 0.060700413 -0.36350194 -0.20718 0.3380119 -0.25153556 0.37267187 -0.26029685
0.3761749 0.3596315 -0.25842574 -0.10920997 0.40102422 0.33806428 0.2783844 0.23661998
0.03271188 -0.6183867 -0.1053614 -0.22952537 -0.38003743 0.35366186 -0.34057388 -0.42120156
00000000: eee7 ad3e 5faf 213e aeb4 d33e 04c6 babd
00000010: c17a 003f c83e 87be 3000 19be dd63 333e
00000020: d367 b3be 7b2d 83be 007f 613e b414 ea3e
00000030: a27b 743e 9cd7 8a3e d3f7 b1be fc58 83bc
00000040: e074 86be d1ff 9fbd e9a5 c73d 75a9 4c3e
00000050: 7918 04be 808b d5be 852f cabe 240c ae3e
00000060: 0b66 89be 1e0e 28be e086 0a3e 61be bfbd
00000070: f9a8 a23c d9b9 e0be 57f7 ab3e 62b5 4e3e
00000080: 003f cfbe d794 86bc 8459 f9be 37e5 a53e
00000090: 3f11 373e 9e1e d93e fa90 b73e 3e92 b23e
000000a0: 4647 c7be ffa0 783d ed1c babe fe26 54be
000000b0: e50f ad3e 45c9 80be d9ce be3e a145 85be
000000c0: ff99 c03e 9f21 b83e 6150 84be 7aa9 dfbd
000000d0: 0c53 cd3e c316 ad3e 6688 8e3e 824c 723e
000000e0: e4fc 053d 974e 1ebf b8c7 d7bd b308 6bbe
000000f0: 4494 c2be 2b13 b53e b35f aebe bba7 d7be

embedding.pos_encoder.pe f4 [1, 500, 64]
0.0 1.0 0.0 1.0 0.0 1.0 0.0 1.0
0.0 1.0 0.0 1.0 0.0 1.0 0.0 1.0
0.0 1.0 0.0 1.0 0.0 1.0 0.0 1.0
0.0 1.0 0.0 1.0 0.0 1.0 0.0 1.0
0.0 1.0 0.0 1.0 0.0 1.0 0.0 1.0
0.0 1.0 0.0 1.0 0.0 1.0 0.0 1.0
0.0 1.0 0.0 1.0 0.0 1.0 0.0 1.0
0.0 1.0 0.0 1.0 0.0 1.0 0.0 1.0
0.84147096 0.54030234 0.68156135 0.731761 0.53316844 0.8460091 0.4093089 0.9123959
0.3109836 0.9504153 0.23492105 0.9720145 0.17689219 0.9842302 0.13295726 0.99112177
0.099833414 0.9950042 0.07491915 0.9971896 0.05620449 0.9984193 0.04215715 0.999111
0.031617504 0.99950004 0.023711512 0.99971884 0.017781857 0.99984187 0.013334819 0.99991107
0.009999833 0.99995 0.0074988706 0.99997187 0.0056233825 0.9999842 0.0042169513 0.9999911
0.0031622713 0.999995 0.0023713715 0.9999972 0.0017782785 0.99999845 0.001333521 0.9999991
0.0009999998 0.9999995 0.000749894 0.9999997 0.0005623411 0.9999998 0.00042169637 0.99999994
0.00031622782 0.99999994 0.00023713727 1.0 0.00017782794 1.0 0.00013335208 1.0
0.9092974 -0.41614684 0.99748 0.070948265 0.9021307 0.43146282 0.7469035 0.6649324
0.5911271 0.8065784 0.45669332 0.8896242 0.34820527 0.93741834 0.26355368 0.96464473
0.19866931 0.9800666 0.1494172 0.98877424 0.1122313 0.9936821 0.08423935 0.99644554
0.063203394 0.9980007 0.04740969 0.9988755 0.03555809 0.9993676 0.026667267 0.99964434
0.019998666 0.9998 0.014997319 0.9998875 0.011246587 0.99993676 0.008433828 0.9999644
0.006324511 0.99998003 0.00474273 0.99998873 0.0035565514 0.9999937 0.0026670394 0.9999964
0.0019999985 0.99999803 0.0014997876 0.99999887 0.0011246821 0.99999934 0.0008433926 0.99999964
0.0006324556 0.9999998 0.0004742745 0.9999999 0.00035565588 0.99999994 0.00026670416 1.0
0.14112 -0.9899925 0.7782725 -0.6279267 0.9932532 -0.11596616 0.95363444 0.3009673
0.8126489 0.58275366 0.652904 0.7574407 0.5085361 0.86104065 0.3894703 0.92103904
0.2955202 0.9553365 0.22307542 0.9748012 0.16790329 0.9858035 0.12617177 0.9920084
0.094726086 0.99550337 0.071081206 0.9974705 0.053323083 0.9985773 0.039994974 0.99919987
0.0299955 0.99955004 0.022494925 0.999747 0.016869437 0.9998577 0.012650555 0.99991995
0.009486687 0.999955 0.0071140616 0.9999747 0.005334813 0.99998575 0.0040005534 0.999992
0.0029999954 0.9999955 0.0022496805 0.9999975 0.0016870227 0.99999857 0.0012650888 0.9999992
0.00094868336 0.9999996 0.00071141176 0.99999976 0.0005334838 0.9999999 0.00040005625 0.99999994
00000000: 0000 0000 0000 803f 0000 0000 0000 803f
00000010: 0000 0000 0000 803f 0000 0000 0000 803f
00000020: 0000 0000 0000 803f 0000 0000 0000 803f
00000030: 0000 0000 0000 803f 0000 0000 0000 803f
00000040: 0000 0000 0000 803f 0000 0000 0000 803f
00000050: 0000 0000 0000 803f 0000 0000 0000 803f
00000060: 0000 0000 0000 803f 0000 0000 0000 803f
00000070: 0000 0000 0000 803f 0000 0000 0000 803f
00000080: 0000 0000 0000 803f 0000 0000 0000 803f
00000090: 0000 0000 0000 803f 0000 0000 0000 803f
000000a0: 0000 0000 0000 803f 0000 0000 0000 803f
000000b0: 0000 0000 0000 803f 0000 0000 0000 803f
000000c0: 0000 0000 0000 803f 0000 0000 0000 803f
000000d0: 0000 0000 0000 803f 0000 0000 0000 803f
000000e0: 0000 0000 0000 803f 0000 0000 0000 803f
000000f0: 0000 0000 0000 803f 0000 0000 0000 803f
00000100: a46a 573f 4151 0a3f ce7a 2e3f b054 3b3f
00000110: ba7d 083f 0d94 583f f090 d13e c792 693f
00000120: 3e39 9f3e 6b4e 733f 258f 703e f1d5 783f
00000130: 3a23 353e 83f6 7b3f f325 083e 28ba 7d3f
00000140: 7675 cc3d 98b8 7e3f 366f 993d d147 7f3f
00000150: ae36 663d 6898 7f3f faac 2c3d bdc5 7f3f
00000160: 5b81 013d 3cdf 7f3f a53e c23c 93ed 7f3f
00000170: 42ab 913c a3f5 7f3f 497a 5a3c 2cfa 7f3f
00000180: 57d6 233c b9fc 7f3f 16b9 f53b 28fe 7f3f
00000190: 5a44 b83b f7fe 7f3f 5a2e 8a3b 6bff 7f3f
000001a0: 1c3e 4f3b acff 7f3f 0369 1b3b d1ff 7f3f
000001b0: 2015 e93a e6ff 7f3f 8ac9 ae3a f1ff 7f3f
000001c0: 6d12 833a f8ff 7f3f 8994 443a fbff 7f3f
000001d0: 136a 133a fdff 7f3f 2117 dd39 ffff 7f3f
000001e0: 61cb a539 ffff 7f3f 0da8 7839 0000 803f
000001f0: 5377 3a39 0000 803f 6dd4 0b39 0000 803f
00000200: b7c7 683f 3311 d5be d95a 7f3f 534d 913d
00000210: 0af2 663f b2e8 dc3e 1135 3f3f 0339 2a3f
00000220: 1b54 173f ec7b 4e3f b5d3 e93e 69be 633f
00000230: f647 b23e a6fa 6f3f 82f0 863e f5f2 763f
00000240: f86f 4b3e a5e5 7a3f d300 193e 4f20 7d3f
00000250: 86d9 e53d f361 7e3f ae85 ac3d 0e17 7f3f
00000260: c870 813d f97c 7f3f aa30 423d 4eb6 7f3f
00000270: 5ca5 113d 8ed6 7f3f 5075 da3c b1e8 7f3f
00000280: 3ed4 a33c e5f2 7f3f 51b7 753c a1f8 7f3f
00000290: 9b43 383c dbfb 7f3f 0a2e 0a3c abfd 7f3f
000002a0: d83d cf3b b1fe 7f3f e768 9b3b 43ff 7f3f
000002b0: 0815 693b 96ff 7f3f 7fc9 2e3b c4ff 7f3f
000002c0: 6812 033b dfff 7f3f 8594 c43a edff 7f3f
000002d0: 126a 933a f5ff 7f3f 1f17 5d3a faff 7f3f
000002e0: 60cb 253a fdff 7f3f 0ca8 f839 feff 7f3f
000002f0: 5377 ba39 ffff 7f3f 6dd4 8b39 0000 803f
00000300: c381 103e 2670 7dbf de3c 473f cebf 20bf
00000310: d745 7e3f ab7f edbd 6321 743f 6318 9a3e
00000320: c209 503f 582f 153f b724 273f a2e7 413f
00000330: 6c2f 023f 296d 5c3f a768 c73e 37c9 6b3f
00000340: 6c4e 973e ef90 743f e26d 643e 928c 793f
00000350: d7ee 2b3e 9e5d 7c3f 2c33 013e 43f4 7d3f
00000360: c0ff c13d 4fd9 7e3f 0693 913d 3a5a 7f3f
00000370: 4e69 5a3d c3a2 7f3f c5d1 233d 90cb 7f3f
00000380: 1fb9 f53c 83e2 7f3f 4747 b83c 6bef 7f3f
00000390: c631 8a3c adf6 7f3f 4644 4f3c c1fa 7f3f
000003a0: 0d6e 1b3c 0dfd 7f3f 131d e93b 58fe 7f3f
000003b0: a8cf ae3b 11ff 7f3f 1317 833b 7aff 7f3f
000003c0: 929b 443b b5ff 7f3f 606f 133b d6ff 7f3f
000003d0: 171f dd3a e8ff 7f3f 56d1 a53a f3ff 7f3f
000003e0: 10b1 783a f9ff 7f3f 097e 3a3a fcff 7f3f
000003f0: 7ed9 0b3a feff 7f3f a4be d139 ffff 7f3f

embedding.norm.weight f4 [64]
0.94099015 0.90657353 0.9747229 0.99016464 0.94239926 0.9744049 0.97202873 1.3650837
1.0075587 0.92883986 0.98462445 0.977091 0.9074961 0.9770761 0.9654201 0.9375603
0.9365974 0.95050025 0.9754323 0.9305425 1.0440663 0.9290777 1.0064708 0.9642967
0.9546915 1.014298 0.97293687 0.96244514 1.5407418 0.8885949 0.9898233 0.98352057
0.9477778 0.9722905 1.001288 1.0524411 0.97523737 0.96891874 0.999392 0.97449756
1.0110697 0.9282567 1.0567106 0.9439737 1.2119699 0.95998484 1.4568429 0.92021257
1.1027752 0.94191784 1.1823212 0.9601804 1.0980153 0.98732084 1.0489318 0.89071774
1.0004475 0.90836465 1.1074855 0.91235435 1.0155311 0.9433719 1.037128 0.9367421
00000000: bbe4 703f 3415 683f 7187 793f 6e7b 7d3f
00000010: 1441 713f 9972 793f e0d6 783f 10bb ae3f
00000020: aff7 803f 73c8 6d3f 5910 7c3f a322 7a3f
00000030: aa51 683f a921 7a3f c625 773f f403 703f
00000040: d9c4 6f3f fc53 733f eeb5 793f 0938 6e3f
00000050: f7a3 853f 09d8 6d3f 09d4 803f 26dc 763f
00000060: aa66 743f 84d4 813f 6412 793f ce62 763f
00000070: 0737 c53f f57a 633f 0f65 7d3f 01c8 7b3f
00000080: 91a1 723f 08e8 783f 352a 803f 64b6 863f
00000090: 28a9 793f 0f0b 783f 27d8 7f3f ac78 793f
000000a0: bb6a 813f 3ba2 6d3f 4b42 873f 43a8 713f
000000b0: d421 9b3f 91c1 753f d479 ba3f 0d93 6b3f
000000c0: bd27 8d3f 8721 713f 4d56 973f 62ce 753f
000000d0: c48b 8c3f 0fc1 7c3f 6643 863f 1406 643f
000000e0: aa0e 803f 968a 683f 16c2 8d3f 0e90 693f
000000f0: ecfc 813f d280 713f 9cc0 843f 55ce 6f3f

embedding.norm.bias f4 [64]
0.06274292 0.0949093 0.03948693 -0.038985044 0.06246399 -0.03536773 -0.046104886 0.050852932
-0.01490948 0.0858371 -0.034980986 0.04276012 0.09480778 0.044180382 0.055053968 0.06867103
0.06521855 0.05309931 0.03210904 -0.061409283 0.02542709 0.077779956 -0.0231462 -0.05505209
0.051468562 -0.029525083 0.0430086 0.049833607 0.0018358636 0.11550754 -0.03619948 0.024881031
-0.053666413 0.06129999 -0.033138823 -0.023646008 -0.04311595 -0.043374054 -0.038787235 -0.033571485
-0.0355985 -0.07086238 -0.06655502 -0.06154925 -0.049101178 -0.03943825 0.027710255 -0.07724989
0.04489152 -0.061682113 0.04847714 -0.04137585 0.030079914 -0.030489422 0.0484051 -0.113186106
0.007480898 -0.09221241 0.066112496 -0.08956813 0.051450085 -0.059627477 0.035401296 -0.06748138
00000000: 5c7f 803d cf5f c23d 0cbd 213d c8ae 1fbd
00000010: 3eda 7f3d c1dd 10bd 7ad8 3cbd 2a4b 503d
00000020: e446 74bc 5dcb af3d 3948 0fbd 3c25 2f3d
00000030: 952a c23d 7df6 343d 4580 613d 66a3 8c3d
00000040: 4e91 853d a97e 593d c584 033d 4d88 7bbd
00000050: 794c d03c 194b 9f3d 1a9d bdbc 4d7e 61bd
00000060: b3d0 523d 96de f1bc c929 303d 531e 4c3d
00000070: 5ca1 f03a 388f ec3d e845 14bd 4ed3 cb3c
00000080: 50d1 5bbd b315 7b3d 93bc 07bd 46b5 c1bc
00000090: 5a9a 30bd fea8 31bd 5ddf 1ebd 4182 09bd
000000a0: bccf 11bd 4c20 91bd 004e 88bd 111b 7cbd
000000b0: 511e 49bd 018a 21bd 9e00 e33c 3135 9ebd
000000c0: 2ce0 373d 62a6 7cbd f78f 463d b979 29bd
000000d0: 276a f63c f4c4 f9bc 6d44 463d 1ece e7bd
000000e0: 5222 f53b dcd9 bcbd fd65 873d 7f6f b7bd
000000f0: 53bd 523d f13b 74bd f300 113d ae33 8abd

encoder.0.self_attn.q_proj.weight f4 [64, 64]
0.13076477 0.091908425 0.007887538 -0.07597404 -0.014671855 -0.010581079 -0.09258231 0.008743291
0.068667926 0.011242417 -0.13000686 -0.068573214 -0.06461141 0.12783182 -0.078155264 0.10912136
0.08472554 -0.034539532 -0.098155595 -0.032910157 0.11011951 0.0993487 0.04635931 -0.066370934
-0.075984076 -0.021037465 -0.04365972 0.066132255 -0.028322536 0.009158784 -0.11835513 -0.043967687
0.0025853587 -0.12720314 0.0071270354 -0.00879566 0.0014751891 0.020956045 0.09710839 -0.0011465639
0.048463315 -0.027639367 -0.06420646 -0.12828028 0.008580076 0.09802372 0.0071567544 0.025813747
-0.027314682 0.09362459 -0.11466746 0.081471495 0.03040108 -0.054017976 0.057896573 0.07345321
0.12983042 0.02256256 0.011505953 -0.13350983 0.10183666 0.040828556 0.14569409 0.057255898
-0.044815194 0.12537278 -0.0566862 -0.15376064 0.04275314 -0.11935422 0.011438917 0.0071966914
0.0033145994 0.042500924 -0.09916743 0.04316256 0.06873103 -0.10450819 -0.07551603 0.11367118
0.055511296 -0.03306141 -0.08820838 -0.014116035 0.10341849 -0.046015386 -0.15140003 0.045544267
-0.021671072 -0.05416549 0.06724619 -0.040071618 0.015116553 0.0025633571 0.098990515 -0.076328546
-0.056812245 -0.009609808 -0.007914548 -0.07967169 -0.0708703 0.08922429 -0.123265795 -0.12089564
-0.09822876 0.023176586 -0.044925984 -0.0024154782 -0.1297146 0.009226067 -0.047307584 0.0015667826
0.052715138 0.06056147 -0.05468561 -0.05229559 -0.08463696 -0.13265996 0.11240402 -0.01298281
-0.08465649 0.08453534 0.034754097 0.0840446 -0.040619746 -0.086778305 0.028045762 -0.10725894
0.010146879 0.015065709 -0.11878659 0.07643325 -0.032051396 0.09037672 0.10002511 0.04181688
0.03169516 -0.04625408 -0.012799096 0.026906677 0.072189264 0.06450791 -0.006980558 -0.049001046
0.07172878 -0.11573525 -0.04245858 -0.039403792 -0.082600914 0.024969144 -0.0031023342 0.001977792
0.090084985 -0.018615425 -0.08057007 -0.028032733 -0.0792374 -0.028904207 0.06900674 -0.03416945
0.12416391 0.10219104 -0.09503517 -0.103298545 -0.034556407 0.044501316 -0.06145712 -0.09872861
-0.0833267 -0.020769512 -0.116381004 0.055209566 0.116620585 0.06912097 0.051199347 -0.011324901
0.08352191 -0.038620234 -0.053305294 -0.11768348 0.057453007 -0.015537431 -0.058561496 -0.03212234
0.0407236 0.09223138 -0.10445952 -0.0877376 -0.053658374 0.06468079 -0.04110099 -0.05648056
-0.0073971506 0.059331644 -0.09586969 -0.021159496 -0.051680688 0.044503283 0.11538669 0.0067038094
0.0112260645 0.104333736 -0.099410474 -0.08187161 0.109098926 -0.037932005 -0.016385993 0.050185487
-0.11727905 -0.110167295 -0.105390705 0.07696269 -0.0760124 -0.00083005626 -0.10115396 0.09973798
-0.035340425 0.036159113 -0.032456245 -0.09339599 -0.01543334 0.033429746 -0.08387117 -0.010075836
0.05498856 -0.043009777 0.088843666 0.06870878 0.04575731 0.09221854 -0.06278883 0.025962228
0.083706655 -0.062657766 0.09583053 -0.10467777 -0.009489294 -0.045791063 0.0037138786 -0.09698419
0.07130046 0.10697136 -0.047728658 -0.05827927 0.009729799 -0.018528916 0.07643837 0.12223998
-0.12776323 0.02519345 -0.10729458 -0.03740366 -0.02425671 0.02368121 0.09623442 -0.041083567
00000000: 33e7 053e 7c3a bc3d bb3a 013c 4798 9bbd
00000010: 3862 70bc 435c 2dbc cb9b bdbd 0540 0f3c
00000020: c5a1 8c3d 1d32 383c 8520 05be 1d70 8cbd
00000030: fd52 84bd 58e6 023e de0f a0bd 057b df3d
00000040: 9584 ad3d 5379 0dbd cd05 c9bd cdcc 06bd
00000050: 5686 e13d 5577 cb3d 43e3 3d3d 7ced 87bd
00000060: 8a9d 9bbd c356 acbc 89d4 32bd 5970 873d
00000070: aa04 e8bc b90e 163c 2d64 f2bd 7617 34bd
00000080: 1f6f 293b 8a41 02be e889 e93b ac1b 10bc
00000090: 225b c13a 03ac ab3c c3e0 c63d 4d48 96ba
000000a0: 7881 463d f46b e2bc ad7e 83bd e85b 03be
000000b0: 7293 0c3c a9c0 c83d 3583 ea3b 5a77 d33c
000000c0: 0ac3 dfbc 40be bf3d c6d6 eabd 87da a63d
000000d0: b00b f93c f441 5dbd f524 6d3d a36e 963d
000000e0: 44f2 043e 1ed5 b83c 7783 3c3c cdb6 08be
000000f0: bd8f d03d d83b 273d d530 153e 2985 6a3d
00000100: 2390 37bd b961 003e ca2f 68bd 6e73 1dbe
00000110: eb1d 2f3d fc6f f4bd 4c6a 3b3c 39d2 eb3b
00000120: c039 593b 7315 2e3d 4b18 cbbd 39cb 303d
00000130: dbc2 8c3d 6408 d6bd 26a8 9abd 70cc e83d
00000140: d05f 633d 676b 07bd 98a6 b4bd f146 67bc
00000150: 13cd d33d a17a 3cbd 9c08 1bbe a08c 3a3d
00000160: 8887 b1bc a2dc 5dbd 5fb8 893d 2322 24bd
00000170: 6bab 773c fffd 273b 8abb ca3d 2452 9cbd
00000180: f5b3 68bd 7572 1dbc 05ac 01bc e92a a3bd
00000190: 7324 91bd 39bb b63d c772 fcbd 2298 f7bd
000001a0: 292c c9bd d3dc bd3c 4f04 38bd 004d 1ebb
000001b0: e7d3 04be ee28 173c 99c5 41bd 805c cd3a
000001c0: d4eb 573d 4e0f 783d 05fe 5fbd e733 56bd
000001d0: 2456 adbd 03d8 07be 1434 e63d dab5 54bc
000001e0: 6260 adbd dd20 ad3d 505a 0e3d 931f ac3d
000001f0: e460 26bd d3b8 b1bd 3ac0 e53c 93aa dbbd
00000200: 183f 263c 2ad6 763c 6246 f3bd 0989 9c3d
00000210: 5348 03bd 6e17 b93d f7d9 cc3d 2d48 2b3d
00000220: c9d2 013d eb74 3dbd 4db3 51bc 646b dc3c
00000230: f7d7 933d b91c 843d 2abd e4bb 52b5 48bd
00000240: 8ae6 923d 9a06 edbd 0ce9 2dbd df65 21bd
00000250: ab2a a9bd 178c cc3c 8850 4bbb d89d 013b
00000260: 7a7e b83d 607f 98bc ec01 a5bd e7a4 e5bc
00000270: 3847 a2bd 84c8 ecbc 6853 8d3d 44f5 0bbd
00000280: a649 fe3d 8949 d13d cda1 c2bd 308e d3bd
00000290: 058b 0dbd 0347 363d 76ba 7bbd 3a32 cabd
000002a0: 30a7 aabd d324 aabc 2a59 eebd 6d23 623d
000002b0: c6d6 ee3d 4c8f 8d3d 68b6 513d 148c 39bc
000002c0: 890d ab3d 4030 1ebd a756 5abd 0904 f1bd
000002d0: d853 6b3d b690 7ebc 2ede 6fbd b792 03bd
000002e0: cacd 263d cee3 bc3d dfee d5bd c5af b3bd
000002f0: e2c8 5bbd 5d77 843d 8359 28bd 2958 67bd
00000300: cc63 f2bb bd05 733d 5457 c4bd ae56 adbc
00000310: 21af 53bd 1349 363d db4f ec3d a1ab db3b
00000320: 87ed 373c edac d53d b897 cbbd 4dac a7bd
00000330: 426f df3d 975e 1bbd eb3b 86bc 4c8f 4d3d
00000340: 0030 f0bd 649f e1bd 15d7 d7bd 9d9e 9d3d
00000350: 64ac 9bbd 2298 59ba cf29 cfbd 6d43 cc3d
00000360: 1fc1 10bd 941b 143d d7f0 04bd 6646 bfbd
00000370: 1fdc 7cbc a1ed 083d a6c4 abbd 1f15 25bc
00000380: af3b 613d 052b 30bd abf3 b53d 30b7 8c3d
00000390: 046c 3b3d 13dd bc3d 6e97 80bd bdae d43c
000003a0: 656e ab3d b752 80bd cc42 c43d 4c61 d6bd
000003b0: fc78 1bbc 698f 3bbd 8b64 733b a69f c6bd
000003c0: fa05 923d cd13 db3d 207f 43bd 3eb6 6ebd
000003d0: bc69 1f3c f4c9 97bc b88b 9c3d f458 fa3d
000003e0: 5dd4 02be 7e62 ce3c 43bd dbbd 9534 19bd
000003f0: 02b6 c6bc 19ff c13c 8d16 c53d 3e47 28bd

encoder.0.self_attn.q_proj.bias f4 [64]
0.024302581 -0.14441386 -0.097637124 0.030774644 -0.015552123 0.057941195 -0.09058454 0.058948174
-0.12259638 0.09083024 -0.023722244 -0.0013696266 -0.108974814 -0.035382763 -0.08927003 -0.071522355
0.09721182 -0.11474582 -0.10424715 -0.09641439 -0.040984992 0.09755279 -0.073273316 0.046865962
-0.07844272 0.06955733 0.03289144 -0.113470264 0.08776555 -0.011804526 -0.112577856 0.049289744
-0.040889833 0.04179048 0.030428505 -0.10173917 -0.047387514 0.037793204 -0.09945967 -0.03660144
-0.06037837 -0.10335696 0.120720014 0.11929265 0.015437827 0.028809626 0.111770004 0.063102625
0.0888681 0.011159888 -0.074268274 0.11060619 -0.08969576 -0.12079472 0.04736137 -0.031201925
-0.01019889 0.015374867 0.10566238 -0.121874906 0.024425935 0.051268514 -0.013033287 0.0039089164
00000000: 3516 c73c 3ae1 13be f9f5 c7bd 1b1b fc3c
00000010: 55ce 7ebc bf53 6d3d 6384 b9bd a473 713d
00000020: d013 fbbd 3405 ba3d 2755 c2bc 0b85 b3ba
00000030: 302e dfbd 84ed 10bd 35d3 b6bd 507a 92bd
00000040: fe16 c73d dbff eabd 887f d5bd e874 c5bd
00000050: e1df 27bd c2c9 c73d 5210 96bd 86f6 3f3d
00000060: 94a6 a0bd 1374 8e3d 2db9 063d 1963 e8bd
00000070: 6dbe b33d c567 41bc 388f e6bd 0be4 493d
00000080: 197c 27bd 7f2c 2b3d 3345 f93c a05c d0bd
00000090: 6919 42bd 0ccd 1a3d 83b1 cbbd 64eb 15bd
000000a0: 4f4f 77bd d0ac d3bd 0e3c f73d b44f f43d
000000b0: f1ee 7c3c 2a02 ec3c ace7 e43d f33b 813d
000000c0: 7a00 b63d f6d7 363c f719 98bd 8085 e23d
000000d0: 69b2 b7bd 3963 f7bd fffd 413d 2e9b ffbc
000000e0: 3f19 27bc dee6 7b3c 8565 d83d 8d99 f9bd
000000f0: e618 c83c effe 513d 9189 55bc 5e16 803b

encoder.0.self_attn.k_proj.weight f4 [64, 64]
0.024538636 -0.09649888 0.07698732 0.11009449 -0.10500123 -0.071642414 0.16377503 -0.008949052
-0.014417055 -0.017507415 -0.10783859 -0.05142459 0.07850775 -0.10300497 -0.124798365 -0.07785322
-0.03753237 0.11160253 0.0007221874 -0.12622324 0.066204384 -0.06708406 0.058950927 -0.044256277
-0.068431094 -0.032317553 0.01129461 -0.04950148 -0.018740404 0.08272689 0.06444827 -0.026052061
0.088630795 -0.13337071 -0.0094695175 -0.08174748 -0.026657777 0.07586783 0.120049104 -0.104769185
0.14199866 0.1291072 0.012209615 -0.05274749 0.08854113 -0.0017942094 0.085888304 -0.0850895
0.021659624 -0.07486396 -0.05603773 0.042983785 0.060607508 0.04591952 0.074153945 -0.0851988
0.10767904 0.051260035 -0.0023052609 -0.10504039 0.043636534 0.14476722 0.104797006 -0.022164028
0.041743524 -0.01935264 -0.124913484 0.03632815 0.016930806 0.123908356 0.033696376 -0.010462321
0.054021064 0.14972296 -0.0318371 -0.04432148 0.08401034 0.025697762 0.057336032 0.15639602
0.07799161 -0.06383118 0.011478187 0.029911194 0.07261805 -0.07416431 -0.12555532 0.029295806
0.0946383 0.003647405 -0.060208566 -0.11279379 0.113582 -0.0014862892 0.013503358 -0.1401839
0.12832496 0.081914164 0.08513975 -0.044216268 -0.0163205 0.033980776 0.08134685 0.0023679284
0.051416 -0.06624936 -0.08102821 -0.057352167 0.10438356 0.14380279 0.108363084 -0.13973695
-0.07996172 -0.08851238 0.11930262 0.05800848 0.07145553 0.096451595 -0.027387649 0.030938173
-0.10864491 -0.07641561 -0.05915801 0.11227323 0.08572003 0.018433267 0.07304296 0.08798204
-0.00017089095 -0.0063304114 0.056946997 -0.11117899 -0.03223708 -0.04985864 -0.044240676 -0.020831225
-0.09398786 -0.06814568 -0.11423968 0.110524386 -0.10779855 0.0023020916 -0.008247305 -0.07969582
-0.07937334 0.066324875 -0.0047675427 0.042078476 0.034614794 -0.05127968 0.03757245 0.004889665
-0.080604665 -0.061141983 -0.07853597 0.1274439 0.080356434 -0.058269855 0.055003233 0.042255428
0.05324594 -0.039331056 0.07394426 0.09223561 -0.10077567 0.11929302 -0.1113684 0.00091874535
0.021579003 -0.104146235 0.0886723 -0.10711564 -0.0917493 -0.074445866 -0.048224658 -0.08272567
0.021321978 0.103200495 0.101415716 0.07437639 0.061605595 0.065425396 0.017823957 -0.096998714
0.092863426 0.04659256 0.017671905 0.022168875 0.05748423 -0.071383364 -0.108057044 -0.01084617
-0.11325428 0.020531975 0.022575734 -0.016597463 0.07023526 -0.036912154 0.07058523 0.10982983
0.11759593 -0.026103418 -0.09112039 -0.07561746 -0.030970871 0.08648008 -0.042334896 -0.083812796
0.07431053 -0.08875088 -0.012103535 0.036882814 -0.074789725 -0.009496448 0.061077558 -0.077449165
-0.0070364503 0.069093294 0.05385781 -0.08174427 0.12056848 0.11744408 -0.008207679 0.030323409
0.035629164 -0.09913602 -0.12081223 0.040184736 -0.0012662564 0.015418991 -0.08868844 0.06435216
-0.0351462 0.07447474 -0.08677318 0.0144290505 -0.011646824 -0.07204034 -0.074991636 0.085778
0.01560587 -0.108955786 -0.03551908 -0.06373595 0.03047643 0.02891107 -0.021273725 -0.041025653
0.06748221 -0.09881081 0.081509985 -0.010168618 -0.08596276 -0.017170688 -0.07369868 0.029717658
00000000: 4005 c93c 34a1 c5bd 87ab 9d3d 3879 e13d
00000010: e30a d7bd 42b9 92bd a4b4 273e 0b9f 12bc
00000020: 8335 6cbc b66b 8fbc 7bda dcbd 97a2 52bd
00000030: acc8 a03d 45f4 d2bd 4996 ffbd 8271 9fbd
00000040: 8bbb 19bd de8f e43d 2d51 3d3a aa40 01be
00000050: 2a96 873d 5e63 89bd 8776 713d 1246 35bd
00000060: 9a25 8cbd 695f 04bd 070d 393c 10c2 4abd
00000070: 7a85 99bc b76c a93d 74fd 833d 226b d5bc
00000080: 1084 b53d 5592 08be 0926 1bbc 396b a7bd
00000090: 6961 dabc 9860 9b3d 4edc f53d 3a91 d6bd
000000a0: 1968 113e ae34 043e d60a 483c c10d 58bd
000000b0: 0d55 b53d ad2b ebba 35e6 af3d 6743 aebd
000000c0: 866f b13c 4752 99bd d287 65bd c40f 303d
000000d0: 943f 783d 1b16 3c3d 06de 973d b57c aebd
000000e0: d486 dc3d 0bf6 513d dc13 17bb 6a1f d7bd
000000f0: 39bc 323d dc3d 143e d09f d63d 5691 b5bc
00000100: 42fb 2a3d 6d89 9ebc a4d2 ffbd d4cc 143d
00000110: 79b2 8a3c aac3 fd3d 3605 0a3d 286a 2bbc
00000120: 3145 5d3d fa50 193e 9e67 02bd 718a 35bd
00000130: 9d0d ac3d 1d84 d23c 30d9 6a3d 4726 203e
00000140: 11ba 9f3d ecb9 82bd 010f 3c3c 5208 f53c
00000150: c6b8 943d 75e3 97bd 9391 00be c2fd ef3c
00000160: bad1 c13d 4d09 6f3b 429d 76bd 6e00 e7bd
00000170: ae9d e83d 97cf c2ba 303d 5d3c 5e8c 0fbe
00000180: 9e67 033e 9dc2 a73d c05d ae3d 1e1c 35bd
00000190: 92b2 85bc 6d2f 0b3d 2d99 a63d 3f2f 1b3b
000001a0: 9599 523d bfad 87bd 1ef2 a5bd 1bea 6abd
000001b0: 0cc7 d53d 0a41 133e 77ed dd3d 3417 0fbe
000001c0: f8c2 a3bd fb45 b5bd ef54 f43d 4d9a 6d3d
000001d0: 4757 923d 6a88 c53d 105c e0bc 0d72 fd3c
000001e0: 3981 debd ca7f 9cbd ab4f 72bd 82ef e53d
000001f0: fc8d af3d 5d01 973c 8c97 953d ee2f b43d
00000200: 3131 33b9 576f cfbb 4141 693d cfb1 e3bd
00000210: 070b 04bd 9338 4cbd b635 35bd 3fa6 aabc
00000220: b57c c0bd f68f 8bbd 7ef6 e9bd 9c5a e23d
00000230: 7cc5 dcbd b0de 163b b41f 07bc 9037 a3bd
00000240: 7d8e a2bd 56d5 873d 0c39 9cbb 7b5a 2c3d
00000250: 3ec8 0d3d a40a 52bd 92e5 193d 7c39 a03b
00000260: 0f14 a5bd 0470 7abd 77d7 a0bd a780 023e
00000270: ea91 a43d 5fac 6ebd 124b 613d 0714 2d3d
00000280: 6a18 5a3d 9a19 21bd 1770 973d 06e6 bc3d
00000290: 7963 cebd e64f f43d 1e15 e4bd f5d7 703a
000002a0: 73c6 b03c 9f4a d5bd d399 b53d 725f dbbd
000002b0: 0fe7 bbbd 1377 98bd 3887 45bd 136c a9bd
000002c0: 6eab ae3c c85a d33d 0bb3 cf3d a652 983d
000002d0: 2656 7c3d c0fd 853d 8c03 923c 43a7 c6bd
000002e0: 2e2f be3d d7d7 3e3d acc4 903c 809b b53c
000002f0: 9574 6b3d 7131 92bd 034d ddbd 22b4 31bc
00000300: dcf1 e7bd ac32 a83c bff0 b83c 67f7 87bc
00000310: 81d7 8f3d 3331 17bd fd8e 903d 76ee e03d
00000320: 23d6 f03d d6d6 d5bc 549d babd 54dd 9abd
00000330: a0b6 fdbc 781c b13d 5b67 2dbd 0ba6 abbd
00000340: 1f30 983d 05c3 b5bd e84d 46bc 6f12 173d
00000350: 5b2b 99bd fd96 1bbc 762c 7a3d ab9d 9ebd
00000360: 0692 e6bb c980 8d3d 029a 5c3d 8a69 a7bd
00000370: 9bec f63d 8686 f03d 8079 06bc cc68 f83c
00000380: e3ef 113d d307 cbbd 676c f7bd c098 243d
00000390: 84f8 a5ba f09f 7c3c 49a2 b5bd 11cb 833d
000003a0: 76f5 0fbd 3686 983d 23b6 b1bd d367 6c3c
000003b0: 52d2 3ebc e389 93bd 3795 99bd 60ac af3d
000003c0: c3af 7f3c 3624 dfbd 747c 11bd fe87 82bd
000003d0: b5a9 f93c e9d6 ec3c 3c46 aebc 840a 28bd
000003e0: 1d34 8a3d 525d cabd b5ee a63d 469a 26bc
000003f0: 3e0d b0bd 8ba9 8cbc 55ef 96bd 7272 f33c

encoder.0.self_attn.k_proj.bias f4 [64]
-0.059473626 0.08972727 -0.01943678 0.015007331 0.09904857 0.10155235 -0.007441662 0.108876
-0.12148502 0.11683182 0.07449453 -0.10937389 -0.03129452 0.051699948 0.028051758 0.020969082
-0.08532719 0.11301257 0.10925592 0.06774139 -0.11531089 0.093926124 0.03030851 0.07090651
0.10127066 0.10332822 0.058028758 0.12359818 -0.10969784 0.04429716 0.08409069 0.038055073
0.07723011 -0.073381454 0.037878122 0.043228094 0.082494885 0.11013744 0.008757614 -0.04232326
0.03381542 0.11873607 0.08431709 -0.036718354 -0.037234068 0.06594754 0.09809434 -0.114479154
0.06042704 -0.08388656 -0.11910482 -0.118676566 -0.07024511 0.029070836 -0.12032313 -0.02451341
-0.046667714 0.00632342 -0.047177475 -0.043781877 0.064153835 0.03802047 -0.09265739 -0.021560201
00000000: 9e9a 73bd eec2 b73d e239 9fbc 4fe1 753c
00000010: fad9 ca3d aefa cf3d 2fd9 f3bb 61fa de3d
00000020: 23cd f8bd 8545 ef3d 9790 983d 6bff dfbd
00000030: af2e 00bd 53c3 533d cdcc e53c 5ac7 ab3c
00000040: 06c0 aebd 2273 e73d 91c1 df3d ffbb 8a3d
00000050: 1e28 ecbd 575c c03d 8d49 f83c 6f37 913d
00000060: fe66 cf3d bf9d d33d 90af 6d3d 0b21 fd3d
00000070: 43a9 e0bd f070 353d bd37 ac3d a3df 1b3d
00000080: d22a 9e3d 0449 96bd 1726 1b3d f10f 313d
00000090: 14f3 a83d bd8f e13d 187c 0f3c 285b 2dbd
000000a0: 0a82 0a3d e62b f33d 70ae ac3d fc65 16bd
000000b0: c082 18bd 810f 873d afe5 c83d 0c74 eabd
000000c0: 5882 773d b7cc abbd 3aed f3bd b30c f3bd
000000d0: abdc 8fbd f625 ee3c f96b f6bd 59d0 c8bc
000000e0: a526 3fbd b134 cf3b 2b3d 41bd a054 33bd
000000f0: 1663 833d 5abb 1b3d 28c3 bdbd 059f b0bc

encoder.0.self_attn.v_proj.weight f4 [64, 64]
0.07797492 -0.103078134 -0.034990612 0.12866971 -0.011629947 -0.04617684 -0.028458145 0.06329244
-0.08844486 0.0741375 -0.033373438 0.11230115 -0.08860462 0.044085745 -0.019385872 -0.022969132
0.031150527 0.078047626 0.010911639 -0.11989431 -0.14807372 0.08130136 -0.10510599 0.0032286046
-0.06076894 -0.12890175 -0.1126929 -0.13261719 -0.013498287 0.05916968 -0.0918987 0.07666747
0.047591098 0.025528986 -0.06752964 -0.07063186 -0.06536206 -0.04022995 0.093001544 0.030755837
-0.10512209 0.08735521 -0.013511729 -0.09551859 -0.12732455 -0.03584254 0.060819518 0.12094433
0.0918635 0.08663948 0.12415128 -0.08763076 -0.056525405 0.003065144 0.10491115 0.015544416
0.021368206 -0.026858732 0.036498457 -0.068994716 0.09157564 0.08291123 0.005186744 -0.04902267
-0.09189084 -0.08498992 0.043186788 0.10999492 0.048198894 -0.08049887 -0.051881526 -0.046959084
0.08353418 -0.10201354 -0.0764585 0.031846482 0.043028392 0.07784997 0.020541921 0.018541412
-0.10675695 0.07784324 -0.082530856 -0.055101674 0.073846325 0.023130963 -0.07759773 -0.1467835
-0.052477874 -0.031817213 -0.02065577 -0.03385198 0.13243 0.04707258 0.0792321 -0.107071064
-0.010276429 0.013548739 -0.03219078 -0.098484926 0.005587085 0.13492844 0.04772891 0.03156538
0.052510586 -0.096086316 0.010085117 0.035374876 -0.10259485 0.030555904 -0.113398 -0.04201688
-0.011445964 0.08556931 0.008457442 0.13172932 0.098800756 -0.06533886 -0.09843233 0.09035522
0.06525214 -0.068762645 -0.016466545 0.11102294 -0.049785547 0.031729423 0.016063137 -0.09068303
0.108206466 -0.0038985212 -0.12380695 -0.1317517 -0.028449958 -0.032644533 0.064178534 -0.10653051
0.027377766 0.055907384 0.08919593 -0.016637579 0.11715047 -0.0874243 -0.06549203 0.100765966
0.013921172 -0.10540582 0.050431687 -0.12667146 0.0029616354 -0.07504151 0.08658726 0.078051664
-0.05758409 -0.1352799 0.083103195 0.07133064 -0.09463148 -0.020067822 -0.08913459 -0.057208113
-0.0046648756 0.084580295 -0.100180075 -0.029170068 0.0044303685 -0.0515666 -0.099309936 0.046375956
0.04667186 0.0054255095 0.067194104 -0.047976907 0.07353447 -0.046993207 0.005307879 -0.11194007
-0.11139159 0.07530688 0.059471305 0.028586585 0.049517762 0.09950828 0.026883505 0.052888636
-0.0869049 0.04307627 -0.07554355 0.023782436 0.10170491 0.018216152 -0.031745628 0.09347897
-0.06533619 0.10420874 0.035594754 0.13109414 -0.10994919 0.009905808 0.085412346 0.036096837
0.009600151 -0.072733834 -0.10470958 -0.06439333 0.04720254 -0.023807127 0.08229684 -0.044999823
0.07985273 -0.029588623 -0.011852094 0.034478035 0.04522228 0.092654124 0.0065119066 -0.047672436
-0.004755413 0.061982676 0.014280919 -0.04694267 0.019495837 0.04350221 -0.038845807 -0.003089347
-0.12187514 -0.021273077 -0.0048839473 0.0135978125 -0.06838971 -0.029096413 0.10497901 -0.0076730005
-0.050222307 -0.026946587 0.13482207 0.0072690914 -0.04551431 -0.046848394 -0.00064482796 0.11677236
-0.067928284 0.083599664 0.12451981 0.061610278 0.07229277 -0.028451491 -0.07505428 -0.12914486
-0.030131215 -0.053901784 -0.083619565 0.08381586 0.026643703 -0.0058232644 0.0721988 -0.06539126
00000000: 51b1 9f3d a11a d3bd 5152 0fbd fec1 033e
00000010: 898b 3ebc ed23 3dbd 0e21 e9bc 779f 813d
00000020: 9422 b5bd 67d5 973d 96b2 08bd 25fe e53d
00000030: 5776 b5bd 4193 343d 1fcf 9ebc c329 bcbc
00000040: 642f ff3c 6fd7 9f3d bbc6 323c 268b f5bd
00000050: a3a0 17be 5481 a63d cf41 d7bd ff96 533b
00000060: dae8 78bd d2fe 03be 89cb e6bd cdcc 07be
00000070: eb27 5dbc e85b 723d 6335 bcbd d603 9d3d
00000080: e2ee 423d 2a22 d13c fb4c 8abd 70a7 90bd
00000090: 8bdc 85bd 29c8 24bd 9877 be3d aaf3 fb3c
000000a0: 404a d7bd 4ae7 b23d 4d60 5dbc 409f c3bd
000000b0: 5e61 02be a1cf 12bd e31d 793d a9b1 f73d
000000c0: ee22 bc3d 0a70 b13d 0743 fe3d c277 b3bd
000000d0: 2f87 67bd 95e0 483b a8db d63d 02ae 7e3c
000000e0: 600c af3c d806 dcbc 687f 153d 1a4d 8dbd
000000f0: 028c bb3d 5dcd a93d 90f5 a93b ffcb 48bd
00000100: 4431 bcbd 320f aebd a1e4 303d 0445 e13d
00000110: 346c 453d 97dc a4bd b981 54bd 2b58 40bd
00000120: f813 ab3d 7aec d0bd 4696 9cbd 7571 023d
00000130: 8a3e 303d ce6f 9f3d 8847 a83c 29e4 973c
00000140: 63a3 dabd 476c 9f3d f005 a9bd 4bb2 61bd
00000150: be3c 973d 257d bd3c 8feb 9ebd 6a4e 16be
00000160: 0af3 56bd c452 02bd 4a36 a9bc 60a8 0abd
00000170: bb9b 073e 2dcf 403d 7044 a23d 1348 dbbd
00000180: 785e 28bc 88fb 5d3c 7bda 03bd 77b2 c9bd
00000190: de13 b73b ae2a 0a3e 647f 433d b34a 013d
000001a0: 5715 573d e7c8 c4bd 0c3c 253c 3fe5 103d
000001b0: 401d d2bd 6050 fa3c 363d e8bd e419 2cbd
000001c0: da87 3bbc f63e af3d 1591 0a3c 0de4 063e
000001d0: 0d58 ca3d 61d0 85bd e496 c9bd 280c b93d
000001e0: eaa2 853d 6ed3 8cbd d9e4 86bc ff5f e33d
000001f0: eeeb 4bbd b6f6 013d d796 833c 06b8 b9bd
00000200: 5a9b dd3d 557e 7fbb 808e fdbd ebe9 06be
00000210: e30f e9bc 46b6 05bd 0970 833d ab2c dabd
00000220: 5647 e03c 24ff 643d 5bac b63d 884b 88bc
00000230: 96ec ef3d 830b b3bd af20 86bd 635e ce3d
00000240: a115 643c 02df d7bd 7591 4e3d 2ab6 01be
00000250: ff17 423b 5daf 99bd a954 b13d 8dd9 9f3d
00000260: 4bdd 6bbd d086 0abe 0232 aa3d cc15 923d
00000270: 26ce c1bd 4665 a4bc 328c b6bd 0e53 6abd
00000280: d0db 98bb 6f38 ad3d 362b cdbd 11f6 eebc
00000290: a02c 913b 8037 53bd 0263 cbbd b7f4 3d3d
000002a0: fe2a 3f3d 79c8 b13b 109d 893d 6f83 44bd
000002b0: 3d99 963d f37b 40bd b7ed ad3b d640 e5bd
000002c0: 4621 e4bd 7e3a 9a3d 2f98 733d 6a2e ea3c
000002d0: 23d3 4a3d ffca cb3d cc3a dc3c c1a1 583d
000002e0: 32fb b1bd be70 303d 94b6 9abd 62d3 c23c
000002f0: aa4a d03d 0a3a 953c b407 02bd e771 bf3d
00000300: fbce 85bd 646b d53d cecb 113d 8b3d 063e
00000310: 0a2d e1bd f84b 223c abec ae3d 47da 133d
00000320: f449 1d3c 7af5 94bd fa71 d6bd a6e0 83bd
00000330: 7357 413d 2a07 c3bc 3f8b a83d bc51 38bd
00000340: d489 a33d d763 f2bc 492f 42bc d738 0d3d
00000350: ff3a 393d 72c1 bd3d d561 d53b 2c44 43bd
00000360: 4cd3 9bbb 8ce1 7d3d 84fa 693c f546 40bd
00000370: bcb5 9f3c 602f 323d c81c 1fbd a476 4abb
00000380: ac99 f9bd e044 aebc 8509 a0bb 5cc9 5e3c
00000390: e70f 8cbd 9a5b eebc 3cff d63d cb6d fbbb
000003a0: e8b5 4dbd 17bf dcbc cc0e 0a3e 8f31 ee3b
000003b0: 376d 3abd 1ae4 3fbd ac09 29ba 5926 ef3d
000003c0: fc1d 8bbd 4d36 ab3d 3e04 ff3d 0f5b 7c3d
000003d0: 3b0e 943d 1a13 e9bc 0fb6 99bd 8d3e 04be
000003e0: bdd5 f6bc 1ec8 5cbd bc40 abbd a6a7 ab3d
000003f0: e543 da3c 15d1 bebb f7dc 933d daeb 85bd

encoder.0.self_attn.v_proj.bias f4 [64]
0.10670092 0.12330808 0.027011251 -0.10451257 -0.043816593 -0.07894794 -0.119917445 0.066351265
-0.028732745 0.00404862 -0.10370814 -0.10638251 0.014957468 -0.11103809 -0.13628517 -0.025478557
-0.022999858 -0.0110759735 0.008901384 -0.021227224 -0.07650666 -0.11009018 0.08856304 0.089730866
-0.117593795 0.014929716 0.09805108 -0.1265321 0.015255564 -0.019637669 0.03493228 -0.077370554
-0.06311641 -0.05448985 -0.12663981 -0.12155453 0.067488514 -0.058127657 -0.10437285 -0.09858367
-0.05138747 0.04669591 0.037426785 0.07946058 0.060704596 0.012809553 0.08908072 0.020005705
-0.07952494 -0.074497156 0.03255098 0.0115948 0.06330693 0.038718708 -0.031966437 0.014258158
0.009652338 -0.004686866 0.02137519 0.11860001 0.080720566 0.10657082 -0.05906737 -0.05804175
00000000: 0386 da3d f288 fc3d b346 dd3c b00a d6bd
00000010: 0779 33bd 75af a1bd 4797 f5bd 2ce3 873d
00000020: ef60 ebbc 49aa 843b ef64 d4bd 13df d9bd
00000030: 2b10 753c f067 e3bd 578e 0bbe 68b8 d0bc
00000040: 336a bcbc 0078 35bc 1cd7 113c b7e4 adbc
00000050: 86af 9cbd f676 e1bd 8a60 b53d d1c4 b73d
00000060: 04d5 f0bd c49b 743c 01cf c83d a191 01be
00000070: 79f2 793c 2ddf a0bc 2715 0f3d 7474 9ebd
00000080: 2d43 81bd c030 5fbd dead 01be 95f1 f8bd
00000090: 6b37 8a3d 4417 6ebd 6fc1 d5bd 3ce6 c9bd
000000a0: ab7b 52bd 3644 3f3d d44c 193d 3bbc a23d
000000b0: 62a5 783d 29df 513c f46f b63d 01e3 a33c
000000c0: f9dd a2bd f791 98bd 2d54 053d 1ef8 3d3c
000000d0: 10a7 813d 8297 1e3d 3def 02bd 0d9b 693c
000000e0: d724 1e3c 4894 99bb 061b af3c 90e4 f23d
000000f0: d350 a53d cd41 da3d a0f0 71bd 30bd 6dbd

encoder.0.self_attn.out_proj.weight f4 [64, 64]
0.13393731 -0.019753654 -0.11786137 -0.055186585 -0.049688272 -0.041223872 0.05343167 -0.11641761
0.010615565 -0.06523392 0.087087 0.06572235 0.116792746 0.12523581 -0.093875095 -0.04709076
0.023957927 -0.07014715 0.105433196 0.0023137042 -0.026473805 -0.06654821 -0.11919802 0.041566323
0.030881187 0.012898579 0.054011203 -0.061594196 0.04763023 0.004908088 0.0024685855 0.10895778
-0.12839527 -0.03404965 -0.05415275 0.09289935 0.00063653063 0.08047516 -0.10289124 -0.044360816
0.01272576 0.040113688 -0.068349235 -0.13812988 0.029584642 -0.09107561 0.010067003 0.09225967
-0.061556686 -0.07670674 -0.08363043 -0.049175363 0.09657079 -0.067492545 0.123930715 0.08297647
0.03447333 0.02270994 0.1278 0.070148736 -0.060322233 0.09792688 -0.07578925 -0.053008378
-0.017958717 0.12134578 -0.014481039 -0.12131667 -0.07888007 0.05899994 -0.110197365 -0.015997859
0.077839896 0.0677458 -0.0145009495 -0.08103108 0.005582957 0.026129872 -0.03095775 0.071788736
-0.041839648 -0.104127884 -0.022161862 -0.13637815 0.016238157 -0.105578296 -0.041528277 0.022192553
0.081096575 -0.047125988 0.11429595 0.10061777 0.014746572 -0.020932728 -0.11625289 0.050771985
-0.016473617 -0.08357191 -0.08380051 -0.11016637 -0.037820496 0.042899802 -0.07122521 -0.03975288
0.07918887 0.044870872 -0.03565503 -0.10677044 0.043864354 0.12059002 0.016658805 0.13219231
-0.09202561 0.077793166 -0.031353027 0.12311026 -0.12640287 -0.06576629 0.06839678 -0.04108994
-0.11880604 0.09604351 -0.041743178 -0.059949394 0.04403839 0.08358151 0.09391858 0.06788982
-0.046002693 0.0040518534 -0.015919894 -0.006523245 -0.027919473 0.080581054 0.091850795 -0.057978004
0.06849444 -0.02835918 -0.01700417 0.03979123 -0.109246045 -0.043948013 0.010795217 0.04563064
-0.022606948 0.09111527 -0.11519214 -0.08636242 0.007958938 -0.0625519 -0.11231382 0.014029962
0.12089882 0.08305439 0.067689314 -0.0793459 0.11251996 0.07115733 -0.06736477 0.09197908
0.07683254 -0.013176893 -0.10836637 0.05310562 0.08847698 -0.00010926598 -0.03755401 0.060018275
-0.086608104 0.07764703 -0.13532567 0.014091038 0.121665925 0.08007374 -0.0323858 -0.012681418
-0.029077062 0.028883532 -0.07228809 0.04198352 0.124999076 -0.07570365 -0.05575765 0.07306699
-0.03410018 0.03706331 0.09676257 -0.02540794 0.08903686 0.10411798 0.065176204 0.05105986
0.06721547 0.059918996 -0.047257338 0.034908544 -0.049273256 -0.053568006 0.01600892 0.009607211
0.05690409 0.11011039 -0.10523434 0.116770744 -0.12724951 -0.05391133 -0.11849833 0.10966055
-0.062583804 -0.024420414 0.08539023 -0.06796179 0.11111877 -0.079678334 0.116336666 -0.11991527
-0.038652178 0.037518542 -0.07099512 -0.030116107 0.0020537495 0.0117276395 -0.055277392 -0.11679531
-0.11805998 -0.09493485 0.081464164 0.035743028 -0.09965666 0.0099652205 -0.06443635 -0.106284074
0.06477068 -0.10930525 0.057441093 -0.09329673 0.066399366 -0.05711189 0.095690615 -0.1272438
-0.072780214 0.032433316 0.052063502 0.09188714 -0.06606107 -0.034400813 -0.054164615 -0.032042596
-0.10357701 0.0048323153 0.09129268 -0.08469798 -0.057288904 -0.029899573 -0.11150385 0.112528905
00000000: dd26 093e 6ad2 a1bc 4d61 f1bd 540b 62bd
00000010: ee85 4bbd 5dda 28bd 2bdb 5a3d 5b6c eebd
00000020: e8ec 2d3c 5d99 85bd ab5a b23d 7099 863d
00000030: 0931 ef3d d13d 003e 9641 c0bd 3ee2 40bd
00000040: 6a43 c43c 4fa9 8fbd 5ced d73d 84a1 173b
00000050: 98df d8bc 6e4a 88bd 171e f4bd 7341 2a3d
00000060: 8bfa fc3c 9054 533c da3a 5d3d 324a 7cbd
00000070: eb17 433d 07d4 a03b fec7 213b 4225 df3d
00000080: 0d7a 03be a577 0bbd 46cf 5dbd 0442 be3d
00000090: d9dc 263a 29d0 a43d a4b8 d2bd b0b3 35bd
000000a0: b57f 503c 404e 243d affa 8bbd eb71 0dbe
000000b0: 7e5b f23c d985 babd 12f0 243c a3f2 bc3d
000000c0: dd22 7cbd 6c18 9dbd 6e46 abbd 1b6c 49bd
000000d0: e8c6 c53d 8839 8abd 63cf fd3d 91ef a93d
000000e0: e833 0d3d 320a ba3c 01de 023e 24aa 8f3d
000000f0: 7214 77bd e38d c83d 6537 9bbd 501f 59bd
00000100: 291e 93bc 2384 f83d e141 6dbc e074 f8bd
00000110: e08b a1bd eca9 713d 28af e1bd f10d 83bc
00000120: 866a 9f3d 4fbe 8a3d 6495 6dbc 9ff3 a5bd
00000130: 3df1 b63b 500e d63c 1b9b fdbc f905 933d
00000140: 0d60 2bbd 0041 d5bd cb8c b5bc b7a6 0bbe
00000150: e205 853c 6f39 d8bd 8e19 2abd 28cd b53c
00000160: f615 a63d 2e07 41bd ff13 ea3d b010 ce3d
00000170: 9b9b 713c 1d7b abbc ff15 eebd 49f6 4f3d
00000180: aef3 86bc c027 abbd 9a9f abbd e89e e1bd
00000190: aae9 1abd b4b7 2f3d 86de 91bd ead3 22bd
000001a0: c62d a23d 85ca 373d 020b 12bd 76aa dabd
000001b0: 1cab 333d e7f7 f63d 0c78 883c 6c5d 073e
000001c0: ec77 bcbd 0652 9f3d 086c 00bd 3b21 fc3d
000001d0: c16f 01be 7ab0 86bd 9c13 8c3d ed4d 28bd
000001e0: 9550 f3bd 76b2 c43d e5fa 2abd 7f8d 75bd
000001f0: 9961 343d c82c ab3d 6258 c03d d109 8b3d
00000200: 526d 3cbd 69c5 843b 706a 82bc f2c0 d5bb
00000210: 61b7 e4bc ae07 a53d 451c bc3d 587a 6dbd
00000220: d046 8c3d 8351 e8bc 544c 8bbc 21fc 223d
00000230: 64bc dfbd d502 34bd 6cde 303c 32e7 3a3d
00000240: 3532 b9bc a59a ba3d dbe9 ebbd c8de b0bd
00000250: 3566 023c 361b 80bd ca04 e6bd eddd 653c
00000260: cd99 f73d 6c18 aa3d b2a0 8a3d 1a80 a2bd
00000270: dd70 e63d efba 913d 8af6 89bd 875f bc3d
00000280: 615a 9d3d e5e3 57bc 30ef ddbd 4785 593d
00000290: 6b33 b53d ba25 e5b8 3cd2 19bd b9d5 753d
000002a0: 975f b1bd 6805 9f3d d092 0abe 19de 663c
000002b0: fc2b f93d b3fd a33d f9a6 04bd b9c5 4fbc
000002c0: 0533 eebc 289d ec3c c70b 94bd e9f6 2b3d
000002d0: 84ff ff3d 840a 9bbd 2262 64bd 25a4 953d
000002e0: a1ac 0bbd b3cf 173d 742b c63d 5024 d0bc
000002f0: f558 b63d cf3b d53d 1a7b 853d 2524 513d
00000300: 44a8 893d 9f6d 753d e990 41bd 43fc 0e3d
00000310: c1d2 49bd 206a 5bbd 2325 833c 9067 1d3c
00000320: 4314 693d 8e81 e13d 1a85 d7bd 8025 ef3d
00000330: b24d 02be 20d2 5cbd 41af f2bd b695 e03d
00000340: f02b 80bd 520d c8bc 13e1 ae3d 8d2f 8bbd
00000350: 3d92 e33d 652e a3bd eb41 ee3d 2396 f5bd
00000360: bf51 1ebd 0bad 193d e465 91bd 0eb6 f6bc
00000370: 3398 063b 4925 403c 8c6a 62bd 6132 efbd
00000380: 6ec9 f1bd 346d c2bd afd6 a63d 4867 123d
00000390: ca18 ccbd 2a45 233c 34f7 83bd 77ab d9bd
000003a0: 7ea6 843d 6edb dfbd 5a47 6b3d 5b12 bfbd
000003b0: 64fc 873d 28ee 69bd 71f9 c33d 334c 02be
000003c0: cb0d 95bd ccd8 043d 8a40 553d 532f bc3d
000003d0: 074b 87bd dee7 0cbd b7db 5dbd 193f 03bd
000003e0: 2f20 d4bd 6658 9e3b a8f7 ba3d 2276 adbd
000003f0: c5a7 6abd f3ef f4bc 215c e4bd 8e75 e63d

encoder.0.self_attn.out_proj.bias f4 [64]
-0.060976107 0.12958598 0.058491793 -0.09659979 0.12778078 0.03785614 0.05193521 -0.07257083
0.074611366 0.1257011 -0.0875456 0.052950792 0.004643542 0.05624476 -0.05482668 0.0816395
0.040007677 0.019648815 0.03207484 0.07438228 0.0033952503 0.089222685 0.005939398 -0.07388261
0.09229981 0.008553792 -0.013994658 -0.021711973 0.026656074 0.13100825 -0.12089828 0.006128384
-0.13095869 0.045149673 0.06362868 0.07221201 -0.050337024 -0.09805852 0.09986026 0.08926679
-0.0749299 -0.108701706 -0.080023944 -0.08692949 -0.027666891 0.09209373 -0.045100704 0.022177108
0.05714573 -0.018386338 -0.05892326 0.0027658201 -0.0288357 -0.04846246 0.11012215 -0.001558844
-0.0048205117 -0.04498975 -0.02638426 0.008672258 -0.102756634 -0.058481686 0.06794505 -0.098400645
00000000: 15c2 79bd 30b2 043e 1795 6f3d 1cd6 c5bd
00000010: f7d8 023e 0a0f 1b3d 04ba 543d 04a0 94bd
00000020: d8cd 983d cab7 003e 1c4b b3bd eee2 583d
00000030: db28 983b e860 663d f191 60bd 9c32 a73d
00000040: 17df 233d 8df6 a03c e860 033d bd55 983d
00000050: d982 5e3b 62ba b63d 489f c23b c44f 97bd
00000060: af07 bd3d 3425 0c3c da49 65bc 4fdd b1bc
00000070: d75d da3c 0727 063e 8499 f7bd 9cd0 c83b
00000080: 091a 06be ddee 383d c14f 823d e4e3 933d
00000090: 322e 4ebd e8d2 c8bd 8983 cc3d 82d1 b63d
000000a0: d974 99bd 009f debd 98e3 a3bd 1708 b2bd
000000b0: ada5 e2bc a39b bc3d 84bb 38bd c4ac b53c
000000c0: a411 6a3d f29e 96bc 8459 71bd c342 353b
000000d0: d938 ecbc 9380 46bd b987 e13d 2052 ccba
000000e0: 62f5 9dbb 2c47 38bd ce23 d8bc 1616 0e3c
000000f0: 1272 d2bd 7e8a 6fbd c626 8b3d 4786 c9bd

encoder.0.norm1.weight f4 [64]
0.99343604 0.9810718 0.9861684 1.0050633 0.9653273 0.99113226 1.0093 1.0225677
0.97483784 0.975189 0.984641 0.97381455 1.0028067 0.9728406 0.97755945 0.96749
0.97150546 0.9633003 0.9820187 0.9982873 1.0036519 0.98367023 0.9962581 0.9977885
0.9770772 0.9674102 1.1178912 0.97641724 0.9838915 0.98735255 0.9970859 0.9801184
0.99724215 0.9984494 1.0508684 0.99287033 0.9896734 0.9859451 1.0097581 0.9900616
0.9734646 0.9956357 0.949489 0.97783214 1.0106864 0.9710919 0.97909063 0.9686852
1.00418 0.9874868 0.98504555 0.97223055 1.0022714 0.97506523 0.9830338 0.98816395
0.99056125 0.9721741 1.037812 0.96862656 0.9910465 0.9893547 0.99062485 0.9783609
00000000: d351 7e3f 8627 7b3f 8875 7c3f eaa5 803f
00000010: b11f 773f d8ba 7d3f be30 813f 80e3 823f
00000020: f98e 793f fca5 793f 6f11 7c3f e94b 793f
00000030: f85b 803f 150c 793f 5641 7a3f 6dad 773f
00000040: 95b4 783f d99a 763f 9465 7b3f c28f 7f3f
00000050: aa77 803f d0d1 7b3f c50a 7f3f 116f 7f3f
00000060: bb21 7a3f 32a8 773f 0f17 8f3f 7bf6 793f
00000070: 50e0 7b3f 23c3 7c3f 0641 7f3f 0ae9 7a3f
00000080: 434b 7f3f 619a 7f3f db82 863f c02c 7e3f
00000090: 3c5b 7d3f e666 7c3f c13f 813f ad74 7d3f
000000a0: fa34 793f fbe1 7e3f b611 733f 3553 7a3f
000000b0: 2c5e 813f 7b99 783f afa5 7a3f c1fb 773f
000000c0: f888 803f efcb 7c3f f22b 7c3f 1ae4 783f
000000d0: 6e4a 803f e09d 793f 1aa8 7b3f 50f8 7c3f
000000e0: 6c95 7d3f 67e0 783f 06d7 843f e9f7 773f
000000f0: 39b5 7d3f 5a46 7d3f 9799 7d3f dc75 7a3f
