BDG2/results/PatchTST-BDG2.pt (torch, 651122 bytes, 44 tensors)

pos_emb f4 [1, 7, 64]
000000 18 2c 0e 3c 0f 90 4f 3c d5 c5 03 3d fe 71 10 bc
       0.008677505 0.012668624 0.03217109 -0.00881624
000010 ad 4b af 3c 11 50 ca bc 99 17 f6 3c 7a 87 37 3c
       0.02139839 -0.024696382 0.03004055 0.011201734
000020 48 bb 92 3c 65 fa 00 3c 09 50 41 3c b4 b4 87 bc
       0.017911568 0.007872199 0.011798867 -0.016565658
000030 e0 6d 26 3d 53 86 23 bb 16 64 e0 3c 78 3d 97 ba
       0.04063213 -0.002495189 0.027391475 -0.0011538705
000040 d7 a9 0a 3c d4 05 53 bc e4 91 bd 3c fd 79 d2 bb
       0.008463345 -0.0128798075 0.023140855 -0.0064232335
000050 aa 19 1d 3c f8 44 06 3c 38 db d3 3b a0 c8 9c bc
       0.009588638 0.008195154 0.006465342 -0.019138634
000060 3e ec d7 bb bf b8 2f 3d ed 31 64 bc 4f b1 c8 3c
       -0.0065894416 0.042900797 -0.013927919 0.02449861
000070 cc 40 1d bc b8 c9 77 3d 15 2f 64 bc 4b 22 38 bd
       -0.009597968 0.06049511 -0.013927241 -0.04495458
000080 4f d7 85 3c d9 6a ca 3c 1b 77 33 3b 30 73 09 3d
       0.016338019 0.024709152 0.0027384225 0.033557117
000090 0d 5a 44 3c dc 74 be bc 65 ef 26 bc 61 0a 15 3d
       0.01198436 -0.023249082 -0.010188912 0.03638685
0000a0 42 55 df 3b 7d 6b 24 3c 7b d4 ad 3c 8f 99 f2 3c
       0.0068155834 0.010035393 0.021219483 0.029614238
0000b0 24 db 36 bd 89 2a 3f bb 70 ab ea 3c 72 2e d5 3b
       -0.044642583 -0.002916964 0.0286462 0.006505781
0000c0 79 1a a7 bc a2 2e 91 bc 11 6a 8c bb 69 35 2a 3b
       -0.020398365 -0.017722432 -0.004285105 0.0025971776
0000d0 ab 15 c3 3c 8c 24 83 b9 65 ca bc 3a 92 73 6c bd
       0.023814043 -0.00025013497 0.001440358 -0.057727404
0000e0 a8 b4 3f 3d dc ec c8 bb 80 a3 36 bc 39 a7 48 3d
       0.046803147 -0.0061317515 -0.01114738 0.0489876
0000f0 ca 51 bc b9 6d 6c 33 3d ac d9 13 bd 24 ba 1b 3d
       -0.00035919092 0.043804575 -0.03609626 0.038019314
000100 ea 9e dd bc be 0e 9d 3c d7 1d 73 3c 8f 71 67 bc
       -0.027053315 0.019172069 0.014838657 -0.014126196
000110 39 de 4e bc 4d 08 9a 3b b0 94 8d 3c d0 9f a0 3c
       -0.012626224 0.0047006966 0.017282814 0.019607455
000120 24 64 d2 bc 39 36 0e 3c ad f8 b8 bb 81 17 a2 bc
       -0.025682516 0.00867992 -0.005644879 -0.019786598
000130 56 6f 2b 3d 41 ac 0e 3d 4d 85 5a 3d 2f 24 f0 3c
       0.041854225 0.034832243 0.05334978 0.029314129
000140 49 15 e0 3b 64 de 97 bc 56 83 39 3c f8 f0 1b 3d
       0.006838475 -0.018538661 0.011322817 0.038071603
000150 c7 19 66 3b c3 6d 64 3d 8a b6 e4 3c 75 15 a9 3c
       0.003511058 0.05576874 0.027919073 0.020640114
000160 06 20 0d bd 48 23 49 bd 52 08 1e bd d7 4e b3 3c
       -0.034454368 -0.049105912 -0.038582154 0.02188818
000170 c3 22 4d 3c f7 bf 5c bc 76 3e b9 bc 1a f8 8f bb
       0.012520495 -0.013473502 -0.022612792 -0.0043935897
000180 14 71 02 3c a8 ee 83 3b fb 57 60 bc 73 94 41 bb
       0.00796153 0.004026253 -0.013692851 -0.0029537946
000190 38 3b a6 3c 35 6f 29 3c a3 65 60 bc 38 76 33 3d
       0.02029191 0.010341455 -0.013696107 0.043813914
0001a0 51 3f 28 3d cc 00 03 bc fe 02 54 3c cf 90 0b 3d
       0.04107601 -0.007995795 0.0129401665 0.034073647
0001b0 75 4e 5e bc 9a e4 9c 3c e9 84 11 3c 55 fd 3d 3b
       -0.01356851 0.019151974 0.008881786 0.002899011
0001c0 b8 0f 26 bd 67 b8 0a 3d 43 f7 db 3a 91 a3 34 bc
       -0.040542334 0.033867266 0.0016782064 -0.011025325
0001d0 1b 59 ef bc 8d 6d 3b 3c 3b 80 73 bb a2 5f 9a 3b
       -0.029217293 0.011439693 -0.0037155289 0.0047111074
0001e0 a0 b4 0d bd f3 b8 fb 3b 9b 6d ce bb ea 3d 8b 3c
       -0.034596086 0.00768196 -0.006299687 0.016997296
0001f0 56 20 13 3c b1 9c 74 ba 89 33 c6 bc a1 44 14 bd
       0.008979877 -0.000933121 -0.024194496 -0.036198262
000200 92 f9 e8 3c 4a 5c fe bc 40 20 53 bc ec b6 db 3b
       0.028439317 -0.031049866 -0.012886107 0.0067051556
000210 2c 87 0c 3b 38 81 cc bb da 84 2f bd fe 95 8c bc
       0.0021442873 -0.00624099 -0.042851306 -0.017161366
000220 95 13 95 3c cb 26 23 bb 97 f9 cf bc 48 4e 4e bb
       0.018197814 -0.0024894949 -0.025387568 -0.0031479765
000230 85 66 c3 3c 2a be 06 3d ed 61 ac 3c 7b 1f d0 3c
       0.023852596 0.0328962 0.021042788 0.025405636
000240 bc f4 89 3b 66 24 b8 bb d0 1a ca bc 74 8b 09 bc
       0.004210083 -0.0056195734 -0.024670988 -0.008395065
000250 7a 7c 72 bb cc a8 ef bc 85 59 d8 bc d9 55 c7 3c
       -0.0037000463 -0.029255293 -0.026409874 0.024332928
000260 13 b1 0b 3d 6b 44 99 bc 9d 49 14 bd bf e9 a6 3a
       0.034104418 -0.018709382 -0.036203016 0.0012734457
000270 70 8a 59 3d da 04 29 bc ac bd 75 bc c1 87 ae 3c
       0.05311054 -0.010316098 -0.014998835 0.021304967
000280 b0 93 b5 3c 2f da e2 bc d5 1a 24 3a 23 68 7e 3c
       0.02216515 -0.027691929 0.0006260102 0.015527758
000290 e2 d2 e5 3c e6 d9 b2 bc 06 46 bd bb f1 1f 19 3c
       0.028054658 -0.021832418 -0.0057761697 0.009345994
0002a0 f3 8b bd bc cc 38 1c 3d 1f f5 7e 3a 67 59 a0 3c
       -0.023138022 0.038140103 0.0009725857 0.01957388
0002b0 dc 90 f3 bc a7 91 b3 3d 17 ee 25 bc 34 73 57 bc
       -0.02973216 0.08768015 -0.010127566 -0.013150025
0002c0 bd b8 18 3b 7b 40 69 3c 70 06 19 3c f4 a1 00 bd
       0.0023303472 0.014236565 0.009339914 -0.03140445
0002d0 8c 63 d7 3c f3 6a 7f 3c 17 60 9f ba ef de be bc
       0.026292585 0.0155894635 -0.0012159374 -0.023299662
0002e0 be 2d 79 3a 97 ed 83 3c 94 97 a6 3c ef 6b e2 39
       0.00095054123 0.016104503 0.02033595 0.00043186496
0002f0 98 b1 b4 bc 95 99 a7 bc 81 d1 b7 3c 1f ad 54 3c
       -0.02205734 -0.020458976 0.022438766 0.012980728
000300 11 86 f4 bb 6f 30 18 3d 46 39 07 3c f8 1d ef bc
       -0.007462271 0.037155565 0.008253401 -0.029189095
000310 8f 65 28 3a a5 50 8c bc 54 26 5d 3d fa 0c 28 bd
       0.0006423825 -0.017128298 0.05399163 -0.041028
000320 68 23 db 3b 49 53 c9 bb a7 f4 84 bb 0c 89 13 bd
       0.0066875704 -0.0061439616 -0.004057485 -0.03601937
000330 27 55 ae 3b 53 c8 a4 bc 26 eb 8b bb ad a9 f3 3b
       0.0053202095 -0.020115053 -0.0042699752 0.0074359984
000340 92 a3 94 3c d8 10 55 bc d2 be 0f 39 76 15 38 3d
       0.018144403 -0.013004504 0.00013708629 0.04494234
000350 98 27 28 bd 40 15 b2 bc b2 7a ff 3c 3d 88 6e bc
       -0.041053385 -0.021738648 0.031186435 -0.014558849
000360 5a f4 1b bd a0 df 80 3c 13 a6 97 bd e9 e4 c1 bb
       -0.03807483 0.015731633 -0.07404723 -0.005917181
000370 da 30 6b bc 84 e7 83 3c 67 ba 69 3c 5d 6f bf bb
       -0.014354909 0.016101606 0.014265633 -0.005842133
000380 67 e8 24 3d 96 23 dc bc 98 18 6d bc bd 28 75 bb
       0.0402607 -0.026872437 -0.014471196 -0.0037408315
000390 e9 20 ac bc e7 84 26 bc d1 68 04 bd ec b7 6a bb
       -0.021011787 -0.010163522 -0.032326523 -0.0035815192
0003a0 ba 08 fc bc 6f 3f 7b bc ed 74 36 3c 45 e1 fc bc
       -0.03076588 -0.015334948 0.011136276 -0.030869136
0003b0 d7 51 3c 3c ea fd 75 ba 8f ad 1a 3c d5 fd 94 3c
       0.0114941215 -0.00093838444 0.009440794 0.018187443
0003c0 ac b6 31 bb 11 64 38 bb 70 33 a6 bb 65 3d cb bc
       -0.0027116938 -0.0028135816 -0.00507205 -0.024809549
0003d0 3a 22 57 bc f1 97 8e bb 8f 99 e7 bc f1 b1 80 bc
       -0.013130719 -0.004351609 -0.028271465 -0.01570985
0003e0 36 e3 89 bb 2a 5e 28 3c 54 76 69 bc c7 85 d1 3c
       -0.004207994 0.010276357 -0.014249403 0.025576485
0003f0 ff 2d 90 bb 4b ca 0b 3c d5 e2 32 bd d2 a9 cb bb
       -0.0044000144 0.008532117 -0.043673355 -0.0062153125

embedding.pos_emb f4 [1, 7, 64]
000000 1d c7 aa 3e 4e 08 78 bf 65 9d 4c 40 4d 04 d2 3e
       0.33355036 -0.9688767 3.1971066 0.41018906
000010 48 1e 6e 3f fa 34 13 3e dd 19 0b 3f 15 68 fe bd
       0.93014956 0.14375678 0.5433634 -0.12422196
000020 51 cd a0 be 0c 23 b8 be 96 e3 a9 bf b0 fc b1 3d
       -0.31406644 -0.3596424 -1.3272579 0.086907744
000030 46 a8 6d 3f 04 e3 dd 3f b6 fe fb 3e e1 22 8f bf
       0.9283489 1.7334905 0.49217767 -1.1182519
000040 1b 28 5a bf 86 40 1a 3f b8 94 b8 bd 6c 4a 99 3e
       -0.85217446 0.60254705 -0.09012741 0.29939592
000050 e1 0f 3b be ec a2 b0 3c f8 28 8d bf 9b 37 20 3f
       -0.18267776 0.021562062 -1.1028128 0.6258485
000060 32 fd c0 bf a0 69 7a bf 03 b4 10 3f 14 8d e1 bf
       -1.5077269 -0.9781742 0.56524676 -1.7621179
000070 24 69 db be 19 fc 68 3f 71 de 4b 3f 97 ba 1a 3f
       -0.42853653 0.9100967 0.79636294 0.60440964
000080 cc 1f c9 be 24 e8 ab 3f 1c 8f 16 3f 68 27 42 bf
       -0.39282072 1.3430219 0.5881212 -0.7584138
000090 62 7e fc 3f 24 80 76 3f c2 f3 2a bf db 40 0b 3e
       1.9726069 0.9628928 -0.66778195 0.13598959
0000a0 6d 98 cc be 73 01 ae 3f 54 1b 56 3f de 73 8c bf
       -0.39960042 1.3594192 0.8363545 -1.097286
0000b0 f9 8b 2e 3f cc 88 47 3e 52 48 97 bf 2a cf bd bf
       0.6818233 0.19485778 -1.1818945 -1.4828846
0000c0 a8 de c9 bf 9a f3 2e bf 9a 81 a4 3d 7f 66 df 3f
       -1.5771074 -0.68340456 0.08032532 1.7453154
0000d0 43 b0 68 3e 01 9c 8d be e8 1c b6 3f 9f d3 6c be
       0.22723489 -0.27658084 1.4227571 -0.23127602
0000e0 39 7f b3 3e 03 31 ed 3e 6c aa 22 3f 4c 3a 15 40
       0.35058 0.46326455 0.63541293 2.3316832
0000f0 76 c9 61 3e 56 25 09 40 b7 37 d8 bf 9a d0 b3 3e
       0.22049507 2.1429038 -1.6892003 0.35120088
000100 0e a2 f4 3e c7 12 34 be 76 78 1a 3f bf d8 2f 3f
       0.47779888 -0.17585288 0.6034006 0.68690103
000110 2e 83 1f 3f db 75 cc 3e 9b 0f 2b bf 6f e5 b5 3e
       0.6230954 0.39933667 -0.6682069 0.35526606
000120 34 76 96 be 48 e8 08 40 3a 4c fb 3e 01 47 ef bf
       -0.29387057 2.1391773 0.49081594 -1.8693544
000130 98 82 4c be 36 69 a0 3f 35 20 23 3f 06 7a 2b bf
       -0.19971693 1.2532108 0.6372102 -0.6698307
000140 48 af af be 93 2a c6 bf 8a c0 b6 be 25 e2 44 3f
       -0.34313416 -1.5481743 -0.3569377 0.7690757
000150 63 fc 5e be f6 e6 87 3f d7 bd 27 3f 4b db 8f be
       -0.21775965 1.0617359 0.6552405 -0.28096995
000160 e3 3c 36 3f 9b 40 05 3f 72 46 4c 3f 03 4e af be
       0.71186656 0.52051705 0.7979499 -0.34239206
000170 ff a3 08 3f c5 fb 91 3d f5 47 ea bf 43 ce 41 bf
       0.5337524 0.07128099 -1.830321 -0.75705355
000180 6b ba 64 3f 30 8c ac 3d 51 27 96 bf 83 f8 ae 3f
       0.8934695 0.08425176 -1.1730748 1.366959
000190 bd fa 11 3e a0 71 44 3f 47 a2 ee be 0a f9 84 3f
       0.14255805 0.7673588 -0.46608183 1.0388501
0001a0 a5 64 a7 be ef 24 65 bc 2c d2 a1 be 00 e1 ec bd
       -0.32693973 -0.013985856 -0.3160566 -0.11566353
0001b0 93 2b 80 3e f7 15 1f ba bc 05 e5 bf 1c cc 06 c0
       0.25033244 -0.00060686417 -1.7892375 -2.1062078
0001c0 fe df 0d 3f 75 a7 d1 bf fe b4 49 bc 6c 58 da bf
       0.5541991 -1.6379229 -0.012311218 -1.7058234
0001d0 a8 6a 3d bf 39 40 fa bf 6c 5e 5e bf d4 68 8a bf
       -0.7399087 -1.9550849 -0.86862826 -1.0813241
0001e0 a1 44 e1 be 4a 07 a4 3e 91 8d c7 bb fb fc 89 3e
       -0.43997672 0.3203681 -0.006089874 0.2695082
0001f0 05 f6 a5 3d 00 d8 bb 3f fa fb 43 bf 59 8b 8e bf
       0.08103565 1.4675293 -0.7655636 -1.1136276
000200 86 ce 6c 3f f8 26 44 bf 48 98 77 be 6e 1c 89 3f
       0.9250263 -0.7662196 -0.24179184 1.0711801
000210 67 e8 9c 3c c9 5a c0 3f 42 db d6 bf 5a 76 7e bf
       0.019153787 1.5027705 -1.6785662 -0.9939934
000220 87 ac cf 3f ac be f4 bf da 02 1f 3f 49 a3 e9 3e
       1.6224526 -1.9120688 0.62113726 0.4563239
000230 f1 b1 16 bf 73 58 14 3f 65 fe 82 3e 84 42 07 3f
       -0.5886527 0.5794746 0.25584713 0.5283587
000240 8c e6 d5 be 14 18 53 3f 91 50 e4 bd b7 ec 30 bf
       -0.41777456 0.82458615 -0.11148179 -0.691112
000250 50 3b 2a bf 51 2b e2 be 3b a9 ba be 4a a9 f3 be
       -0.66496754 -0.44173673 -0.36457238 -0.47590095
000260 96 f1 11 40 82 3f 5f 3e 7e 03 b9 3f 93 fe 60 3f
       2.2803702 0.2180157 1.4454191 0.8788845
000270 19 20 6b 3f 36 51 42 3f db 0a 3f 3f 40 cb 1a 3d
       0.9184585 0.7590517 0.7462594 0.03779149
000280 44 e3 b3 bd 6b 6c 42 3f dd c1 22 3f 46 26 03 3f
       -0.08783582 0.7594668 0.6357706 0.51230276
000290 b5 79 21 3f c8 4b df 3f d6 02 42 be 4e 26 9f be
       0.63076335 1.7445002 -0.18946394 -0.31083912
0002a0 64 64 0e 3e 06 30 a1 3e 73 90 bc 3e 8a bc 06 c0
       0.13905483 0.3148195 0.36828956 -2.1052575
0002b0 02 db db bf fe 04 17 40 f3 95 b8 3e a3 2f d9 be
       -1.7176211 2.3596797 0.36051902 -0.42419156
0002c0 d9 fa 1a be bf 57 40 bf d1 9a 57 3f 45 47 9e 3d
       -0.15134753 -0.7513389 0.84220606 0.07728437
0002d0 f4 4a ea 3e be 2d 0a 3f 64 07 b7 3e 41 48 e2 bf
       0.4576031 0.5397605 0.35747826 -1.76783
0002e0 da 11 46 3f 79 0e 66 3d 7f 61 87 be 54 0a 80 3f
       0.7737099 0.056166146 -0.2644157 1.0003152
0002f0 b4 88 92 bf ee ee 58 3f f9 d2 f6 3e 7f 67 3a 3e
       -1.1447968 0.8473958 0.48207834 0.18203543
000300 88 95 44 bf 11 42 f5 3f c1 25 b3 be 6f 7d 5a bf
       -0.76790667 1.9160787 -0.3498974 -0.85347646
000310 9f cc b6 be 00 89 90 be d4 6d 84 3f 58 4d b4 3f
       -0.35702989 -0.28229523 1.0346017 1.4086103
000320 7d e7 ee 3d 16 44 03 bf e3 2f 17 3f 5d b8 e4 bf
       0.11665247 -0.51275766 0.59057444 -1.7868763
000330 cc a7 82 3e 87 3e 89 be 0f 0d bc be 64 cc 89 3f
       0.25518644 -0.26805517 -0.36728713 1.07655
000340 52 99 69 3f 3f 49 01 bf e8 be bd 3e 6b bc e1 3f
       0.91249573 -0.5050239 0.37059712 1.7635626
000350 8e 52 d6 3e c8 fc 56 3f dc d0 ab bf 8a c2 3a 3f
       0.4185986 0.83979464 -1.3423114 0.72953093
000360 38 ac 47 3f eb 01 88 bf b1 92 b0 be ef 44 c0 be
       0.7799716 -1.0625585 -0.34486917 -0.37552592
000370 13 02 fd be 70 1c f2 3f eb 6e 33 40 d3 bf 02 3f
       -0.49415645 1.8914928 2.803645 0.5107395
000380 7f d8 c0 bf ac 2d af 3f 3b 11 8f 3d fe 74 bf bf
       -1.5066069 1.3685813 0.06985708 -1.4957578
000390 b7 d5 40 bf 90 21 2c bd 6b 2d 35 3f 25 a9 81 bf
       -0.753261 -0.042024195 0.7077243 -1.0129744
0003a0 cf 26 97 be c4 6f 83 3e 0a 4d 5a 3d da f8 1d bf
       -0.29521796 0.25671208 0.053296126 -0.6170784
0003b0 24 bb 91 3f 7b 86 a4 be a5 75 7f 3a b1 99 05 40
       1.1385236 -0.3213385 0.00097450084 2.0875056
0003c0 af f5 37 3f 08 7c ee be da 44 8f bf e9 22 d2 bf
       0.7185926 -0.46579003 -1.1192887 -1.6416904
0003d0 31 88 1a be 04 76 d9 3e fe 70 39 bf ea 60 0a 40
       -0.15091015 0.4247285 -0.7243804 2.1621652
0003e0 99 fb b0 3d 08 f5 a3 3f 75 3e e3 3f b4 7a b8 bd
       0.086417384 1.2809153 1.7753435 -0.09007779
0003f0 90 7f 8e bf 04 51 6a bc fc 17 b4 3e fc ad 66 3f
       -1.1132679 -0.014301542 0.3517455 0.9010923

embedding.proj.weight f4 [64, 96]
000000 64 43 8c bd 1e af 8c bd a1 43 60 bc bb 69 be 3d
       -0.06848791 -0.068693385 -0.013687999 0.0929751
000010 79 bf fc 3b 37 ad 18 bd 07 23 81 bd 5b 81 4f bd
       0.007713255 -0.037274566 -0.06305509 -0.050660472
000020 f5 8b 52 3d 0e 66 00 3d 74 93 b9 3d 9b 37 94 bd
       0.051403005 0.031347327 0.090613276 -0.072371684
000030 19 9d 83 3d 8b bf 5c bc 79 d6 94 3c a5 75 b7 3d
       0.064264484 -0.013473402 0.018168675 0.08957986
000040 af 3d 37 3d 89 2a c9 3c a3 df 56 bd a2 64 ec 3b
       0.04473656 0.024556415 -0.05245937 0.007214145
000050 e3 71 4c bd 20 9a 91 bd e1 e7 5a bc 12 47 6f bd
       -0.0499133 -0.07109475 -0.013360948 -0.058417387
000060 39 a4 05 3d d0 7b 02 3e 79 a4 e4 3d 15 31 1a 3e
       0.032627318 0.12742543 0.11164183 0.15057786
000070 2b 45 25 3e b8 8e 07 3e 97 c5 14 3e c7 3a be 3d
       0.16139667 0.13238037 0.145285 0.09288555
000080 ef 86 20 3d cd bc be 3d e5 6f 4b 3c 27 5e 95 bd
       0.039191183 0.09313355 0.012416814 -0.07293349
000090 02 b1 78 bc 78 21 d6 bd 35 33 0b bd 51 5f 05 be
       -0.015178921 -0.104556024 -0.03398438 -0.13024642
0000a0 fe 6e 90 3c 3f 50 5f 3d 33 8c ed bc a3 9f f9 3c
       0.01763105 0.054519888 -0.028997516 0.030471629
0000b0 d8 70 25 bd db c4 4f bc c3 49 81 3c ac ff c1 3d
       -0.04039082 -0.012681211 0.015782243 0.09472594
0000c0 3f df 49 3c 73 22 ae 3d 85 3f b6 3c b8 10 a5 3d
       0.012321292 0.085026644 0.022247085 0.080598295
0000d0 fd 03 80 bc ec d1 35 3d 63 be 12 3c 66 51 b0 bd
       -0.015626902 0.04438965 0.008956525 -0.086092755
0000e0 80 cf c5 bc f1 2b 21 bd 10 a2 08 3d bc 7c d6 bd
       -0.024146795 -0.039348546 0.03335768 -0.1047301
0000f0 92 76 66 3a 8c ed 69 3d 56 a6 53 bd 3a 37 22 3d
       0.0008791472 0.057111308 -0.051672302 0.03960345
000100 cf 01 c4 3b 57 22 41 bd bf dd 7d 3d 90 12 1e 3c
       0.005981661 -0.04715189 0.06197905 0.00964798
000110 91 76 a6 3d 45 48 80 3d 1c f9 9c 3c 28 b9 8c 3d
       0.081280835 0.06263784 0.019161753 0.06871253
000120 5c c5 ea 3b 3e 50 3c bd da e5 8b bd 2b 4d 81 3d
       0.0071646404 -0.045974962 -0.0683095 0.06313547
000130 63 dd 5a 3d 47 a4 1f ba 49 3e 31 bd ff 9c a4 bd
       0.053433787 -0.0006089848 -0.04327229 -0.08037757
000140 a6 01 04 3d a2 34 18 3d 23 29 9d bd 4a 24 f9 bd
       0.032228135 0.03715957 -0.07673862 -0.12165125
000150 f6 70 9c 3c 01 18 1f bd 5e b8 9c 3d e6 fa 8e bd
       0.019096833 -0.03884125 0.07652353 -0.06981449
000160 a3 74 94 3d 39 54 4f bc e7 ee 37 3b a7 f4 6b 3d
       0.07248809 -0.012654358 0.002806598 0.057606366
000170 d2 0f 01 3b 77 52 ba bd 30 9f 02 be 45 75 9e bd
       0.0019693268 -0.0909776 -0.12756038 -0.07737211
000180 1a dd 33 3d 4c a0 38 3c 3a f7 05 bd e4 42 33 bd
       0.04391203 0.0112686865 -0.032706477 -0.043764964
000190 2a ae 5e 3d 4c ed aa 3c f8 ff 8a 3d 8d 12 13 bd
       0.054365315 0.020865105 0.067871034 -0.035906363
0001a0 c5 b4 86 3d 18 2d e6 3c ca 16 0a 3d f0 36 f0 3c
       0.06577448 0.028097674 0.03371314 0.029323071
0001b0 9f 8e b1 bd 05 08 83 3d 85 8a 46 bd 65 27 9f bd
       -0.08669781 0.06398014 -0.048471946 -0.07771186
0001c0 9c c7 3d bd d7 b3 1f 3d 7c 7a 9d 3d 79 63 16 bd
       -0.04633294 0.038989868 0.07689378 -0.03671596
0001d0 2a fe a4 3b b6 02 b4 3d 25 5a 52 bd b0 0c d3 3d
       0.0050351815 0.087895796 -0.0513555 0.10305154
0001e0 eb cb 5a 3d 75 3e ba 3d 7a 47 7e bc 9b cd 87 3d
       0.053417128 0.09093944 -0.015519971 0.06631013
0001f0 ae aa 5c 3d c4 3c 5b 3d 4b 3f 6a bd 3d d7 fe 3c
       0.05387371 0.053524747 -0.057189267 0.031108493
000200 fa 4c ab 3d 05 d7 b5 3d 5d 9b 84 3d 07 2f 15 3e
       0.083642915 0.08878902 0.06474946 0.14568721
000210 df 55 24 3e 06 ee b5 3c 28 4e 65 bb 25 74 a1 3d
       0.16048382 0.022208225 -0.0034989212 0.07883481
000220 64 7e bb 3b 90 6c 1c 3e 94 ce f0 3d ef e8 18 3e
       0.005721854 0.15275788 0.11758152 0.14932607
000230 f3 51 f8 3d 9c 9a 94 3d f2 32 66 3e eb 34 d5 3d
       0.121250056 0.07256052 0.22480372 0.10410484
000240 a4 6a 2c 3d 24 ff 44 3c 1a bc dc 3d 56 2c 5a 3d
       0.042093888 0.012023721 0.10778065 0.05326494
000250 e6 c8 a8 3d 8e 75 e2 3d 3b 1a 1e bc 10 9b 7d 3d
       0.08241443 0.11057578 -0.0096498085 0.061915457
000260 f7 6e 93 3d 33 f3 3a 3c 93 94 f7 3c fc f4 a5 bc
       0.07198899 0.011410522 0.030222213 -0.02025842
000270 d2 32 5c bd d4 5d 48 bd 46 37 ae 3d 96 71 20 bd
       -0.053759404 -0.048917606 0.08506636 -0.039170824
000280 fb 62 5e 3d 43 da 94 3d 72 a7 e0 3d 70 d7 b0 bc
       0.054293614 0.072681926 0.10969438 -0.021587104
000290 da 7b b9 3d d0 ba 94 bd e1 2a d2 3d 5d 34 3b 3d
       0.09056826 -0.07262194 0.10262085 0.045704234
0002a0 b3 14 e2 3d c7 b8 2a 3c 39 41 a8 bd 92 83 e5 3c
       0.11039104 0.010420031 -0.08215565 0.02801684
0002b0 f9 9d 2b bd db 7a 98 3d 68 9a ab 3d 86 64 a7 3d
       -0.0418987 0.07445308 0.0837906 0.0817347
0002c0 dd cd 95 3d 50 2a ff bc 0f 8e ab 3d 7d 21 b9 3c
       0.07314656 -0.031148106 0.08376705 0.022598976
0002d0 89 ec bd 3d 82 13 4c bb 50 d6 48 bd 05 de d6 bc
       0.09273631 -0.0031139557 -0.04903251 -0.026228914
0002e0 75 7e 86 bd d7 63 a3 bc f6 46 c1 3d 77 e9 36 3d
       -0.065670885 -0.019945068 0.09437363 0.044656243
0002f0 3e df 8b bd e3 48 80 3d ca 6f 70 3d 12 fe a4 bc
       -0.068296894 0.06263902 0.05870036 -0.020140681
000300 05 fa 2b bd 26 f7 46 bd fc 09 92 bc ce 91 35 bd
       -0.041986484 -0.048575543 -0.017827027 -0.044328503
000310 ee 3c 9a bc 88 00 c4 bd 4f 8d 4f bc 33 1e 71 3d
       -0.018827882 -0.09570414 -0.012667968 0.05886669
000320 5d d1 66 3b 66 e1 7b bd 52 6c ca bd 37 9f 4d bc
       0.0035220005 -0.061494254 -0.09883942 -0.012550167
000330 20 f6 3e bd 65 2c cf bd ff 37 05 bd 81 47 ce 3a
       -0.04662144 -0.101158895 -0.032524105 0.0015737863
000340 6c 6d e8 bc 4b 37 95 3d 7a 35 f4 bd c3 f8 79 3d
       -0.028372489 0.07285937 -0.11924262 0.061028253
000350 d6 b6 71 3d bb 54 18 3d 99 54 00 be 69 94 7e 3c
       0.059012257 0.03719018 -0.12532271 0.015538313
000360 83 a7 38 be 58 de f3 bd 99 90 d0 bc a8 30 b9 bd
       -0.1803265 -0.11907643 -0.025459575 -0.090424836
000370 82 72 1f be 7f 26 ec bd d2 5a 70 bd 77 40 94 bd
       -0.15571025 -0.1153078 -0.058680363 -0.07238858
000380 aa ad 5e 3d 6e 34 ad 3d e6 3c 85 3d 56 07 da 3d
       0.054364838 0.08457266 0.06505756 0.106459305
000390 e3 7a ed 3d 85 68 cc 3d bf 65 fa 3d b4 bf bc ba
       0.115957044 0.09980873 0.12226438 -0.0014400394
0003a0 d9 49 c7 bc 92 20 0d bc 9b ef d7 3c 05 cb 70 3d
       -0.024327205 -0.008613722 0.02635937 0.058787365
0003b0 8e 20 ac 3c fd a2 f9 3c 73 27 11 be 23 5d a9 bd
       0.021011617 0.030473227 -0.14175205 -0.082697175
0003c0 0d a8 ec bb ea 5e f0 bc 7f 76 76 3d ab 9d 4e bd
       -0.0072221817 -0.029342134 0.0601716 -0.050443333
0003d0 74 c7 65 bd 10 17 00 bd 30 3a b4 bd bd 89 9b bd
       -0.056098416 -0.031271994 -0.08800161 -0.07594631
0003e0 01 aa c1 3b b5 44 79 3c 7d ed d0 bd 6e db 8d 3d
       0.0059101586 0.015214135 -0.10201547 0.069266185
0003f0 96 42 be bd ef 1e 98 bd c0 65 be bd 9d 1f a1 bd
       -0.09290044 -0.07427775 -0.09296751 -0.07867358

embedding.proj.bias f4 [64]
000000 82 36 93 3d 3f ad 9d 3d 3d 11 59 bc 80 40 10 3d
       0.07188131 0.0769906 -0.013248739 0.035217762
000010 5e 88 0e bd e3 cb 9e bc 65 2c b1 3c 38 6d ed 3d
       -0.03479802 -0.01938433 0.021627614 0.115930974
000020 92 e2 25 3c e8 3a 93 bd b8 e2 9e bc 63 c9 6c bd
       0.010124819 -0.0718897 -0.019395217 -0.057809245
000030 d8 f4 07 3d b2 2e 0d bc 80 95 96 bd 7c bd 69 3c
       0.033192486 -0.00861709 -0.073527336 0.014266368
000040 df 4a 12 3d 7f fe b9 3d da 2e e0 3c 3a a1 a2 3d
       0.035715934 0.090817444 0.02736609 0.07940908
000050 9e 2d 6f 3d a7 ce d4 bd fd dc 82 3d 9d 07 6d 3d
       0.058393113 -0.10390978 0.063898064 0.05786859
000060 d8 e7 82 3d ed 8c f8 3c e1 73 5f bd 0f b4 93 3d
       0.06391877 0.030340636 -0.05455387 0.07212078
000070 dd ae c8 3d ef d2 01 bc 90 3d 84 bd e0 64 b3 bd
       0.097989775 -0.007923826 -0.064570546 -0.08759475
000080 19 44 8e 3d 19 87 3b bc 8f 07 3b 3d 5c 38 9d bc
       0.06946582 -0.011445784 0.045661505 -0.019191913
000090 07 9e 88 bd d2 3c 32 bb c0 ab bd bd f0 62 6d 3d
       -0.06670766 -0.0027196896 -0.09261274 0.057955682
0000a0 f4 51 e8 3c bc a4 24 bd 54 fc 69 bd 87 6e ea bd
       0.02835939 -0.040196165 -0.057125404 -0.11446863
0000b0 fc 12 1e bd bd 7d af 3d 09 8f 82 bd 10 8d 96 3d
       -0.038592324 0.085689045 -0.06374938 0.07351124
0000c0 68 16 11 bd b0 25 58 3c 99 34 81 bc 43 4a 31 bb
       -0.03542176 0.013192579 -0.01577215 -0.002705232
0000d0 bc f4 b4 bd 2b e6 7c bd c3 00 82 bd cf 19 0b bd
       -0.08835742 -0.061742943 -0.063478015 -0.03396016
0000e0 bf 56 a9 bd a9 e4 8a bd 6c 18 74 bb 1c 89 02 bd
       -0.08268499 -0.06781895 -0.0037246002 -0.03186904
0000f0 09 31 48 bd 3f 4a c6 3d bb c6 39 bc 54 8b f6 3d
       -0.04887489 0.0968213 -0.011338885 0.120382935

emb_norm.weight f4 [64]
000000 4c 92 83 3f fd bd 80 3f 97 57 7e 3f 3e 31 82 3f
       1.0279021 1.005798 0.993524 1.0171278
000010 7c b9 81 3f 6e 7f 86 3f 57 a9 89 3f fb ef 80 3f
       1.013473 1.0507638 1.0754803 1.0073236
000020 01 2c 86 3f 33 bd 83 3f 3c bc 7c 3f 2f ef 84 3f
       1.0482179 1.0292114 0.9872472 1.0385493
000030 be e6 7c 3f f5 11 84 3f 6d 13 80 3f b3 48 7e 3f
       0.98789585 1.031798 1.0005928 0.9932968
000040 5d 24 7e 3f 4c e1 86 3f 52 42 7d 3f 15 8e 80 3f
       0.99274236 1.0537505 0.9892932 1.004336
000050 c9 d1 80 3f de 64 81 3f 7a 42 79 3f 6b ef 86 3f
       1.0064021 1.0108907 0.9736706 1.0541815
000060 7c e7 87 3f 6c 08 88 3f 72 97 86 3f 41 99 80 3f
       1.0617518 1.062757 1.0514967 1.0046769
000070 e1 6e 7d 3f 69 6a 7b 3f 12 bd 82 3f 49 f2 83 3f
       0.9899731 0.98209244 1.021395 1.0308315
000080 e8 41 81 3f 57 9e 78 3f 19 18 77 3f b8 ff 70 3f
       1.0098238 0.9711661 0.96521145 0.94140196
000090 79 0b 83 3f 0d f9 84 3f b6 f4 74 3f c3 61 83 3f
       1.0237876 1.0388504 0.956859 1.026421
0000a0 f5 f6 80 3f 42 03 87 3f 53 ce 81 3f 48 cf 78 3f
       1.0075365 1.0547869 1.014109 0.97191286
0000b0 2c e6 83 3f 06 fd 81 3f c3 c8 6d 3f c8 f5 77 3f
       1.0304618 1.0155342 0.92884463 0.9685941
0000c0 1d e3 86 3f e3 6c 80 3f 0f f6 87 3f 11 dc 77 3f
       1.053806 1.003323 1.0621966 0.9682017
0000d0 32 52 83 3f 6f 43 7a 3f ff ab 76 3f bf 2c 82 3f
       1.0259459 0.97759145 0.96356195 1.0169905
0000e0 6c 72 86 3f 76 00 6c 3f cf af 7c 3f ff 28 78 3f
       1.0503669 0.92188203 0.9870576 0.96937555
0000f0 a9 59 7f 3f 16 9a 77 3f 98 87 84 3f 4d f9 7f 3f
       0.99746186 0.9671949 1.035388 0.9998978

emb_norm.bias f4 [64]
000000 c2 ab bc 3b 9b 19 5f 3c 02 22 d4 bb 0a b7 38 3a
       0.00575778 0.013616945 -0.0064737806 0.0007046318
000010 b5 67 c6 bb 82 25 23 bc 30 bb 12 3c ee 08 76 3b
       -0.0060548433 -0.009957673 0.008955762 0.0037541944
000020 6e 53 95 bb 9d 57 ca ba d6 38 1a 3b 57 f0 45 39
       -0.0045570647 -0.0015437488 0.0023532412 0.00018876918
000030 60 14 5f 3b 5d bb d4 3a 74 4e 26 39 a1 9c 0b 3b
       0.0034039244 0.0016230155 0.0001586022 0.0021303075
000040 fa f7 04 3b 75 76 cc 3a e3 c9 a0 ba f5 a9 37 3c
       0.0020289407 0.0015599268 -0.0012267198 0.0112099545
000050 7f 78 fb ba 7d 82 08 ba 85 9f 6c 3c 6e db 9b 3b
       -0.0019185691 -0.00052074326 0.014442329 0.0047563827
000060 ec 05 11 bc bc 3c 91 bb 7f 7d a4 bc b6 d2 39 3a
       -0.00885151 -0.004432289 -0.020079372 0.00070885883
000070 7c 49 c4 3a c8 32 49 3c 2b cc 65 bb 46 23 0d 3a
       0.0014975513 0.012280174 -0.003506432 0.00053839793
000080 7f 2d c5 3b c6 26 49 bc 8a b5 0f bc 0d 45 16 bc
       0.0060173864 -0.012277311 -0.00877131 -0.009171736
000090 1e b4 c2 bb 30 dd 02 bc e6 30 3f bc a0 60 16 3c
       -0.005941882 -0.0079873055 -0.011669373 0.009178311
0000a0 1c eb d1 bb 91 e1 2b bc fc ce 1e bc 54 b8 c3 bb
       -0.006406201 -0.010490791 -0.009692904 -0.0059729014
0000b0 44 f0 c1 39 08 59 1d bc 66 13 0d bc b8 f6 e7 3b
       0.0003699084 -0.009603746 -0.008610582 0.0070789717
0000c0 88 74 f2 bb 3c 4e 43 39 1c 4f aa 3b 69 88 f5 3a
       -0.0073991455 0.00018625794 0.005197419 0.001873267
0000d0 ea 8b c7 ba ed 67 68 3c 05 69 77 3b d1 41 8c ba
       -0.0015224193 0.014184934 0.0037751806 -0.0010700767
0000e0 9a 2f 1a 3b 39 70 9a 3a f6 aa 34 bb 01 fc 3a 3c
       0.0023526908 0.0011782713 -0.002756772 0.0114126215
0000f0 e2 49 38 3b ed 17 86 3c f2 e9 64 bc 9c e1 e3 3b
       0.002812021 0.01636883 -0.0139717925 0.006954385

encoder.layers.0.self_attn.in_proj_weight f4 [192, 64]
000000 d8 be ca bd 4b 11 bb bd 58 a3 d6 bd f1 26 c2 3b
       -0.09899682 -0.09134158 -0.10480374 0.0059250523
000010 d7 60 44 3c 5f 9e a7 3d 36 2e f0 bd 4f b9 93 bd
       0.011985979 0.08184504 -0.11727564 -0.07213079
000020 3b 53 a9 3d 85 6b b2 ba 4d e9 1a bc fe 6d c7 bd
       0.08267828 -0.0013612366 -0.009455037 -0.09737776
000030 9a 30 4f 3c 81 87 54 3e d6 a3 35 3e dd e0 98 bd
       0.012645865 0.20754816 0.1773828 -0.07464764
000040 42 11 06 3b fa 95 56 bc c9 85 f2 bd 5a a3 13 3e
       0.0020457064 -0.013097281 -0.11841924 0.14417782
000050 81 ab bb bc 70 02 8d bd d5 ac 78 3d 39 a2 23 bc
       -0.022908928 -0.068852305 0.0607117 -0.009987407
000060 c7 07 16 be cf b4 4e 3e 6c 4d 12 be 10 40 3f be
       -0.14651404 0.2018616 -0.14287347 -0.18676782
000070 0f be f7 3d 74 75 99 bc 00 71 eb 3d c8 1e f5 3d
       0.12096798 -0.018732764 0.114961624 0.11968762
000080 86 c6 ce bd 48 40 44 3d 00 7c 1f 3e 39 e6 98 3d
       -0.10096459 0.047912866 0.15574646 0.074657865
000090 83 f9 3c 3e 21 4b c5 3d f3 aa 49 3d 86 bb 3c be
       0.18454556 0.0963347 0.049235296 -0.1843091
0000a0 e3 67 6a bd ef 1c 20 be 35 24 f0 bd 89 95 d8 3b
       -0.05722798 -0.15636037 -0.11725656 0.006609623
0000b0 1f b6 2f be 89 a9 14 be 98 06 b6 bd 93 0f 8f bd
       -0.17159317 -0.14517798 -0.088879764 -0.069853924
0000c0 45 36 0b be 73 80 da bc f5 f5 07 3e da 88 05 bd
       -0.13594921 -0.026672577 0.13277419 -0.032601215
0000d0 7e de ed 3d a7 29 34 3d 96 a2 c7 bc 0d 55 df bd
       0.11614703 0.043985035 -0.02436952 -0.10904894
0000e0 78 94 83 bd 5b c4 88 bd d0 89 7e bd 6f 05 6b bc
       -0.064248025 -0.06678077 -0.062143147 -0.014344557
0000f0 7e cd 05 3e fd 1a e3 3d d5 b0 98 bc 8c 27 3f bd
       0.1306667 0.11089132 -0.018639008 -0.046668574
000100 3d 07 03 3e 50 6a 32 be 7f 36 26 3e 57 f3 01 3d
       0.1279573 -0.17423368 0.16231726 0.031726208
000110 8f 7f dc bc 03 1f 5c 3e aa d8 06 3e 0a 6c f2 bd
       -0.026916293 0.21496205 0.13168588 -0.11837013
000120 fb cd 34 3d f5 b9 df bc 61 f7 ff bd bf e3 97 bc
       0.04414175 -0.02731035 -0.12498356 -0.018541215
000130 5a 19 b4 bd 0e 9d c8 bd 25 84 a7 bd b8 1a 0b bd
       -0.08793898 -0.09795581 -0.081795014 -0.033961028
000140 87 73 2a 3d 1f 0e 4c be c9 95 07 bc 18 bd 6a ba
       0.04161408 -0.19927262 -0.008275458 -0.0008954569
000150 9f d1 c8 3c 92 63 22 3d d1 de ec 3d 87 17 70 be
       0.024514018 0.03964574 0.11565936 -0.23446475
000160 af 7e 1d bd df ef f6 3d 90 a8 9f 3d 52 9c 4d be
       -0.038450893 0.120574705 0.077958226 -0.20079163
000170 a0 d5 c9 3d c8 93 86 3d 62 6a a4 3d 9b d5 a1 3c
       0.09855199 0.06571156 0.080281034 0.019755175
000180 20 96 a4 bc 76 78 d9 bd 86 31 a1 bd e2 56 e5 3d
       -0.020091116 -0.10618679 -0.07870774 0.11198212
000190 68 9c 07 3e 60 f3 30 3e 2f ba b1 bd 4f da 0a 3d
       0.13243258 0.1728034 -0.0867809 0.0338996
0001a0 1c aa ec bd ba 12 ed 3d 85 c7 90 3d 83 ea 0b be
       -0.11555883 0.115758374 0.07069305 -0.13663678
0001b0 80 d8 41 be a3 ed ca bd 96 50 63 bd 97 c2 15 bd
       -0.18930244 -0.09908607 -0.055496775 -0.03656253
0001c0 97 98 2c be cf d3 4c bd 0c a3 e4 3d 45 19 a1 3d
       -0.16855083 -0.050006684 0.11163911 0.07866148
0001d0 bb c6 15 3e 23 d0 4f bd b4 b5 9d bd af 84 24 be
       0.14626591 -0.050735604 -0.07700673 -0.1606624
0001e0 1a 71 14 3e b8 97 bb 3c d4 42 11 3e 32 61 c2 3d
       0.1449627 0.022899494 0.14185649 0.09491195
0001f0 ed 8c 38 be 61 f8 3a bc c9 86 f4 bd 82 bd 9f bc
       -0.18022509 -0.011411757 -0.11939771 -0.019499544
000200 e2 db a9 3d 40 d7 f7 3d be d7 cc bd 7b d7 6a be
       0.082938924 0.121016026 -0.10002087 -0.22933762
000210 34 e5 0a 3e 3d 70 2b 3e 26 01 76 3c e7 3f 05 be
       0.13563997 0.16742034 0.015014922 -0.13012658
000220 ce fb f3 bc 45 ba b4 bd 43 26 28 be f8 23 71 bc
       -0.029783156 -0.088245906 -0.16420846 -0.014718048
000230 63 0b 36 be 46 0e 2d 3e f4 cf 38 3e 7a 1a 69 be
       -0.17777781 0.16899976 0.18048078 -0.22764006
000240 1a 18 29 3e 7f e0 bb bd 3d 4a 31 be d2 3e e0 bd
       0.165131 -0.091736786 -0.17313476 -0.10949482
000250 c7 21 00 bd b8 8d 56 3e b8 b6 9e bc 12 9e ff bc
       -0.031282213 0.20952499 -0.019374236 -0.031203303
000260 40 ad f4 bb 60 2b 41 be 05 4b 8d 3d 8b 95 0c 3e
       -0.007466942 -0.18864202 0.068990745 0.13728921
000270 99 a8 78 3d 62 5c 69 3d cb f2 e6 3d b9 97 24 3d
       0.060707662 0.05697287 0.11276778 0.040183757
000280 cc c2 d9 bc af 44 20 bd 2f 2d 78 3e 37 9f cf 3d
       -0.026582144 -0.039128 0.24235986 0.1013779
000290 a9 1a f7 3d ac 84 69 3d 6c 15 ae 3d 14 f4 24 be
       0.12065632 0.05701129 0.0850018 -0.16108733
0002a0 5d 5e 72 3d 61 23 fd bc b8 d1 15 3e a3 11 7e 3d
       0.059172023 -0.030900659 0.14630783 0.06202854
0002b0 de 8f 55 be a3 91 83 3e 7e a8 19 bc b3 dd b9 3d
       -0.20855662 0.2569705 -0.009378551 0.09075489
0002c0 c1 4c 5d be ad 11 16 be 5e 38 b8 bc 15 a6 04 bd
       -0.2161131 -0.1465518 -0.022487815 -0.03238495
0002d0 72 85 12 3e 18 ce a1 bc 82 e4 9f 3c b2 00 3c 3d
       0.14308718 -0.019751593 0.01951814 0.0458991
0002e0 08 bd e1 3c a7 1d 2c 3e b4 48 fc bc 91 4e 27 be
       0.027555957 0.16808186 -0.030796386 -0.16338564
0002f0 7b a3 31 be 67 24 eb 3c c6 a6 ce bd 1d b0 de bd
       -0.17347519 0.028703881 -0.10090403 -0.10873435
000300 94 f4 b2 3d cd a5 f5 ba 3e 53 6b 3d d4 53 04 be
       0.08738056 -0.0018741429 0.057452433 -0.12922603
000310 6f 59 03 be dd 09 24 3d 2b 0c fe bd 9e 7e 0e 3d
       -0.12827085 0.04004847 -0.124046646 0.03478872
000320 4e 0d 89 bd 26 f7 b9 bd db 2e fd 3c 36 f0 e0 bc
       -0.06691991 -0.09080343 0.030906131 -0.027458292
000330 76 27 48 bd 83 c7 8c bc 24 f5 9e 3c 6e 03 0e be
       -0.048865758 -0.017184978 0.019404002 -0.13868496
000340 7c f8 23 3d 28 cf 79 bd e4 91 8a bd b4 89 f4 bd
       0.040031895 -0.060988575 -0.06766108 -0.11940327
000350 04 51 c4 3d 46 a5 70 3d a3 36 41 3d 87 6a a2 bc
       0.09585765 0.058751367 0.047171246 -0.019826187
000360 b5 11 44 3e 82 e9 93 bd 19 ef a5 3d db 19 bb 3d
       0.1914738 -0.072222725 0.08102245 0.09135791
000370 b0 a8 08 be 48 a6 2d bd a6 31 7c bd 16 21 e6 bd
       -0.13345599 -0.042394906 -0.061570786 -0.112367794
000380 7c 6e b0 bd b8 e4 b1 bd e2 c9 9e bd c7 eb 2c 3e
       -0.08614823 -0.08686203 -0.0775335 0.16886817
000390 e9 19 38 bc 1d 8e 5f 3d fd e1 4e bc be 3d 09 3e
       -0.011236646 0.05457889 -0.012627122 0.13402459
0003a0 83 e3 8a bd b8 7f 19 bd c0 65 a8 3c c7 3d 77 3d
       -0.06781676 -0.037475318 0.02055633 0.06036165
0003b0 4e 0f e5 3d c0 ec 1b 3e 56 2a fe bb a9 2b 8b 3d
       0.1118456 0.15227032 -0.0077565117 0.06795437
0003c0 27 a7 35 3e b3 e6 00 be 80 98 04 3d e7 5c 01 3e
       0.17739545 -0.12588005 0.032371998 0.12633096
0003d0 4d e9 89 3d 36 3a 23 3d 9a 5e 71 3c 50 32 9b 3d
       0.06733952 0.039850436 0.014732027 0.07577956
0003e0 64 7c e7 3b 7d 32 28 3e e2 93 0e 3e 02 10 a9 bd
       0.007064389 0.1642551 0.139236 -0.082550064
0003f0 c8 8a 24 be 26 64 23 be ad ff 77 bc 3b fe d7 bd
       -0.16068566 -0.15956172 -0.015136641 -0.105465375

encoder.layers.0.self_attn.in_proj_bias f4 [192]
000000 02 7e 04 3d 81 23 ba 3c 08 3f c1 3d e7 d5 6a bc
       0.032346733 0.022722008 0.094358504 -0.014333225
000010 4c b6 8b bc 7e b1 2c bd dd 3b f9 bc 22 ba 57 3b
       -0.0170547 -0.042161457 -0.030424053 0.003291734
000020 53 da 13 3d 18 38 c9 bc d5 dc cc bc 74 e3 b0 3c
       0.036096882 -0.02456288 -0.025007645 0.021592833
000030 b8 e1 cc bd 63 d3 47 3d 90 7e ff 3c e9 2c 76 bd
       -0.1000399 0.04878558 0.03118828 -0.060101423
000040 35 91 b0 3c e7 d5 f1 3c e8 ef b8 bc bd c1 3c 3d
       0.021553615 0.029520942 -0.022575334 0.0460832
000050 27 3e 91 3c e2 34 0e 3c b4 40 50 bd f7 7f 1b bd
       0.017729832 0.0086796 -0.050842956 -0.037963834
000060 89 a3 09 3d e5 85 7a 3c 78 9e fc 3a 57 86 46 bc
       0.033603225 0.015290712 0.0019273302 -0.01211699
000070 e7 c7 18 3c 4f b6 f1 3c 8b a6 97 3c eb 71 80 bc
       0.009325004 0.029505877 0.018512031 -0.01567932
000080 db 61 b0 bb f2 c5 e7 3b b9 e5 81 bb 3b 82 00 3d
       -0.005382759 0.0070731575 -0.0039641527 0.031374197
000090 4e 8d 0c 3d 4f 0f 5b bd 2e 93 07 3b b7 4d 49 bb
       0.034314446 -0.053481396 0.0020687091 -0.0030716488
0000a0 d9 04 e1 3c 65 13 1f bd 17 20 95 bc c7 e6 d8 3a
       0.027468132 -0.038836855 -0.018203778 0.0016548269
0000b0 a6 ca 2e 3c 17 66 11 3b 92 97 0f bc f7 c4 5e 3d
       0.010668432 0.0022186094 -0.0087641645 0.05438706
0000c0 6b 17 45 bc 2e 90 ff bc 87 a9 b7 3c 5b b0 ec bc
       -0.012029509 -0.03119668 0.022419704 -0.028892687
0000d0 6b 12 50 bc f4 0a 2b 3d 99 1d 81 bc 0d bc 3a 3d
       -0.012699704 0.041758493 -0.015761184 0.045589495
0000e0 ac 48 65 3d 70 7e 28 bd cf b3 6c 3d 79 6b dd bc
       0.05597751 -0.041136205 0.057788666 -0.027028786
0000f0 88 64 c0 bc a0 f2 df bc a4 7b 24 bc ee d0 01 bd
       -0.023485437 -0.027337372 -0.010039244 -0.03169339
000100 81 c7 85 37 09 bc 4a 36 78 ec 36 b8 89 07 1d 36
       1.5947737e-05 3.0209796e-06 -4.361241e-05 2.339921e-06
000110 92 6d 8d 38 bd dc 6a 38 26 ee c5 37 6f a4 b4 b7
       6.743813e-05 5.5995526e-05 2.3595127e-05 -2.1534242e-05
000120 4d f5 df b7 9f 27 82 38 20 ea 10 38 a3 de 67 b8
       -2.6697899e-05 6.206263e-05 3.455032e-05 -5.528204e-05
000130 61 da 80 b8 07 80 22 b8 ec a4 45 38 b2 a1 35 b8
       -6.144192e-05 -3.8743045e-05 4.7122056e-05 -4.3304353e-05
000140 ea ac 70 b7 40 b7 b3 37 40 11 2b 36 c8 08 8c 37
       -1.4345374e-05 2.1423795e-05 2.5491026e-06 1.669339e-05
000150 13 75 cd b7 22 95 b0 b6 54 4d 3d b7 a1 7f ab 37
       -2.4492421e-05 -5.26257e-06 -1.1283282e-05 2.044422e-05
000160 05 8e e5 b7 35 43 05 38 0b 66 e8 37 15 72 88 b5
       -2.736506e-05 3.1772262e-05 2.7704073e-05 -1.0165992e-06
000170 b6 fe d8 37 ac e3 33 37 b7 b1 89 b4 ff 7e 94 36
       2.5867816e-05 1.072224e-05 -2.5647543e-07 4.425528e-06
000180 06 8c 8f b6 24 29 d0 b6 69 35 aa 36 c3 7c a2 36
       -4.278033e-06 -6.2036725e-06 5.0726126e-06 4.8425004e-06
000190 9a 55 ff b6 48 df 1b 37 ba b0 87 b7 42 6c 7f b7
       -7.6095575e-06 9.290707e-06 -1.6175549e-05 -1.522439e-05
0001a0 bc 19 3a b7 86 41 2c b6 7f 60 58 b7 e3 c8 ed 35
       -1.1092456e-05 -2.5668137e-06 -1.28970705e-05 1.7716342e-06
0001b0 7a 83 b0 b6 81 a5 8c 37 db b3 54 37 4c 0f 95 36
       -5.2605146e-06 1.676637e-05 1.2678061e-05 4.442327e-06
0001c0 86 30 b4 b7 03 fc fc 37 58 1d 59 38 d2 56 c1 37
       -2.1480268e-05 3.0158093e-05 5.176416e-05 2.3047822e-05
0001d0 e8 00 01 38 f9 0b 21 38 01 85 cd b6 d3 48 96 b8
       3.075684e-05 3.839654e-05 -6.12496e-06 -7.166122e-05
0001e0 17 5e b0 b8 97 77 30 b7 cc de 26 38 ca f7 ae b7
       -8.4098596e-05 -1.0518262e-05 3.978498e-05 -2.0857802e-05
0001f0 23 06 d8 37 a9 b5 1e 37 2b 94 a6 b7 f7 fe 3f b8
       2.5752064e-05 9.45983e-06 -1.9857738e-05 -4.5775403e-05
000200 cb f7 2d bb 9a ff 6f 3b 12 a8 3c 3c 2f 59 4d 3b
       -0.0026545401 0.0036620856 0.01151468 0.0031333675
000210 d0 0f 07 bc 6c ee 16 3c 55 65 33 3b 79 30 33 bb
       -0.008243516 0.009212118 0.002737363 -0.0027342124
000220 5a 7b 0e bc ec fd 00 3a 03 7f d3 3a ed dc 79 3b
       -0.0086964015 0.000492065 0.0016135875 0.0038126067
000230 be f1 04 bb 76 d8 34 3b b8 42 a1 3b 28 be fd ba
       -0.002028569 0.002759484 0.0049212836 -0.0019359039
000240 42 e2 69 3b f8 00 57 bb 3a 1b 07 3c 3d f7 0a bb
       0.0035687839 -0.0032806974 0.008246237 -0.0021204494
000250 c2 1f dc ba cb f8 8b bb 70 53 cc 3a a6 90 7d 3b
       -0.0016794133 -0.004271602 0.0015588831 0.0038690954
000260 05 10 22 bb f1 02 5f 3c b0 40 aa 3b 89 5b 8b 3b
       -0.0024728787 0.013611541 0.0051956996 0.004252855
000270 68 4e 27 bc fe 47 0b 3c 80 28 82 bb 62 b8 01 bc
       -0.010211565 0.008501051 -0.003972113 -0.007917495
000280 36 cb 49 bb cf 7c ca ba c4 86 db bb b1 24 47 bb
       -0.003079129 -0.0015448573 -0.006699415 -0.003038686
000290 96 92 57 3c d4 ea 64 ba 5f b0 a7 3c d0 f5 94 3a
       0.013157507 -0.0008732502 0.020469842 0.0011364762
0002a0 68 9f da b7 60 da c7 ba 67 f9 92 bb 2e ce 4a bc
       -2.6061854e-05 -0.0015247576 -0.0044852975 -0.012378259
0002b0 fa 00 28 bc 67 de 47 3b 02 d0 85 3b 85 14 73 bb
       -0.010254139 0.0030497552 0.0040836344 -0.0037091088
0002c0 1d aa 6c b9 78 50 a0 bb ca c1 a2 bb db bd e2 3b
       -0.00022570086 -0.004892405 -0.004966949 0.006919605
0002d0 a5 49 58 3c 4f d4 5e bb 12 f1 13 3b 4d 3c c3 3a
       0.013201152 -0.0034001058 0.002257411 0.001489529
0002e0 7d a9 fd bb fc ac 75 3b 28 26 52 bc 5e f5 89 3a
       -0.007741152 0.003748714 -0.01282648 0.0010525396
0002f0 45 4b 0a bb 28 31 90 3b f4 3a d8 3b 92 93 23 bc
       -0.0021101993 0.004400391 0.0065988246 -0.009983914

encoder.layers.0.self_attn.out_proj.weight f4 [64, 64]
000000 08 d1 4e 3d 12 f8 62 3c ed a7 ac 3d df 6a 81 3d
       0.050492316 0.01385309 0.08430467 0.06319212
000010 dd 19 db 3d e2 23 c5 bd a1 42 82 bd 24 5c 8f 3c
       0.106982924 -0.09625985 -0.06360365 0.01749999
000020 80 26 af 3d 99 a4 bd bd 8e 51 0c 3d 30 59 f6 bb
       0.08552265 -0.0925991 0.034257464 -0.007517956
000030 72 4d 5f bd 51 9c 0c 3c ac fd bf bd 5f f1 b5 bb
       -0.054517217 0.008582191 -0.09374556 -0.0055524553
000040 b4 9a 94 bd 33 d1 8d 3d b0 f1 05 be 5a aa a1 bd
       -0.0725607 0.06924667 -0.13080478 -0.0789382
000050 cc 5f bf 3d 02 f7 44 3c 65 17 9c bd c9 a2 f8 bd
       0.09344444 0.012021782 -0.0762165 -0.12140424
000060 d2 c6 9d 3d b0 e2 78 bd b0 29 a2 bd ed fc 0e 3c
       0.077039376 -0.06076306 -0.079181075 0.008727294
000070 d7 85 d0 3d c6 d5 32 bd 59 47 04 3e 65 b8 8f 3d
       0.10181778 -0.0436609 0.12917842 0.07017592
000080 63 b5 00 3e 0c fb eb bc 49 97 a9 3c 94 fd cf bd
       0.12569194 -0.028806232 0.020702021 -0.10155788
000090 6c 24 b2 bd 80 c4 d3 3d fe eb b3 3d 8e 4d c2 bd
       -0.08698353 0.10340214 0.08785246 -0.09487449
0000a0 83 2e 08 3e 66 e0 4f 3d 94 d7 7c 3d bb 4e 27 bd
       0.13298993 0.050751112 0.06172903 -0.040846568
0000b0 17 f5 cb bc 22 cd 1c 3c fe 41 5b bd 83 4e 35 3d
       -0.024897141 0.009570392 -0.053529732 0.044264328
0000c0 18 34 97 bd f0 31 36 3d 75 ad 45 3d 2b c1 be 3b
       -0.07382983 0.044481218 0.048261125 0.0058213673
0000d0 29 9b 94 3c e7 c1 e5 bc 17 fb b9 bd 69 c4 98 3c
       0.018140392 -0.028046561 -0.09081095 0.018648343
0000e0 30 70 03 bd 88 43 0b 3b 81 2a c2 bd 49 8e 68 bd
       -0.032089412 0.0021249969 -0.09480763 -0.05677632
0000f0 e8 33 07 3e fe a2 e6 bd 82 b3 8f bc de 79 83 bd
       0.13203394 -0.11261557 -0.01754165 -0.06419729
000100 c8 31 78 bd c0 8e d4 3d be 16 62 bd 22 44 f1 3d
       -0.06059435 0.1037879 -0.05519747 0.117805734
000110 26 f8 8a bc 21 f2 3d 3d a3 7f 14 3d d7 27 b2 bb
       -0.01696403 0.04637349 0.036254536 -0.005436878
000120 e3 c8 cf bd 8c 2d df 3d 75 36 9c 3d 77 af b3 bd
       -0.10145738 0.10897359 0.07627574 -0.08773702
000130 cd 7b 9f bc 8b 8f 98 bd eb 06 cb 3d 38 58 01 3e
       -0.019468213 -0.07449254 0.09913429 0.12631309
000140 27 e7 08 3e f6 6f 88 bd ff 27 e9 3d 14 fd e7 bc
       0.13369428 -0.0666198 0.11384582 -0.02831892
000150 fe 24 bf bd 33 52 ef bd 17 a3 bc bd 51 77 a8 bc
       -0.093332276 -0.116856 -0.092107944 -0.020564707
000160 5d 23 11 b9 f4 b3 b6 bd 00 98 87 3d 75 43 06 3e
       -0.00013841451 -0.08921042 0.066207886 0.1311167
000170 07 3a 23 3c e0 71 5a bc 25 4c 3e 3d 62 62 b4 bd
       0.009962565 -0.013332814 0.046459336 -0.088078275
000180 83 f4 f7 bd 83 ac a1 3d b0 84 e6 bd 97 a3 a3 bc
       -0.12107184 0.07894232 -0.11255777 -0.019975467
000190 50 6b 5e bd aa f7 47 bd 4a 0e 90 bd 23 d3 35 bc
       -0.05430156 -0.048820175 -0.070339754 -0.011097702
0001a0 d5 45 c3 3d c8 84 8f bc 87 15 b4 bc c8 7d c8 bd
       0.09534804 -0.01751937 -0.021982921 -0.09789616
0001b0 e6 62 4b 3c 75 bd 7c 3c 14 14 7c 3d ee 25 9b 3d
       0.012413716 0.015426029 0.061542585 0.07575594
0001c0 18 d0 e0 bb 8d 44 83 3d 99 d9 5e 3c f4 f7 ab 3d
       -0.006860744 0.064095594 0.013601684 0.08396903
0001d0 e7 92 8c 3d c2 15 06 3e f2 5e b4 bd 77 7d df 3d
       0.06863957 0.13094237 -0.08807172 0.109126024
0001e0 ca ad 57 3d 3c 67 bb 3d 80 b0 e4 bd 87 9a b1 3d
       0.052655973 0.0915055 -0.11166477 0.08672052
0001f0 59 5e a9 3d c0 51 ca 3d d2 86 05 3d 97 5c 07 3e
       0.082699485 0.09878874 0.032599278 0.13218914
000200 72 d5 a1 bd 61 a4 c7 3d a6 9f 3b bd 85 94 8f 3d
       -0.079020396 0.0974815 -0.04580655 0.0701075
000210 00 cc 5f bd 1f 9d 37 bd df 69 91 3d 0b 06 3d bd
       -0.05463791 -0.044827577 0.071002714 -0.04614834
000220 aa 3d f7 3d 88 a6 e6 3b 45 30 be 3d 6d 64 d8 3c
       0.12072308 0.007038895 0.092865504 0.026415074
000230 3c 21 3a 3d 8e 96 c9 bd a0 59 58 bd b9 59 1d bd
       0.04544185 -0.09843169 -0.052819848 -0.038415644
000240 14 b8 a3 3d af df 9d bd c2 84 bd 3d 33 a5 52 bd
       0.079940945 -0.0770868 0.09253837 -0.051427078
000250 15 e3 0e bd c0 a1 2c bd 20 75 68 bd 54 b3 ba 3c
       -0.03488453 -0.042146444 -0.056752324 0.022790588
000260 f8 e1 46 3d 77 f8 59 bd 18 59 e8 bd 53 65 b5 bd
       0.048555344 -0.05321547 -0.11345118 -0.08857217
000270 e5 8a 0a be 9c d5 f5 bd 0b 40 85 bd 78 2c 39 3d
       -0.13529547 -0.120036334 -0.06506356 0.045208424
000280 d3 c8 e8 bd 39 d7 57 3d 00 c3 c4 bb c8 62 28 3d
       -0.11366429 0.052695487 -0.006004691 0.04110983
000290 f9 a8 80 bb e2 9c 1c 3d 70 7a e1 3d 64 f9 3b 3d
       -0.003926393 0.038235553 0.11009681 0.045892134
0002a0 ca 95 09 bd 18 23 bc 3d c1 6f 92 bd 17 a8 bd bd
       -0.033590116 0.09186381 -0.071502216 -0.09260576
0002b0 a8 8b 35 3d 35 db 12 3c 57 83 c2 bc a3 d4 a4 3d
       0.04432264 0.008963396 -0.023744268 0.0804837
0002c0 07 dc 6a 3d e3 33 d8 3d e2 76 84 3d 55 87 7f 3d
       0.05733874 0.105567716 0.064679876 0.062384922
0002d0 a6 7c 01 3c 16 e1 8b bd b4 7e 85 bd a1 34 eb bd
       0.007903254 -0.06830041 -0.06518307 -0.114846475
0002e0 eb d7 43 bd cc 05 f3 3d 64 f5 97 3c 35 2d be 3c
       -0.047813337 0.1186634 0.018549629 0.023214916
0002f0 f3 07 be bd e3 fb b8 bb d4 1d 95 bc 35 d9 8a 3d
       -0.0927886 -0.0056452616 -0.0182027 0.0677971
000300 ae d5 f9 bd da d2 87 3d 40 7b a4 bd 6f ad bf 3c
       -0.12198959 0.066320136 -0.080313206 0.02339813
000310 5b ad a2 3c e1 21 ac 3d 0f ed fe bc d9 22 b1 3d
       0.019858053 0.084048994 -0.031118898 0.08649225
000320 00 f2 e8 bd 5e 6f 60 bd a3 89 9f bd d6 3a 92 3d
       -0.11374283 -0.054793708 -0.07789924 0.07140128
000330 59 c2 a7 3d 2f f6 97 3d 9f fb 27 3c 12 68 d1 3d
       0.08191366 0.07420003 0.010252862 0.10224928
000340 19 dd 93 bc 6a 94 6a 3c 73 94 ed bc 1c 1c 92 3d
       -0.018049764 0.014317611 -0.02900145 0.07134268
000350 9a 16 be bd 71 51 0d 3d d8 b0 d5 3b 65 c7 9e bd
       -0.09281655 0.034501497 0.0065213256 -0.07752875
000360 36 c6 e5 3c 75 cf a1 bd da ea 9c bd 52 bc a1 bd
       0.028048616 -0.079008974 -0.07661982 -0.078972474
000370 94 5a 35 3d f9 d5 99 bc 60 93 00 3e 6f 54 fa 3d
       0.044275835 -0.018778788 0.12556219 0.12223136
000380 96 86 a3 bd fa 74 b9 bc 9d 03 2f 3d 73 73 ca bd
       -0.079846546 -0.022638787 0.042728055 -0.098853014
000390 11 f1 b8 3c 1a 4d 52 bc f3 90 34 3d 78 5a 4d 3d
       0.022575887 -0.012835765 0.044083547 0.050135106
0003a0 81 48 d9 bd 10 02 59 3d 35 96 96 bc 50 00 ad bd
       -0.10609532 0.052980483 -0.018382171 -0.08447325
0003b0 aa 43 aa 3d 5f 14 f7 3d 1a cb cc bd 6f d7 8f bd
       0.08313687 0.12064432 -0.09999676 -0.070235126
0003c0 ec 8e 23 bd 40 96 cf 3d f2 3d a6 3d e1 39 d6 bd
       -0.039931223 0.1013608 0.08117284 -0.10460258
0003d0 b8 44 85 bc 8f 60 06 3e 3a 05 9a 3d df 0b 8c bd
       -0.01626812 0.13122772 0.07520528 -0.06838202
0003e0 30 ac 9c bd 1f a7 4e bd 27 44 96 3d d0 76 34 3d
       -0.0765003 -0.050452348 0.07337218 0.04405862
0003f0 e3 b7 4e bc 20 d9 0e 3d 0c 92 0a bc d3 9d a4 bb
       -0.012617084 0.034875035 -0.008457672 -0.005023697

encoder.layers.0.self_attn.out_proj.bias f4 [64]
000000 7c ef cb 3a a9 d6 6e 3c ad 9f 21 3b 0e 41 5b bb
       0.0015559043 0.014577546 0.0024661825 -0.0033455524
000010 59 c5 db 3a b2 b6 68 3b 07 1a 91 3c ee 08 19 bb
       0.0016767188 0.0035509286 0.017712606 -0.002335127
000020 e9 52 5a 3b 44 d9 60 bb b9 32 08 ba 94 b0 ed 3b
       0.0033313578 -0.0034309188 -0.00051955465 0.007253716
000030 47 69 03 bb 7d 60 93 ba 34 0f 90 3b 7d 0e b5 ba
       -0.0020051764 -0.0011243966 0.0043963436 -0.0013813522
000040 c2 32 fb ba 82 10 37 b9 c7 d4 0d bb f6 2c 16 3c
       -0.0019164907 -0.0001745839 -0.0021641718 0.009165993
000050 65 02 91 3b 03 89 a5 3b e2 64 12 3c c3 0b ce 3b
       0.0044253343 0.0050517335 0.008935185 0.006288023
000060 f8 88 6d bc 55 67 37 bb 45 b2 59 bc d9 f8 e3 39
       -0.014497988 -0.0027985175 -0.013287132 0.0004348222
000070 1e 09 4b bb 98 ad 48 3c 61 eb 7b bb c1 10 d5 ba
       -0.0030980776 0.012248419 -0.0038439857 -0.0016255603
000080 aa 22 89 3b e5 cd 37 bc a5 8a b8 bb c5 c9 81 bc
       0.0041850405 -0.011218523 -0.005631762 -0.015843282
000090 83 7f fd bb a7 76 c6 bb eb d1 18 bc 2b 4d 48 3c
       -0.007736148 -0.006056625 -0.009327392 0.0122254295
0000a0 c1 14 d2 b9 c6 e7 ff bb 21 6a 42 bb fc e2 6e bb
       -0.00040069784 -0.007809612 -0.0029665309 -0.0036451211
0000b0 45 aa 04 bb b0 c5 1c 3b 1a c7 53 bb 19 61 2f bb
       -0.002024309 0.0023921542 -0.0032314719 -0.0026760756
0000c0 c0 bb 2a bc cb c5 83 3a a2 60 0c bc 36 65 dd ba
       -0.01042074 0.0010053454 -0.008567961 -0.0016891125
0000d0 6f 5c 25 3b 78 a9 92 3b cc ef 03 39 73 dd a1 bb
       0.0025232097 0.0044757687 0.00012582465 -0.004939729
0000e0 4a 5d 44 3c 99 e8 30 3b d1 aa ab bb a9 12 1f 3b
       0.0119851325 0.0026994108 -0.0052388688 0.0024272597
0000f0 15 86 9c 3b 45 45 5e 3c e2 cc 80 bc d6 99 7b 3b
       0.004776726 0.01356632 -0.015722696 0.0038391254
