BDG2/results/PatchTST-BDG2.pt (torch, 651122 bytes, 44 tensors)

pos_emb f4 [1, 7, 64]
-0.014104453 -0.003050663 0.009196934 -0.004754926 0.0042267228 0.02910171 0.024705067 0.010235412
0.0075761024 -0.007791473 -0.0019425363 -0.0049370443 -0.015742382 -0.025527285 -0.04954797 -0.045366168
-0.01117745 0.014161249 0.03162386 -0.0077534644 -0.04258005 0.005697785 -0.0025981094 0.017591277
-0.003873266 0.056266483 -0.0438529 -0.015940757 0.018532917 -0.008752223 -0.0018604607 -0.022049597
0.0133727845 0.017144836 -0.013868669 -0.026779272 0.038444474 0.0077181943 0.021589136 -0.013066419
-0.003180944 0.03785323 0.031248417 0.0031915547 -0.027155012 -0.00045119785 -0.017665504 0.013811732
-0.0014815949 -0.0074453396 -0.03695854 0.04072427 0.00061480136 0.02380797 0.017413288 0.008421383
0.032842174 -0.047679484 0.00044609327 -0.009577202 0.010523725 -0.052821483 -0.0047894805 -0.017567232
0.009163405 0.011546821 0.018428698 -0.00057839573 0.00445232 0.008091857 -0.025766071 -0.007537143
0.020610558 -0.009385563 0.0039938255 -0.027492367 0.017738499 -0.009350361 0.021507882 -0.008567663
-0.012342372 0.027826138 0.010453913 -0.026646428 0.005973869 0.0008345361 0.024588276 0.008517969
0.0054590176 0.059123337 -0.0019061441 -0.0005978867 -0.015124752 -0.008413984 -0.003039773 -0.020055
-0.0013041273 0.019861212 -0.009950426 -0.023073716 0.009731961 0.016846074 0.0023339314 -0.05054215
-4.6600242e-05 0.005314063 0.00592627 0.003287151 0.0069465744 0.008317877 0.007896964 -0.009061028
0.017812079 -0.0009793175 -0.015799843 -0.0205659 -0.021693697 0.0004904189 -0.01869814 -0.0033700736
0.0044540013 -0.05504312 0.0038354103 -0.029387621 -0.00076769234 -0.007401767 -0.038510706 0.008305987
0.020644316 0.010219977 0.00036170273 0.02202433 -0.0009939068 0.013226786 -0.018982833 -0.008523851
0.0438153 0.03209578 -0.006149611 -0.027620696 -0.0045105033 0.029374883 0.0048879585 0.006520624
-0.004149435 0.041643504 0.044216607 0.0034915097 -0.014280842 0.006513839 -0.010554464 -0.017051287
-0.029374996 0.042418063 -0.01630312 -0.008981746 0.00893469 0.016644755 0.028116833 -0.00033234234
0.021064077 0.027903901 0.0014336956 0.005179352 -0.01631166 0.004416773 -0.044970848 -0.017744042
0.0017793092 0.0073351986 -0.021467522 -0.011148824 0.0053955773 0.018040845 -0.013084777 -0.0052157184
0.013374664 -0.022402836 0.031516347 0.057409126 -0.0010721328 0.00048483818 -0.03437447 0.02005093
0.012964761 0.014559611 -0.02118564 0.0045566093 -0.016704746 -0.02567327 -0.0014724034 0.022212537
0.015478663 0.017509818 -0.014995448 0.006225796 0.029830817 -0.01686632 -0.008960279 0.0032146408
0.02910361 0.024551708 0.01600227 -0.042463947 0.012022292 0.0072743515 0.010001988 -0.022820683
0.02166997 -0.016034892 0.014927025 0.0027189967 -0.033809204 -0.0071540168 -0.026350204 0.023578316
-0.006211754 -0.0049480875 -0.042847805 -0.020820636 -0.024812955 -0.02822281 -0.014866837 0.010701272
-0.050420966 -0.0029291348 -0.01204405 -0.0076810676 0.016728142 0.008141783 0.03357949 -0.012292656
0.00595568 -0.012035026 0.01694381 -0.021910382 -0.023990363 0.017347362 0.048678506 0.02851347
-0.025537238 -0.01491035 0.0019955738 -0.06253452 0.0069326465 0.0045739408 -0.013933598 0.00017830444
-0.014250422 -0.032619912 0.022996608 0.017558768 -0.068246976 0.01701058 -0.028565291 -0.0197605
00000000: 5d16 67bc a2ed 47bb bdae 163c 36cf 9bbb
00000010: 5280 8a3b b666 ee3c 4862 ca3c 6eb2 273c
00000020: f440 f83b 9d4f ffbb b49c feba eec6 a1bb
00000030: 2bf6 80bc 991e d1bc d0f2 4abd e0d1 39bd
00000040: a021 37bc 9504 683c 0588 013d c610 febb
00000050: 6b68 2ebd 7cb4 ba3b 0b45 2abb 951b 903c
00000060: 9fd6 7dbb af77 663d 199f 33bd 3196 82bc
00000070: 58d2 973c 7c65 0fbc b4da f3ba 5ba1 b4bc
00000080: 8619 5b3c 5473 8c3c 6a39 63bc 3460 dbbc
00000090: f477 1d3d e8e8 fc3b b3db b03c 8914 56bc
000000a0: 6277 50bb fd0b 1b3d aefc ff3c 6729 513b
000000b0: 3074 debc c08e ecb9 3fb7 90bc 9a4a 623c
000000c0: 1332 c2ba 09f8 f3bb d761 17bd 7ece 263d
000000d0: 9f2a 213a ef08 c33c 50a6 8e3c d7f9 093c
000000e0: 8485 063d 904b 43bd a0e1 e939 b2e9 1cbc
000000f0: b46b 2c3c 575b 58bd 13f1 9cbb 28e9 8fbc
00000100: 1b22 163c e12e 3d3c c8f7 963c 7b9f 17ba
00000110: c4e4 913b b593 043c 5e13 d3bc 23fa f6bb
00000120: 79d7 a83c e8c5 19bc a3de 823b ac37 e1bc
00000130: 5450 913c 4232 19bc 4c31 b03c 625f 0cbc
00000140: a937 4abc a4f3 e33c e446 2b3c 9c49 dabc
00000150: 72c0 c33b c5c4 5a3a 5a6d c93c f48e 0b3c
00000160: 8fe1 b23b 502b 723d 95d7 f9ba 7fbb 1cba
00000170: cfcd 77bc cfda 09bc ee36 47bb 624a a4bc
00000180: 40ef aaba fbb3 a23c 1d07 23bc 1705 bdbc
00000190: ce72 1f3c c700 8a3c dff4 183b 4905 4fbd
000001a0: a174 43b8 9721 ae3b 2831 c23b 3e6d 573b
000001b0: 17a0 e33b b447 083c 4562 013c b574 14bc
000001c0: a3ea 913c 715c 80ba ac6e 81bc d179 a8bc
000001d0: fbb6 b1bc 758f 003a d72c 99bc 74dc 5cbb
000001e0: dff2 913b e574 61bd 825b 7b3b 4fbe f0bc
000001f0: f63e 49ba 868a f2bb 67bd 1dbd d615 083c
00000200: 451e a93c b171 273c eba2 bd39 5e6c b43c
00000210: fa45 82ba 29b5 583c e381 9bbc 9fa7 0bbc
00000220: ac77 333d dd76 033d ad82 c9bb cc44 e2bc
00000230: d8cc 93bb 98a3 f03c 2b2b a03b f5aa d53b
00000240: fcf7 87bb 6192 2a3d 791c 353d d0d1 643b
00000250: 31fa 69bc 0b72 d53b a1ec 2cbc 24af 8bbc
00000260: d5a3 f0bc 90be 2d3d 1f8e 85bc 2c28 13bc
00000270: ce62 123c 955a 883c 4655 e63c 3c3e aeb9
00000280: 928e ac3c b996 e43c d7ea bb3a 8eb7 a93b
00000290: 08a0 85bc 94ba 903b 5a33 38bd f45b 91bc
000002a0: b637 e93a 1b5c f03b a8dc afbc 8fa9 36bc
000002b0: 62cd b03b 65ca 933c 8861 56bc 9ee8 aabb
000002c0: 6821 5b3c 2786 b7bc 4917 013d d525 6b3d
000002d0: cf86 8cba e131 fe39 3fcc 0cbd d941 a43c
000002e0: 266a 543c 6f8b 6e3c 828d adbc 9c4f 953b
000002f0: 64d8 88bc c050 d2bc a9fd c0ba 11f7 b53c
00000300: 389a 7d3c c070 8f3c 78af 75bc c301 cc3b
00000310: c25f f43c 3d2b 8abc 22ce 12bc b9ac 523b
00000320: b26a ee3c aa20 c93c 3117 833c adee 2dbd
00000330: 26f9 443c af5d ee3b 61df 233c 71f2 babc
00000340: 3985 b13c 9b5b 83bc 7b90 743c 3231 323b
00000350: 857b 0abd 3e6c eabb 62dc d7bc 5027 c13c
00000360: f88b cbbb 9123 a2bb 2e81 2fbd 0a90 aabc
00000370: 8a44 cbbc 8633 e7bc 0994 73bc 6354 2f3c
00000380: 3786 4ebd baf6 3fbb 6854 45bc 77b1 fbbb
00000390: 7509 893c 1d65 053c a68a 093d 2367 49bc
000003a0: dd27 c33b 8f2e 45bc bfcd 8a3c 677d b3bc
000003b0: 7087 c4bc 0e1c 8e3c 1d63 473d 1595 e93c
000003c0: 7833 d1bc 8a4a 74bc 2cc8 023b 1912 80bd
000003d0: 412b e33b ffe0 953b bf49 64bc 3cf7 3a39
000003e0: 9a7a 69bc 759c 05bd 6263 bc3c 68d7 8f3c
000003f0: 12c5 8bbd c659 8b3c c201 eabc c6e0 a1bc

embedding.pos_emb f4 [1, 7, 64]
-1.2702096 2.179379 -0.648426 1.90798 -0.3990074 -0.24294867 1.1906374 0.62826896
0.380417 0.30633104 -1.9131923 -0.7763876 0.48629382 -0.7911026 0.7567768 0.4201748
0.97055125 1.4250096 -0.21592109 0.2448849 -1.275925 2.3047864 0.3050007 -0.23339815
0.5768555 1.4356053 -1.1098834 -0.03717151 1.1067603 1.502379 1.796812 0.9174883
1.30362 -1.0381261 -0.18672967 -0.30614606 1.3147625 -0.33526954 0.29420912 -0.24645527
0.7762598 0.14726835 0.6599343 0.40241155 -1.7663183 0.9470812 0.3280218 -0.5080036
-0.18064539 -0.22178617 0.74493015 0.57518107 0.5174935 1.0327281 -0.8824037 -0.48534688
0.9182206 -0.15199555 -0.8963089 -0.15088761 1.3357078 0.46494216 0.8879359 0.8837242
-0.23742576 1.0713044 -0.28308132 -0.40041018 0.7806886 -0.39294085 2.1588311 -0.07170056
-1.2031399 -2.0044198 -0.60467374 -0.7646295 -0.64464533 -0.42555007 -0.30731 1.3427992
1.1599302 -0.1807713 -0.2766314 0.6048311 0.59854037 1.4299622 0.37836352 1.4186956
0.56715345 1.1451497 -0.25068524 -0.40163255 -0.67797226 -1.4634478 0.9867244 0.9576647
-0.99967265 -0.5487574 -0.49268728 -2.6199336 1.3625144 -0.3660721 1.3358418 0.62725496
-0.5193668 1.0811621 1.5673777 -0.5330661 0.11179738 1.8284417 1.4394495 -0.6978316
0.36900613 0.08153655 0.24333784 1.101884 -0.18865949 1.3656342 2.1743321 -0.81121534
0.39023176 1.4090004 -2.2118857 -0.14682736 -0.523415 1.0571104 1.7896737 -0.011704891
0.4510943 0.56593364 -0.24463567 1.6606138 0.1704619 -0.25772333 0.19243889 1.3338476
-1.4732985 -0.4650646 -0.6685937 0.58243895 -0.8008998 -1.2769637 -0.17106168 -0.6506721
0.2915756 1.7413256 -1.0366212 0.7421377 0.7685017 0.60204846 -0.6463135 1.1588281
1.4104564 -0.6707494 0.52356327 -1.1408718 0.23866001 -0.1940791 -0.7017427 0.43446058
0.07534627 0.94638985 0.20242095 1.2710633 -0.70093995 1.0180006 -0.30046165 -1.5144356
-0.0010810428 0.07125739 -0.2145644 -1.0867553 -0.34125325 0.3139601 1.6333805 0.4463788
-0.522861 -0.7039145 0.0029904363 0.3942081 0.3517837 -1.4941283 -0.00896494 0.8857914
0.5766596 -0.045185868 -0.3931357 0.8937034 -0.3082269 0.17354989 0.48826778 0.37974238
-0.23573415 0.42158535 0.59109867 0.04955882 -0.7316424 1.2064449 0.53014106 1.1434817
-0.997081 -1.5419474 -1.5364037 0.20106842 0.67794275 0.29852277 -2.0486312 -0.53312427
0.33177605 -1.4598128 0.37225616 -0.017334364 -1.1514604 0.7949463 0.99283385 -0.5505963
0.91908646 1.2081468 -0.9806494 0.8464407 -0.08207431 -0.76211023 -0.8308043 -0.4364919
-1.3076327 -0.17357826 0.9794499 1.1575311 1.024553 -1.5445144 -0.53435975 -0.45919868
-2.2379985 -0.98717064 0.96214014 -0.017920947 0.24758202 -0.6147919 -0.43844727 -1.6494771
-0.07036933 -1.6627469 -0.27111205 -0.404633 -1.1763954 0.79424983 0.887892 0.9507062
-0.80024534 -1.5749869 -0.39964077 0.81501657 -0.13643849 -0.25822735 -0.028967977 -0.4017381
00000000: 3a96 a2bf f27a 0b40 3fff 25bf b038 f43f
00000010: b34a ccbe 89c7 78be ce66 983f 3cd6 203f
00000020: 04c6 c23e 6cd7 9c3e 7ce3 f4bf 56c1 46bf
00000030: 81fb f83e b385 4abf 20bc 413f 2721 d73e
00000040: 0c76 783f b766 b63f 6b1a 5dbe 1bc3 7a3e
00000050: 8351 a3bf 9f81 1340 0d29 9c3e edff 6ebe
00000060: cdac 133f eac1 b73f a910 8ebf 2741 18bd
00000070: 52aa 8d3f f44d c03f f0fd e53f 83e0 6a3f
00000080: 05dd a63f 51e1 84bf 1036 3fbe 2dbf 9cbe
00000090: 234a a83f 73a8 abbe 94a2 963e c55e 7cbe
000000a0: f6b8 463f 84cd 163e 74f1 283f e308 ce3e
000000b0: b816 e2bf ea73 723f 79f2 a73e 860c 02bf
000000c0: 1bfb 38be ea1b 63be beb3 3e3f 113f 133f
000000d0: 747a 043f 6f30 843f 35e5 61bf 637f f8be
000000e0: 8110 6b3f b9a4 1bbe 8074 65bf 4882 1abe
000000f0: 79f8 aa3f e60c ee3e c44f 633f c03b 623f
00000100: bd1f 73be 8120 893f 09f0 90be 9002 cdbe
00000110: 35db 473f 8b2f c9be 4a2a 0a40 bed7 92bd
00000120: 7d00 9abf 6a48 00c0 e6cb 1abf c2be 43bf
00000130: 7a07 25bf b3e1 d9be bc57 9dbe d8e0 ab3f
00000140: 9878 943f 1d1c 39be a2a2 8dbe 36d6 1a3f
00000150: f139 193f 0009 b73f ddb8 c13e d197 b53f
00000160: f830 113f 4494 923f d159 80be c8a2 cdbe
00000170: 978f 2dbf 4252 bbbf f899 7c3f 8429 753f
00000180: 8cea 7fbf 5d7b 0cbf 8241 fcbe feac 27c0
00000190: df66 ae3f cd6d bbbe ddfc aa3f c893 203f
000001a0: 39f5 04bf 8563 8a3f d59f c83f 0577 08bf
000001b0: 06f6 e43d 610a ea3f e23f b83f 17a5 32bf
000001c0: 5fee bc3e a2fc a63d 8e2d 793e 890a 8d3f
000001d0: f42f 41be 1acd ae3f 4228 0b40 cfab 4fbf
000001e0: 75cc c73e 205a b43f 898f 0dc0 e959 16be
000001f0: 87fe 05bf 654f 873f 0714 e53f dfc5 3fbc
00000200: d5f5 e63e 07e1 103f c681 7abe fe8e d43f
00000210: 908d 2e3e 50f4 83be b30e 453e 85bb aa3f
00000220: 0c95 bcbf f21c eebe f528 2bbf b81a 153f
00000230: c507 4dbf 8c73 a3bf cb2a 2fbe 7292 26bf
00000240: 6649 953e c2e3 de3f 01b0 84bf bcfc 3d3f
00000250: 87bc 443f d91f 1a3f cd74 25bf 7b54 943f
00000260: d689 b43f 3cb6 2bbf 3e08 063f 1608 92bf
00000270: 4a63 743e acbc 46be 69a5 33bf 9e71 de3e
00000280: 254f 9a3d 9b46 723f 7047 4f3e 34b2 a23f
00000290: cd70 33bf d84d 823f 1cd6 99be 07d9 c1bf
000002a0: c7b1 8dba 65ef 913d c5b6 5bbe cc1a 8bbf
000002b0: bfb8 aebe 61bf a03e 9d12 d13f c38b e43e
000002c0: 38da 05bf be33 34bf 32fb 433b a5d5 c93e
000002d0: fe1c b43e 993f bfbf afe1 12bc 3ac3 623f
000002e0: f79f 133f d114 39bd 1549 c9be bfc9 643f
000002f0: ebcf 9dbe 10b7 313e 3cfe f93e 986d c23e
00000300: 4b64 71be 09da d73e 3e52 173f 30fe 4a3d
00000310: eb4c 3bbf c96c 9a3f 53b7 073f 9c5d 923f
00000320: b340 7fbf 885e c5bf e0a8 c4bf e1e4 4d3e
00000330: a88d 2d3f fad7 983e c61c 03c0 d57a 08bf
00000340: 8dde a93e 25db babf 5c98 be3e cc00 8ebc
00000350: 0e63 93bf 9a81 4b3f 5c2a 7e3f e1f3 0cbf
00000360: 4049 6b3f 8ea4 9a3f d70b 7bbf 56b0 583f
00000370: 9316 a8bd a819 43bf 97af 54bf de7b dfbe
00000380: 8260 a7bf 80be 31be 3bbd 7a3f fb29 943f
00000390: 8d24 833f a6b2 c5bf cdcb 08bf 171c ebbe
000003a0: 5e3b 0fc0 37b7 7cbf d14e 763f f3ce 92bc
000003b0: 2486 7d3e 0163 1dbf 297c e0be 1122 d3bf
000003c0: cc1d 90bd e4d4 d4bf 33cf 8abe 0e2c cfbe
000003d0: 2094 96bf f553 4b3f e44c 633f 7b61 733f
000003e0: e1dc 4cbf 2c99 c9bf b79d ccbe eda4 503f
000003f0: 88b6 0bbe 6036 84be 404e edbc 9eb0 cdbe

embedding.proj.weight f4 [64, 96]
0.09077762 -0.042341035 0.034016944 -0.006601306 0.032954 0.09435584 0.008429439 -0.02620374
-0.057730902 0.104940906 -0.08575438 -0.09082964 -0.09162409 -0.033055548 0.10003342 -0.0009831899
-0.04009481 -0.04575555 -0.085303314 0.10721975 -0.093611315 0.0704096 -0.0002052912 -0.07469005
-0.023787402 0.008415226 0.07378761 -0.056282233 -0.08925293 -0.117134266 0.011593527 -0.11715027
-0.105103746 -0.054728158 -0.11191988 0.0675891 -0.029921051 0.05987091 0.07723604 -0.010657744
0.048185214 0.07981865 0.065263 0.082783066 0.14373954 0.035106394 0.13995366 -0.054139152
-0.065079026 0.06323888 0.09343284 -0.017289707 -0.09967415 -0.0041094283 -0.0350723 -0.09335584
0.06859975 -0.030918155 0.064063124 -0.09377026 -7.122034e-05 0.07276755 -0.05414172 -0.09723239
-0.017959425 0.038932174 0.03268338 -0.078623734 -0.085185714 0.016121827 0.040703434 -0.042645335
-0.07669372 0.0468389 0.05011239 -0.08889681 0.08035337 0.009111809 -0.06357877 0.0860058
-0.029253516 -0.07199185 -0.0348692 0.040873542 -0.05048807 -0.043652054 -0.0015312914 -0.081550494
0.020165153 -0.058653403 0.016579237 0.037047435 -0.06733776 0.08619116 0.02527451 -0.052512646
-0.056742687 0.0113517335 -0.04196208 0.07393091 -0.05605849 0.026709085 -0.07926824 -0.061102785
0.066241 0.0494621 0.035871077 -0.071942724 0.09285362 0.09777207 -0.05556062 0.01570311
0.049087726 0.035917044 -0.09549978 -0.08731442 -0.009893061 -0.028215468 0.10620827 0.06038972
0.15515259 0.07630095 0.12969048 0.12821984 0.12869482 -0.038684182 -0.008289833 0.06281755
-0.08131912 -0.018556552 -0.19162591 -0.222577 -0.2140336 -0.20872885 -0.23138897 -0.20314291
-0.21371919 -0.089366294 -0.10683382 -0.13189258 0.025453912 -0.0769176 -0.015507391 0.02271611
0.060797207 0.035643287 0.023483185 -0.083244435 -0.08647995 0.055663157 0.07448071 0.05018772
-0.010389687 0.08458823 0.08988949 -0.062415533 0.10522344 -0.066120215 0.029323447 -0.007245066
-0.029617159 0.005572899 0.026416495 0.06272748 0.021021653 0.03540103 -0.0019065003 0.050521094
0.059414238 0.047943328 0.06696914 0.013234604 -0.0028794375 -0.015059378 0.053693753 0.065398246
-0.042659175 -0.06737862 -0.0007652607 -0.09020178 0.07999918 -0.05118938 0.058000147 0.09365593
-0.01645593 0.089071974 0.06607325 0.0065118615 -0.09913216 -0.08149627 -0.0079824105 -0.0940452
-0.10225309 0.039359584 0.09684595 0.0231428 -0.0884001 0.05313165 -0.042049564 -0.053430222
-0.09381938 -0.04202249 0.09696373 -0.026549358 -0.049149897 -0.08093059 -0.026634522 -0.078733735
-0.01743532 0.005293918 -0.011396685 0.09021207 -0.0164362 -0.09844985 0.004877834 0.036071125
-0.025152134 0.06941588 -0.019427404 -0.11285451 0.005664562 -0.04423385 -0.028566089 -0.13732834
0.013313115 -0.047687422 -0.11357831 0.04328237 0.0012245682 -0.008245452 0.037403595 0.019251725
0.047258552 0.044775084 -0.07067704 0.02006771 0.03713474 -0.08377927 -0.031901 0.019200318
-0.028301042 0.045555852 -0.059516076 0.000101062054 0.08174759 -0.043889318 -0.09046459 -0.09651182
0.08560805 -0.080005415 -0.040609866 -0.004603963 0.026511349 0.07965753 0.034699146 -0.018564686
00000000: 9ee9 b93d cb6d 2dbd 5a55 0b3d c54f d8bb
00000010: c6fa 063d a23d c13d a11b 0a3c 3aa9 d6bc
00000020: 3d77 6cbd 42eb d63d fe9f afbd e404 babd
00000030: 69a5 bbbd 4165 07bd 52de cc3d 61de 80ba
00000040: 753a 24bd 2c6a 3bbd 81b3 aebd 0796 db3d
00000050: 4ab7 bfbd e932 903d 7043 57b9 19f7 98bd
00000060: ccdd c2bc 04e0 093c f51d 973d 3388 66bd
00000070: 3dca b6bd 17e4 efbd c7f2 3d3c 7bec efbd
00000080: a240 d7bd a22a 60bd 4036 e5bd 276c 8a3d
00000090: fe1c f5bc 333b 753d ee2d 9e3d d19d 2ebc
000000a0: dc5d 453d f677 a33d 9ca8 853d 2b8a a93d
000000b0: 7530 133e b9cb 0f3d 0350 0f3e 04c1 5dbd
000000c0: 2748 85bd 6383 813d b859 bf3d 25a3 8dbc
000000d0: f621 ccbd 62a8 86bb f9a7 0fbd 5931 bfbd
000000e0: 077e 8c3d 1248 fdbc 8733 833d 9f0a c0bd
000000f0: 215c 95b8 2707 953d b5c3 5dbd c621 c7bd
00000100: a51f 93bc 5877 1f3d 02df 053d 7b05 a1bd
00000110: d975 aebd ec11 843c a5b8 263d e0ac 2ebd
00000120: 9911 9dbd 25da 3f3d a642 4d3d 880f b6bd
00000130: 4f90 a43d b249 153c 9635 82bd cf23 b03d
00000140: 12a5 efbc 7770 93bd 02d3 0ebd 046b 273d
00000150: 94cc 4ebd 7fcc 32bd 9db5 c8ba f203 a7bd
00000160: 6431 a53c 8d3e 70bd 2ed1 873c 0dbf 173d
00000170: 61e8 89bd fe84 b03d 7d0c cf3c 8017 57bd
00000180: 056b 68bd 9ffc 393c 6ee0 2bbd 1769 973d
00000190: 969d 65bd 03cd da3c 6357 a2bd ea46 7abd
000001a0: 5da9 873d c598 4a3d 8ded 123d b556 93bd
000001b0: 0a2a be3d b93c c83d 8893 63bd cfa3 803c
000001c0: 3610 493d c01d 133d 6395 c3bd e7d1 b2bd
000001d0: 8116 22bc 2024 e7bc b983 d93d 365b 773d
000001e0: 52e0 1e3e ac43 9c3d 95cd 043e 104c 033e
000001f0: 93c8 033e 4e73 1ebd 14d2 07bc 7da6 803d
00000200: a48a a6bd e903 98bc 9539 44be 3aeb 63be
00000210: a02b 5bbe 04bd 55be 3bf1 6cbe b204 50be
00000220: 34d9 5abe ad05 b7bd b1cb dabd d90e 07be
00000230: b984 d03c fa86 9dbd b612 7ebc 2317 ba3c
00000240: 7e06 793d b2fe 113d cf5f c03c 0f7c aabd
00000250: 661c b1bd 0dff 633d 5889 983d a491 4d3d
00000260: 8139 2abc 983c ad3d fb17 b83d 6ea7 7fbd
00000270: 637f d73d 096a 87bd ba37 f03c 0568 edbb
00000280: af9f f2bc dd9c b63b 6867 d83c 4477 803d
00000290: 9a35 ac3c ac00 113d 89e3 f9ba 35ef 4e3d
000002a0: 585c 733d 3960 443d 1e27 893d f4d5 583c
000002b0: f2b4 3cbb 9cbb 76bc fbed 5b3d 84ef 853d
000002c0: 63bb 2ebd cdfd 89bd c79b 48ba b6bb b8bd
000002d0: 9cd6 a33d f5ab 51bd 9091 6d3d aece bf3d
000002e0: 96ce 86bc 5e6b b63d 6951 873d 7461 d53b
000002f0: cd05 cbbd 84e7 a6bd a8c8 02bc c59a c0bd
00000300: 116a d1bd 8437 213d 2b57 c63d f895 bd3c
00000310: 1d0b b5bd 93a0 593d 2a3c 2cbd a6d9 5abd
00000320: 6024 c0bd c61f 2cbd ec94 c63d 0a7e d9bc
00000330: 6751 49bd f0be a5bd a430 dabc 273f a1bd
00000340: 84d4 8ebc 9a78 ad3b 29b9 3abc 1bc1 b83d
00000350: 36a5 86bc 13a0 c9bd 3dd6 9f3b 51bf 133d
00000360: d90b cebc ea29 8e3d 3826 9fbc 4420 e7bd
00000370: ca9d b93b 8e2e 35bd 6e03 eabc cd9f 0cbe
00000380: 401f 5a3c e353 43bd bf9b e8bd db48 313d
00000390: b181 a03a ef17 07bc 8334 193d cbb5 9d3c
000003a0: 2f92 413d 1466 373d 20bf 90bd 0a65 a43c
000003b0: 991a 183d 7794 abbd 9faa 02bd fc49 9d3c
000003c0: 96d7 e7bc c698 3a3d 21c7 73bd 47f1 d338
000003d0: 486b a73d 49c5 33bd 8045 b9bd fda7 c5bd
000003e0: 4653 af3d e1d9 a3bd 8856 26bd d7dc 96bb
000003f0: 542e d93c 7d23 a33d b120 0e3d f814 98bc

embedding.proj.bias f4 [64]
0.025776261 -0.06396135 -0.091368556 0.047903053 0.08970338 0.08934885 0.0033385227 0.005455656
-0.0761028 -0.07192668 -0.056797266 0.019524612 0.051143736 0.0073667453 0.06584557 -0.07029664
0.014564827 -0.06604338 0.052586246 0.0971769 0.026818676 -0.07448233 -0.052814122 0.0022050294
-0.014287342 -0.026194265 -0.09336386 0.09726161 0.01886878 0.008630442 0.046713576 0.030327735
0.05125014 0.015335854 -0.01926915 0.03528212 0.015255423 -0.08429403 0.0015111411 0.0045330673
-0.01942036 0.0536526 -0.02533262 0.04155503 -0.08538475 0.08738353 0.09665677 -0.061928257
0.045296084 -0.03467507 -0.07315984 0.07781631 -0.053299922 0.015338951 0.035020083 -0.02084822
0.020344567 0.0019494722 -0.015626503 0.09783904 -0.050124146 0.031136071 -0.03564291 -0.040491812
00000000: bd28 d33c 2bfe 82bd 701f bbbd fe35 443d
00000010: 68b6 b73d 88fc b63d 1ecb 5a3b 5cc5 b23b
00000020: c9db 9bbd 4c4e 93bd 40a4 68bd 14f2 9f3c
00000030: 187c 513d bd64 f13b 0bda 863d aff7 8fbd
00000040: 50a1 6e3c c041 87bd ad64 573d af04 c73d
00000050: d7b2 db3c 318a 98bd 9f53 58bd 4182 103b
00000060: 7515 6abc 5b95 d6bc 8d35 bfbd 1831 c73d
00000070: b392 9a3c b366 0d3c bc56 3f3d df71 f83c
00000080: abeb 513d 3c43 7b3c 56da 9dbc fc83 103d
00000090: e2f1 793c 59a2 acbd 7b11 c63a 208a 943b
000000a0: 7217 9fbc d4c2 5b3d 5b86 cfbc 9b35 2a3d
000000b0: 33de aebd 23f6 b23d fcf3 c53d 7ca8 7dbd
000000c0: 6388 393d 7207 0ebd d4d4 95bd 285e 9f3d
000000d0: 0551 5abd 3950 7b3c 3871 0f3d e3c9 aabc
000000e0: a6a9 a63c 6f85 ff3a 2703 80bc d65f c83d
000000f0: fa4e 4dbd 1311 ff3c 4dfe 11bd beda 25bd

emb_norm.weight f4 [64]
0.9894255 1.0714151 0.9818246 1.047453 1.0499759 0.978284 0.9800021 1.072704
0.9899456 1.0051879 1.017647 1.0085738 1.0141968 1.0021509 0.97641075 0.94431204
1.0119096 0.98889077 0.9970454 1.0444137 0.9619813 1.0106657 0.99804485 0.97331613
0.9945001 1.0562937 1.0513071 1.0068539 0.95261496 1.0009303 1.0211468 1.005094
1.0090274 1.0091848 1.0224727 0.9825943 1.0199391 1.0183053 1.0176713 1.0417229
1.0118371 0.97920966 1.0180936 0.97135985 0.97708136 1.0596873 0.95649743 0.8559888
1.002876 0.979971 1.0217694 1.014117 0.983908 1.0066683 1.0125929 1.0009487
0.98839605 1.0195769 1.0199392 0.9949261 1.0012779 1.0019379 1.0335926 1.0148668
00000000: fd4a 7d3f 2124 893f db58 7b3f f112 863f
00000010: 9c65 863f d270 7a3f 6be1 7a3f 5d4e 893f
00000020: 136d 7d3f ffa9 803f 4242 823f f218 813f
00000030: 33d1 813f 7b46 803f 0ef6 793f 6fbe 713f
00000040: 4186 813f f227 7d3f 5e3e 7f3f 59af 853f
00000050: 6844 763f 7e5d 813f de7f 7f3f 3f2b 793f
00000060: 8f97 7e3f a234 873f 3b91 863f 97e0 803f
00000070: 93de 733f 7c1e 803f f0b4 823f eca6 803f
00000080: cf27 813f f82c 813f 63e0 823f 4d8b 7b3f
00000090: 5d8d 823f d457 823f 0e43 823f 2d57 853f
000000a0: e183 813f 7cad 7a3f e450 823f 0aab 783f
000000b0: 0122 7a3f d5a3 873f 04dd 743f 1522 5b3f
000000c0: 3e5e 803f 61df 7a3f 57c9 823f 96ce 813f
000000d0: 65e1 7b3f 82da 803f a59c 813f 161f 803f
000000e0: 8607 7d3f 7f81 823f 5e8d 823f 7ab3 7e3f
000000f0: e029 803f 803f 803f c34c 843f 28e7 813f

emb_norm.bias f4 [64]
-0.002008488 0.0016083657 0.0022914573 -0.00931095 -0.003565522 0.011254108 0.0023945463 -0.0011287426
0.008888782 -0.01056029 0.0063810037 -0.007158788 -0.011762398 -0.006323682 0.0045436635 -0.011381287
0.0050389124 0.011836245 0.002649401 0.00271369 -0.0123793185 -0.0009359642 -0.007531793 0.009581403
-0.0055737495 -0.00078367034 -0.01276413 -0.005458521 0.0003977641 -0.02205214 0.002378758 0.003968333
-0.0006290317 0.006929445 0.0026262165 0.0048705777 -0.007882278 0.0034460742 0.0076393955 -0.027464869
-0.008086522 0.010406538 -0.0046847826 0.0030130083 0.0032658144 0.0045061186 0.0062715253 0.0007976535
-0.004443403 0.019663142 -0.002744031 0.0064882855 0.001988541 0.0013635674 0.0009122346 -0.0016905688
0.0069217184 -0.013239171 -0.0021271924 -6.066333e-05 -0.014152517 0.0003390748 -0.0013305715 -0.0095778145
00000000: d6a0 03bb cccf d23a 462c 163b f48c 18bc
00000010: 88ab 69bb 2663 383c d2ed 1c3b 51f2 93ba
00000020: 41a2 113c 1105 2dbc bd17 d13b 4494 eabb
00000030: 13b7 40bc e436 cfbb 03e3 943b 9478 3abc
00000040: 761d a53b cfec 413c 93a1 2d3b 2ad8 313b
00000050: a0d2 4abc 7f5b 75ba 42cd f6bb 51fb 1c3c
00000060: 00a4 b6bb 3a6f 4dba a420 51bc 65dd b2bb
00000070: fe8a d039 b1a6 b4bc f0e4 1b3b ca08 823b
00000080: 9ae5 24ba 6610 e33b 9a1c 2c3b 5e99 9f3b
00000090: ac24 01bc 88d7 613b e553 fa3b 01fe e0bc
000000a0: 557d 04bc 2f80 2a3c ce82 99bb e475 453b
000000b0: 4607 563b 10a8 933b 5e81 cd3b 9f19 513a
000000c0: f799 91bb 9914 a13c 33d5 33bb af9b d43b
000000d0: 2f52 023b bbb9 b23a 0723 6f3a 1396 ddba
000000e0: 95cf e23b 1ce9 58bc 5e68 0bbb c170 7eb8
000000f0: f5df 67bc d9c5 b139 9266 aeba 44ec 1cbc

encoder.layers.0.self_attn.in_proj_weight f4 [192, 64]
0.10309502 0.076581396 0.014060229 -0.07685182 -0.11569886 0.1628094 0.028923335 -0.09335348
-0.10576849 -0.11618699 0.004826594 0.019224338 -0.1225179 -0.056782942 0.09384778 -0.049047142
0.07588283 -0.038347706 -0.05615924 -0.023150094 -0.100641154 0.123568095 -0.1045146 0.0038253597
-0.09230615 -0.10739731 -0.06650878 0.029661939 -0.048868556 0.13253546 -0.103095375 -0.04338305
0.14793016 -0.09536999 0.07817145 0.10792515 0.058578715 -0.04809059 -0.12497211 -0.021993222
0.15023674 -0.011654348 -0.10990774 0.06745245 -0.059283055 -0.1554319 0.02110129 0.14196281
0.1286396 -0.12746274 -0.09379406 -0.11257966 0.16098282 -0.027777916 -0.091318294 0.006252283
-0.116264515 0.03639724 -0.01619332 -0.038044695 -0.03911594 -0.0613646 -0.09853899 0.051953446
-0.0031752852 -0.07265914 -0.025104465 -0.18442301 -0.12820235 0.023315452 0.07710451 0.11772041
0.07345 -0.026223598 0.023800302 -0.0838336 -0.04744148 0.007164051 -0.08645895 0.0035211432
0.04770779 0.056917068 -0.055547394 0.059747104 -0.06921714 -0.0039722375 -0.07307368 0.0323889
0.00827473 -0.11978933 0.08743836 0.12633386 -0.15174249 0.007943611 0.028420355 0.10320258
-0.0050763953 -0.049720716 0.11349404 0.1400713 -0.0787287 -0.12168094 -0.05821815 0.041592356
0.14429516 -0.054624286 0.10411335 0.04574618 -0.1194987 0.1121047 -0.0323647 -0.11313844
-0.052516513 0.02468938 0.106293045 -0.0700769 0.011630895 -0.13671222 -0.14157413 -0.153348
-0.05948254 -0.0823011 0.17624484 0.104018696 -0.06052344 -0.12909995 -0.08859185 0.0014025155
0.100790545 0.054138977 -0.10280026 -0.027058272 -0.044057887 0.03890097 0.024428478 0.030876951
0.039050415 -0.08677229 0.057737935 -0.004577078 0.14020035 0.119472496 0.112478286 -0.038498893
0.02178186 -0.029394967 -0.026385369 -0.0182884 -0.0027238335 0.05925182 -0.15460466 0.10319149
-0.034277305 0.12659965 -0.04504208 0.07614798 0.0759704 0.14302516 -0.018422319 0.14757928
-0.030030826 0.076376766 -0.0145934075 0.054364387 0.100309856 -0.10392935 0.06982005 -0.14828688
-0.097798936 0.13082828 -0.007747792 0.058704987 -0.04627297 0.05476812 -0.10948632 0.1583123
-0.120811775 0.009305489 -0.01432202 0.094323136 0.10058946 -0.008898682 0.0696775 -0.03620538
-0.045553084 0.00082790153 -0.012464037 0.14509831 0.057879057 -0.11209329 -0.025259845 -0.09905165
-0.05942099 -0.016402556 0.16431211 0.07360771 -0.038589522 0.14615098 -0.106994346 0.09822079
0.10163537 -0.083804294 0.07046583 -0.13556549 -0.03350005 -0.04333882 -0.017324403 0.13522886
-0.025149958 0.052905694 0.1400598 -0.07195775 0.027088147 0.11953413 -0.11696682 -0.019217802
-0.14407763 -0.13655102 0.040126767 -0.07150575 -0.08585931 -0.1605946 -0.02725208 -0.07616066
-0.024321718 0.07466799 -0.048704423 -0.10504601 -0.08456319 -0.010613976 -0.0071402825 -0.11670755
-0.07692509 0.098169945 0.098332 0.10058305 -0.051036563 0.13934214 -0.024194844 0.08920121
0.07507851 -0.046027113 0.12797575 0.09519985 -0.016112687 -0.048629276 -0.014567373 -0.0252773
-0.110508576 0.14534025 -0.050436277 -0.093630105 0.08846886 0.101251006 -0.03222977 -0.1523808
00000000: 7b23 d33d b5d6 9c3d e05c 663c 7d64 9dbd
00000010: 86f3 ecbd 82b7 263e a1f0 ec3c 1c30 bfbd
00000020: 269d d8bd 72f3 edbd 6828 9e3b 5c7c 9d3c
00000030: aaea fabd 3b95 68bd 4433 c03d a8e5 48bd
00000040: 7568 9b3d 7c12 1dbd 3b07 66bd 44a5 bdbc
00000050: f31c cebd 4511 fd3d c00b d6bd e3b2 7a3b
00000060: 020b bdbd 1ff3 dbbd c135 88bd 98fd f23c
00000070: 652a 48bd 60b7 073e ab23 d3bd 6db2 31bd
00000080: 017b 173e 5751 c3bd 5a18 a03d dc07 dd3d
00000090: 3cf0 6f3d a3fa 44bd 61f1 ffbd 212b b4bc
000000a0: a9d7 193e e1f1 3ebc 4f17 e1bd 8324 8a3d
000000b0: cad2 72bd 8a29 1fbe 9ddc ac3c b35e 113e
000000c0: 19ba 033e 9885 02be 1a17 c0bd 2a90 e6bd
000000d0: aed8 243e 838e e3bc 1605 bbbd f4df cc3b
000000e0: 171c eebd 4615 153d daa7 84bc c1d4 1bbd
000000f0: 0938 20bd 7259 7bbd cfce c9bd 23cd 543d
00000100: 7218 50bb 51ce 94bd e1a7 cdbc 63d9 3cbe
00000110: 7a47 03be 0c00 bf3c f8e8 9d3d 6617 f13d
00000120: f46c 963d dfd2 d6bc daf8 c23c f3b0 abbd
00000130: ff51 42bd 6ac0 ea3b 6411 b1bd fbc2 663b
00000140: 3e69 433d df21 693d aa85 63bd 61b9 743d
00000150: b7c1 8dbd 8b29 82bb a7a7 95bd 39aa 043d
00000160: bc92 073c 1c54 f5bd e212 b33d aa5d 013e
00000170: 6262 1bbe eb25 023c ced1 e83c e05b d33d
00000180: e457 a6bb f3a7 4bbd 906f e83d da6e 0f3e
00000190: 833c a1bd db33 f9bd 2876 6ebd bf5c 2a3d
000001a0: 1cc2 133e b7bd 5fbd 6139 d53d 5960 3b3d
000001b0: bcbb f4bd 2697 e53d d990 04bd 20b5 e7bd
000001c0: 8e1b 57bd 6241 ca3c 2bb0 d93d 7a84 8fbd
000001d0: 828f 3e3c 4afe 0bbe cff8 10be 4207 1dbe
000001e0: f7a3 73bd 7b8d a8bd 8779 343e c107 d53d
000001f0: 6de7 77bd c732 04be a56f b5bd 9cd4 b73a
00000200: 466b ce3d d5c0 5d3d f188 d2bd 4fa9 ddbc
00000210: 0b76 34bd a056 1f3d 3b1e c83c a9f1 fc3c
00000220: 54f3 1f3d acb5 b1bd 9d7e 6c3d 50fb 95bb
00000230: ae90 0f3e ffad f43d 045b e63d 04b1 1dbd
00000240: df6f b23c b7cd f0bc 2126 d8bc 8ed1 95bc
00000250: 5882 32bb 09b2 723d af50 1ebe 0f56 d33d
00000260: 5c66 0cbd 57a3 013e 0b7e 38bd 79f3 9b3d
00000270: 5e96 9b3d 3075 123e 67ea 96bc 061f 173e
00000280: 3503 f6bc 6c6b 9c3d 3019 6fbc 31ad 5e3d
00000290: 416f cd3d e9d8 d4bd d0fd 8e3d 84d8 17be
000002a0: cf4a c8bd d9f7 053e 31e1 fdbb a474 703d
000002b0: ba88 3dbd 8954 603d 5d3a e0bd 9f1c 223e
000002c0: 2a6c f7bd 0d76 183c e8a6 6abc 7d2c c13d
000002d0: d901 ce3d c7cb 11bc 14b3 8e3d 184c 14bd
000002e0: df95 3abd 8807 593a f635 4cbc a794 143e
000002f0: 9712 6d3d 2b91 e5bd bced cebc 97db cabd
00000300: 6d63 73bd a75e 86bc 6f41 283e a4bf 963d
00000310: 0c10 1ebd 9aa8 153e da1f dbbd fb27 c93d
00000320: 3426 d03d 96a1 abbd 6450 903d aed1 0abe
00000330: 5937 09bd 0c84 31bd e8eb 8dbc 6f79 0a3e
00000340: 4907 cebc a4b3 583d d66b 0f3e 965e 93bd
00000350: f6e7 dd3c 4fce f43d 4d8c efbd a76e 9dbc
00000360: 1689 13be 08d4 0bbe f75b 243d 9b71 92bd
00000370: 02d7 afbd e972 24be c13f dfbc 1ffa 9bbd
00000380: 573e c7bc 88eb 983d 4a7e 47bd 5d22 d7bd
00000390: 772f adbd 3ee6 2dbc 08f9 e9bb 5e04 efbd
000003a0: e78a 9dbd 530d c93d 4a62 c93d 7cfe cd3d
000003b0: b70b 51bd b5af 0e3e 4434 c6bc 20af b63d
000003c0: c3c2 993d ed86 3cbd 130c 033e 24f8 c23d
000003d0: c1fe 83bc 7e2f 47bd feab 6ebc 5712 cfbc
000003e0: 5252 e2bd 13d4 143e 4596 4ebd 24c1 bfbd
000003f0: 292f b53d b05c cf3d 5d03 04bd b609 1cbe

encoder.layers.0.self_attn.in_proj_bias f4 [192]
-0.029229261 -0.04047051 -0.003504162 0.0025269948 -0.017884653 0.0021652456 0.024209492 0.008016769
-0.07857756 -0.009585637 -0.071719974 0.003656539 0.010780125 0.029146649 -0.11298315 -0.0071531474
-0.05477559 0.033867903 -0.012544534 -0.061418623 0.028486792 -0.046882086 -0.050543655 -0.06272436
0.030019283 0.03590029 -0.024877857 -0.044751048 0.011389891 0.05264379 0.065067284 0.07436879
0.007848403 0.014850001 0.03586363 0.025640715 -0.004903098 -0.003698247 0.035658523 0.0028843777
-0.00100311 -0.044053636 -0.025473557 0.03766367 0.022301288 0.028335214 0.0022409484 0.017656237
0.015305834 -0.014671678 0.031541742 -0.015707152 -0.009460562 -0.008857527 0.006607854 0.0071837073
-0.010180838 -0.008077544 0.026594223 0.01595791 0.031063633 -0.008561933 -0.05507213 -0.0054715932
1.3218878e-05 1.932661e-05 1.6274626e-05 -2.3718908e-06 -7.5927774e-06 -1.29785285e-05 6.682981e-05 9.689836e-06
-3.4605346e-05 3.5279983e-05 -1.8236222e-05 6.074563e-05 1.9603089e-05 -1.2599008e-05 1.0046397e-05 2.2691961e-07
4.9019658e-05 2.103142e-05 -3.7460795e-05 3.1500294e-05 1.0612405e-05 -4.491993e-06 1.8926334e-05 -4.6578957e-06
-1.7818678e-05 -5.6208937e-06 -2.98584e-05 -2.8488006e-05 -3.9805862e-05 2.047443e-05 -1.9852574e-05 -3.6375109e-06
-1.8115994e-05 1.3411232e-05 2.1485164e-05 1.7484563e-05 -6.5304134e-06 7.584883e-06 9.589261e-06 1.9782827e-05
-9.779461e-06 -6.804807e-05 -5.2518067e-06 -8.076817e-07 1.240657e-06 7.1841805e-06 1.7382688e-05 5.680564e-05
3.9678685e-05 -4.2872247e-07 3.846941e-05 -2.5618136e-05 -1.851286e-05 1.1180052e-05 -3.006502e-05 4.514976e-06
-4.9226095e-05 1.4966919e-05 2.260769e-05 -9.623451e-06 1.6594717e-05 -6.739978e-06 1.0795176e-05 -7.202809e-06
0.004949621 0.011916514 -0.012442169 0.013112543 0.0020911668 -0.0063426066 -8.47409e-05 -0.00084370305
0.010211952 0.0115810875 0.0043722503 -0.006250527 0.0006294139 -0.0035003603 -0.0061839423 0.0041378615
0.0028077643 -0.006701678 0.0028701266 -0.006326796 0.0035280627 -0.013716706 -0.017801557 -0.0059388597
0.0042975675 0.0028403157 -0.01129396 -0.0073349825 -0.00081191224 0.016473753 0.0009868351 -0.00046225396
-0.008084045 -0.008789581 -0.0061828764 -0.007898633 -0.0020961624 0.009362016 0.0053773676 -0.0015651649
-0.0011500112 0.0011166853 -0.00936399 -0.0039649415 -0.0031564198 0.00013358222 0.002913054 -0.0074661174
-0.007918017 0.00015975683 -0.0015338644 0.005383546 0.003953811 0.0053875977 0.006780212 5.1744482e-05
-0.0036505195 -0.0023352993 -0.010910406 0.0033552884 -0.00028723746 0.0023771646 0.0059076836 -0.00086616434
00000000: 3472 efbc 68c4 25bd 15a6 65bb f09b 253b
00000010: d682 92bc cbe6 0d3b fc52 c63c c458 033c
00000020: 46ed a0bd 130d 1dbc ece1 92bd 8ba2 6f3b
00000030: 1f9f 303c f4c4 ee3c b663 e7bd f364 eabb
00000040: 5e5c 60bd 12b9 0a3d 9787 4dbc 1892 7bbd
00000050: 225d e93c 6e07 40bd dd06 4fbd a175 80bd
00000060: 00eb f53c 2f0c 133d a6cc cbbc e04c 37bd
00000070: aa9c 3a3c 04a1 573d ff41 853d aa4e 983d
00000080: 9796 003c 6b4d 733c bee5 123d 7a0c d23c
00000090: 2baa a0bb 4a5e 72bb ac0e 123d d407 3d3b
000000a0: c97a 83ba 9671 34bd ecad d0bc 3845 1a3d
000000b0: 31b1 b63c 401f e83c e0dc 123b d0a3 903c
000000c0: 52c5 7a3c 7a61 70bc ea31 013d 49ac 80bc
000000d0: 7900 1bbc 291f 11bc b286 d83b 4e65 eb3b
000000e0: 88cd 26bc ad57 04bc 21dc d93c 2aba 823c
000000f0: 2979 fe3c 5a47 0cbc 5093 61bd 0d4b b3bb
00000100: a6c6 5d37 941f a237 7e85 8837 c62c 1fb6
00000110: 76c5 feb6 5bbe 59b7 fb26 8c38 8791 2237
00000120: 3525 11b8 98f9 1338 fdf9 98b7 20c9 7e38
00000130: 5071 a437 5460 53b7 f28c 2837 30a7 7334
00000140: 759a 4d38 a16c b037 391f 1db8 2f1f 0438
00000150: ef0b 3237 edb9 96b6 fec3 9e37 054b 9cb6
00000160: 5279 95b7 1c9b bcb6 6d78 fab7 87f9 eeb7
00000170: 38f5 26b8 81c0 ab37 1489 a6b7 f61b 74b6
00000180: cdf7 97b7 ce00 6137 0a3b b437 d0ab 9237
00000190: d31f dbb6 a681 fe36 90e1 2037 4cf3 a537
000001a0: 7712 24b7 08b5 8eb8 ad38 b0b6 77cf 58b5
000001b0: a684 a635 a40f f136 0ad1 9137 9742 6e38
000001c0: aa6c 2638 2b2b e6b4 375a 2138 87e6 d6b7
000001d0: 104c 9bb7 f591 3b37 2434 fcb7 597f 9736
000001e0: 1e78 4eb8 6d1a 7b37 a5a5 bd37 6874 21b7
000001f0: e234 8b37 f827 e2b6 ee1c 3537 a8af f1b6
00000200: 6e30 a23b 7b3d 433c 3dda 4bbc fed5 563c
00000210: f50b 093b a4d5 cfbb edb6 b1b8 f42b 5dba
00000220: 0850 273c 9abe 3d3c 1845 8f3b 39d1 ccbb
00000230: 40ff 243a 4d66 65bb aba2 cabb e696 873b
00000240: 7802 383b c099 dbbb bc18 3c3b 0351 cfbb
00000250: 1237 673b 09bc 60bc 92d4 91bc c49a c2bb
00000260: 9cd2 8c3b 9724 3a3b 4d0a 39bc 4b5a f0bb
00000270: 82d6 54ba f7f3 863c b158 813a ad5a f2b9
00000280: f172 04bc 2d02 10bc ba99 cabb 4569 01bc
00000290: c55f 09bb 2463 193c a134 b03b 3826 cdba
000002a0: f9bb 96ba be5d 923a 6c6b 19bc 57ec 81bb
000002b0: f0db 4ebb 3412 0c39 f0e8 3e3b 55a6 f4bb
000002c0: 92ba 01bc 6684 2739 f30b c9ba 7568 b03b
000002d0: f88e 813b 728a b03b 8a2c de3b 3708 5938
000002e0: 8e3d 6fbb d20b 19bb 8fc1 32bc 66e4 5b3b
000002f0: 5c98 96b9 34ca 1b3b 3e95 c13b 4e0f 63ba

encoder.layers.0.self_attn.out_proj.weight f4 [64, 64]
-0.012171184 -0.06479616 0.077138424 0.005268621 -0.03712954 0.12679237 0.0668919 -0.06655271
-0.10545036 -0.015422379 0.0840035 0.08325283 0.101836234 -0.08405963 0.066025235 0.006908226
0.059608098 0.030495083 0.056692917 0.0033989763 0.0364802 -0.0026322342 -0.07098525 -0.0777074
0.1453136 0.043762688 0.14090264 0.05327987 -0.05589884 -0.079314545 -0.09993583 -0.11224981
-0.098646045 0.124325424 0.121932946 0.035241622 -0.105307624 -0.013294287 0.008423427 -0.069063604
0.026620304 -0.0036173507 -0.1190843 0.0084951855 0.018837532 -0.035394464 -0.070159286 0.10056442
0.021460718 0.104126625 -0.05534933 0.08975807 -0.052130856 -0.13222425 0.03145751 -0.048008773
0.026777027 0.046458125 0.0076027797 -0.037970193 0.0006762645 0.027676161 0.009069078 -0.019377442
0.08689412 0.0372261 -0.0023651775 0.10446021 0.008247101 -0.04652954 -0.03948496 -0.109446466
0.024563247 0.06999604 0.05338897 0.011927668 -0.015629837 0.094308525 0.06407942 0.11675274
-0.035166554 0.12330077 -0.10850084 0.12534125 -0.029464085 -0.038898356 -0.118791595 -0.020366816
-0.02707662 0.05476307 0.018876381 0.0717317 -0.075210795 -0.040300008 -0.09771823 0.046910126
0.02427001 -0.10829093 -0.1026928 0.089792795 0.02283108 0.12316055 -0.06282315 -0.032780487
0.0022784676 0.0073782173 -0.06474715 0.002608154 -0.06164278 -0.0819966 -0.08685414 0.06689803
0.11378005 0.103065304 -0.00015372109 -0.018270545 -0.11560186 0.082489476 -0.0028132545 0.10255137
0.0042052795 -0.026025519 0.07673288 0.09839746 -0.06948624 -0.010875515 0.08504081 0.08973914
0.08555549 -0.021720188 -0.013108015 0.07792687 -0.060472168 -0.08650618 0.08889594 0.03594528
0.074540846 0.12390767 -0.10574022 -0.086198464 0.07231268 0.031002127 0.092823036 -0.114894986
-0.06662864 0.085964024 0.08147064 -0.09199133 0.08535824 0.10498817 0.023078207 0.054092675
0.009700307 -0.013363414 0.024673188 0.052700438 0.08414122 -0.001273382 -0.063669786 -0.10139455
0.0055008233 -0.011869526 -0.09544057 -0.06216046 -0.013292784 -0.078573875 0.08643108 0.034334596
-0.03469575 0.06586697 -0.05241411 -0.046620093 -0.10708177 0.012406964 0.065960035 0.024950841
-0.020472031 0.10951268 -0.048921406 -0.1094657 0.019177938 -0.0712355 0.018661305 -0.108038984
0.070019655 0.05348344 0.03787197 -0.037376773 -0.06366541 0.018745884 0.027354846 0.033225022
-0.12772205 0.06967918 -0.10558561 0.1133841 -0.0026504486 -0.10667409 -0.062298924 0.013421425
-0.0068105874 -0.053146884 0.101625964 -0.06203468 0.038824514 0.031697977 0.11131711 -0.07220389
-0.11536301 -0.042591922 0.07673063 -0.05514666 0.075417235 -0.027239352 0.09035343 0.13696606
0.055887382 -0.0025266786 -0.05974881 -0.11065829 -0.07657113 0.12969339 -0.10128339 -0.044591002
-0.077712886 0.028320316 0.05253521 0.022205219 -0.013640606 -0.08116896 -0.056642704 0.014602144
-0.028807938 -0.049193818 0.025939407 -0.121150956 -0.04200998 0.11319876 0.01930252 0.006655207
0.08170409 -0.02052463 0.032078348 -0.10532562 0.087745614 -0.04389963 -0.06330611 -0.059829064
-0.07116794 -0.022064801 0.019509315 0.07484139 -0.09572794 -0.1506894 0.09846317 0.13689215
00000000: a569 47bc d9b3 84bd c0fa 9d3d 65a4 ac3b
00000010: 2515 18bd dcd5 013e 9ffe 883d ca4c 88bd
00000020: 5cf6 d7bd 25ae 7cbc 070a ac3d 7680 aa3d
00000030: 848f d03d 7527 acbd 3d38 873d 665e e23b
00000040: 9f27 743d d3d0 f93c d536 683d 5cc1 5e3b
00000050: 436c 153d 9081 2cbb b760 91bd 0f25 9fbd
00000060: 17cd 143e 8140 333d c848 103e fe3b 5a3d
00000070: 2ff6 64bd aa6f a2bd 28ab ccbd 3ae3 e5bd
00000080: f006 cabd 549e fe3d fbb7 f93d 8559 103d
00000090: 86ab d7bd 48d0 59bc 6a02 0a3c 3871 8dbd
000000a0: d312 da3c 1311 6dbb 78e2 f3bd 642f 0b3c
000000b0: 2b51 9a3c c9f9 10bd acaf 8fbd b8f4 cd3d
000000c0: 63ce af3c 5740 d53d fbb5 62bd 14d3 b73d
000000d0: 2a87 55bd cb65 07be 97d9 003d d9a4 44bd
000000e0: 7f5b db3c e04a 3e3d bd20 f93b a286 1bbd
000000f0: 5847 313a 1eb9 e23c 7896 143c 71bd 9ebc
00000100: 8bf5 b13d 657a 183d 1801 1bbb 3cef d53d
00000110: d91e 073c c295 3ebd fbba 21bd 7825 e0bd
00000120: dd38 c93c 155a 8f3d 65ae 5a3d 446c 433c
00000130: 250a 80bc d424 c13d 123c 833d 101c ef3d
00000140: ce0a 10bd 1d85 fc3d b035 debd 7559 003e
00000150: aa5e f1bc e253 1fbd 0249 f3bd 4fd8 a6bc
00000160: cacf ddbc 3e4f 603d a4a2 9a3c 12e8 923d
00000170: 1e08 9abd 9f11 25bd 7f20 c8bd d524 403d
00000180: e6d1 c63c a3c7 ddbd 9a50 d2bd 49e5 b73d
00000190: 3f08 bb3c 993b fc3d 6ca9 80bd d544 06bd
000001a0: 5852 153b f9c4 f13b 279a 84bd 90ed 2a3b
000001b0: 247d 7cbd d5ed a7bd 95e0 b1bd d601 893d
000001c0: 8405 e93d e713 d33d 3130 21b9 1cac 95bc
000001d0: abc0 ecbd 3ef0 a83d 945e 38bb 7406 d23d
000001e0: 71cc 893b 7833 d5bc 2126 9d3d 9c84 c93d
000001f0: cd4e 8ebd 372f 32bc e029 ae3d 27c9 b73d
00000200: b737 af3d 89ee b1bc 00c3 56bc 1f98 9f3d
00000210: aab1 77bd 272a b1bd 130f b63d 5c3b 133d
00000220: dfa8 983d 4ec3 fd3d 548e d8bd d288 b0bd
00000230: ac18 943d 2cf8 fd3c 011a be3d 104e ebbd
00000240: 9974 88bd e80d b03d 14da a63d f365 bcbd
00000250: 4dd0 ae3d 0a04 d73d 820e bd3c 4890 5d3d
00000260: 09ee 1e3c 39f2 5abc 6d1f ca3c 6adc 573d
00000270: 3b52 ac3d 9ce7 a6ba 4e65 82bd f2a7 cfbd
00000280: 4040 b43b 6678 42bc 5876 c3bd f79b 7ebd
00000290: fac9 59bc 57eb a0bd c702 b13d 6fa2 0c3d
000002a0: 211d 0ebd 43e5 863d 2eb0 56bd b6f4 3ebd
000002b0: b04d dbbd 9446 4b3c 0e16 873d b565 cc3c
000002c0: f6b4 a7bc 2f48 e03d d061 48bd 8e2f e0bd
000002d0: 0d1b 9d3c ebe3 91bd 98df 983c 8b43 ddbd
000002e0: 7766 8f3d 7411 5b3d a41f 1b3d 6318 19bd
000002f0: 0363 82bd f890 993c 4517 e03c f616 083d
00000300: 92c9 02be f5b3 8e3d 453d d8bd ec35 e83d
00000310: 26b3 2dbb f277 dabd 282d 7fbd 89e5 5b3c
00000320: 592b dfbb 8cb0 59bd 4621 d03d 1418 7ebd
00000330: 7406 1f3d bdd5 013d 3afa e33d a2df 93bd
00000340: 7143 ecbd de74 2ebd f324 9d3d 77e1 61bd
00000350: 5a74 9a3d 1025 dfbc 380b b93d d540 0c3e
00000360: 2bea 643d a296 25bb 2bbb 74bd d0a0 e2bd
00000370: 53d1 9cbd 58ce 043e aa6d cfbd 0ea5 36bd
00000380: ef27 9fbd 0200 e83c 292f 573d b8e7 b53c
00000390: d97c 5fbc e93b a6bd 2e02 68bd d53d 6f3c
000003a0: a0fe ebbc 757f 49bd e17e d43c fe1d f8bd
000003b0: a812 2cbd c0d4 e73d 5220 9e3c ec13 da3b
000003c0: 7954 a73d 4523 a8bc 9664 033d f5b4 d7bd
000003d0: f9b3 b33d 19d0 33bd a2a6 81bd 520f 75bd
000003e0: 7fc0 91bd 3ec1 b4bc 00d2 9f3c 7146 993d
000003f0: 030d c4bd 524e 1abe 0fa7 c93d 752d 0c3e

encoder.layers.0.self_attn.out_proj.bias f4 [64]
-0.0020155453 0.00062847364 0.00016285201 -0.0030134048 -0.002656331 0.00692191 0.0004523593 0.009909425
0.012819638 -0.004738776 0.0049771103 -0.005864776 -0.006508614 -0.0040449123 0.00059716107 -0.010197436
0.0064396565 0.0077095907 0.0077262577 5.157217e-05 -0.009544651 0.0009472675 -0.009125293 0.0005570078
-0.0041188328 0.0018159269 -0.009817119 -0.0001649789 0.0065670637 -0.013101568 0.0010657493 -0.0037142588
-0.0042715436 0.0022177948 -0.0047048847 0.0043060808 -0.00062380574 -4.449402e-05 0.00748535 -0.025056949
-0.013104042 0.004287303 -0.0016313824 -0.0011481266 0.005208132 0.0022450672 0.00568577 0.0025428713
-0.0024429455 0.011490926 0.0023604145 0.008641249 0.0036066906 0.0033073346 0.0012521193 -0.002114277
0.0066565513 -0.021319468 0.007004879 -0.0008929858 -0.009077354 0.00020767133 0.006495641 -0.0019975782
00000000: 3d17 04bb 27c0 243a 41c3 2a39 8b7c 45bb
00000010: d715 2ebb 31d1 e23b a32a ed39 245b 223c
00000020: 7509 523c bc47 9bbb 0717 a33b 4f2d c0bb
00000030: 3646 d5bb 2f8b 84bb cd8a 1c3a 2613 27bc
00000040: c103 d33b bca0 fc3b 8c2c fd3b 324f 5838
00000050: 2b61 1cbc 0c52 783a 4182 15bc 2904 123a
00000060: 46f7 86bb 6504 ee3a fbd7 20bc 30fe 2cb9
00000070: 8630 d73b f6a7 56bc 9db0 8b3a ec6a 73bb
00000080: 4ef8 8bbb 6c58 113b 6f2b 9abb 061a 8d3b
00000090: e586 23ba 179f 3ab8 ab47 f53b 3b44 cdbc
000000a0: 56b2 56bc 817c 8c3b 1cd4 d5ba bc7c 96ba
000000b0: faa8 aa3b fa21 133b b24f ba3b 4da6 263b
000000c0: d319 20bb 7044 3c3c 2fb1 1a3b 0694 0d3c
000000d0: 3a5e 6c3b debf 583b 271e a43a af8f 0abb
000000e0: 331f da3b 2aa6 aebc 2f89 e53b 4317 6aba
000000f0: 2fb9 14bc 59c2 5939 63d9 d43b cde9 02bb

encoder.layers.0.linear1.weight f4 [256, 64]
0.04562596 -0.034169015 0.01686432 0.11862423 -0.014157196 0.029105894 0.093193635 -0.06392151
-0.022028642 0.025454424 0.11592848 -0.08964261 0.043672297 0.03506575 -0.0537466 -0.008349535
-0.03570841 -0.054281548 0.0009872242 -0.041568395 0.011182001 -0.03892091 -0.09802895 0.051056597
-0.019587835 -0.05198322 -0.088982195 -0.08002067 -0.09389837 -0.057778068 0.009825332 0.01975318
0.04603155 -0.023323322 0.07658498 -0.03436593 0.063619815 0.08688875 -0.003529239 -0.031339116
-0.03587522 -0.043127816 -0.11226284 -0.007552006 -0.14435676 -0.007102818 0.14497885 0.05273955
0.12787949 0.06989926 -0.105460525 -0.008443115 0.016554037 -0.07076365 -0.10698627 -0.056295563
-0.11774681 -0.10564377 -0.034174472 0.060942467 -0.04170076 0.043127254 0.011491318 0.003229345
0.044384927 -0.11993421 0.054514006 0.13297845 -0.066947006 0.036394667 -0.09945878 0.11501647
0.08404539 -0.004482023 -0.007912654 -0.098070346 0.13802132 -0.10562549 -0.12218656 -0.025229272
-0.025340902 0.013586665 -0.023821373 -0.07140889 -0.007098309 -0.12826099 0.0023517571 0.01317881
-0.030806717 0.02072964 -0.14123358 -0.08431636 0.003483762 0.06741605 -0.063143596 -0.034793645
-0.051030353 0.052160863 -0.062182985 -0.11310522 -0.0707739 0.09923788 -0.09066342 -0.055978242
-0.04141589 -0.11407891 0.058947064 0.030466098 0.04297113 -0.090992056 0.07907903 -0.14747664
0.011052772 -0.027087366 0.108153 -0.029947624 0.00055582635 0.0058093504 0.070853055 0.02340587
-0.067720175 -0.053484004 0.097771145 -0.079094395 0.11558385 -0.0043500997 0.058849394 0.031252466
0.11668456 -0.00010907851 -0.022278367 -0.008580473 0.05378001 -0.019948712 0.0884944 -0.12025859
0.08246729 -0.061200485 -0.11766406 0.052712016 -0.024011146 0.019645946 -0.07082584 -0.0311673
0.026844928 -0.010606819 0.06257725 0.111034304 -0.07263363 0.02087248 0.11850509 1.2202351e-05
0.00093444233 -0.010680955 0.1114299 0.0069853626 0.045593318 -0.1131436 0.085067645 -0.022997383
-0.039934088 -0.067571886 0.06938878 -0.111328945 0.040907197 -0.10268166 -0.12522076 0.028522821
0.0051654456 0.11529046 0.066509366 0.10413105 -0.015454562 0.09886686 0.08207183 0.06742241
-0.06694582 -0.053029757 0.03823822 -0.08224294 -0.12526965 0.082814574 0.020433316 -0.064049326
-0.11034669 0.11979734 -0.07066353 0.021819845 -0.13153213 0.031069895 0.070118435 -0.048279196
0.007103027 -0.008679133 0.09564386 -0.13257793 0.008054972 0.02738537 -0.13191159 -0.07153597
0.102428794 -0.06297525 0.12143451 0.07868122 0.07226597 0.020636443 -0.048517153 0.01911017
-0.098536015 -0.08020282 0.0644843 0.07213329 0.02460385 0.044917315 -0.04356627 0.03918561
0.075276285 0.03367141 -0.09198714 -0.0033728052 -0.07775991 0.10358993 0.08607253 -0.08808009
0.06951538 0.06728085 7.484523e-05 0.046478417 0.09111816 -0.004421643 0.07222438 -0.06469546
-0.114247255 0.012975262 -0.13386092 0.08011427 0.08455352 0.011718186 0.07894556 -0.07013295
-0.076723635 -0.07576638 -0.07381303 0.036129456 -0.05517832 0.07375851 0.06463612 0.021284979
-0.0068511125 -0.11263439 0.0079374565 0.008924247 -0.016411753 0.05150784 -0.059341 0.07562781
00000000: 49e2 3a3d cff4 0bbd 0b27 8a3c 43f1 f23d
00000010: 95f3 67bc 7c6f ee3c 4edc be3d 48e9 82bd
00000020: 6975 b4bc cc85 d03c e96b ed3d 8b96 b7bd
00000030: b9e1 323d 1ba1 0f3d 6525 5cbd 7dcc 08bc
00000040: fb42 12bd 5456 5ebd bf65 813a 9f43 2abd
00000050: b634 373c 886b 1fbd 67c3 c8bd b920 513d
00000060: ab76 a0bc 5bec 54bd 4c3c b6bd e1e1 a3bd
00000070: ca4d c0bd b2a8 6cbd 6efa 203c 6cd1 a13c
00000080: 948b 3c3d 8d10 bfbc 96d8 9c3d 4ac3 0cbd
00000090: 1b4b 823d bbf2 b13d ce4a 67bb 725d 00bd
000000a0: e5f1 12bd cba6 30bd 0fea e5bd d176 f7bb
000000b0: 42d2 13be c2be e8bb 5675 143e 6d05 583d
000000c0: d7f2 023e 5827 8f3d b0fb d7bd fe54 0abc
000000d0: 559c 873c 88ec 90bd 9e1b dbbd 2d96 66bd
000000e0: 3d25 f1bd c35b d8bd 88fa 0bbd cf9e 793d
000000f0: 6bce 2abd 34a6 303d 1546 3c3c 6ba3 533b
00000100: f8cc 353d 11a0 f5bd 144a 5f3d 812b 083e
00000110: 831b 89bd 9312 153d 0bb1 cbbd c18d eb3d
00000120: fd1f ac3d efdd 92bb 14a4 01bc 1bd9 c8bd
00000130: 7655 0d3e 2d52 d8bd f23c fabd 9ead cebc
00000140: b997 cfbc 9a9a 5e3c 0a25 c3bc d33e 92bd
00000150: ef98 e8bb d956 03be f01f 1a3b efeb 573c
00000160: 5e5e fcbc 35d1 a93c 899f 10be 0eae acbd
00000170: d44f 643b 6d11 8a3d 6e51 81bd c883 0ebd
00000180: 3405 51bd a1a6 553d 96b3 7ebd b6a3 e7bd
00000190: e8f1 90bd 3b3d cb3d bead b9bd 7149 65bd
000001a0: b5a3 29bd 34a2 e9bd 7a72 713d 0a94 f93c
000001b0: 7f02 303d 0b5a babd 30f4 a13d 1e04 17be
000001c0: b016 353c 53e6 ddbc 527f dd3d b854 f5bc
000001d0: e0b4 113a 5d5c be3b 681b 913d abbd bf3c
000001e0: e0b0 8abd 0b12 5bbd 3d3c c83d 3efc a1bd
000001f0: 3ab7 ec3d 488b 8ebb 100c 713d 9602 003d
00000200: 51f8 ee3d 14c1 e4b8 1f81 b6bc 1d95 0cbc
00000210: 6e48 5c3d 7b6b a3bc 8d3c b53d 234a f6bd
00000220: 9ce4 a83d 5cad 7abd dbf9 f0bd 8ee8 573d
00000230: 06b3 c4bc 89f0 a03c 230d 91bd 9152 ffbc
00000240: e5e9 db3c 39c8 2dbc 8028 803d f465 e33d
00000250: f1c0 94bd c3fc aa3c ccb2 f23d b3b8 4c37
00000260: 5df5 743a 2cff 2ebc 5c35 e43d 78e5 e43b
00000270: 0fc0 3a3d d5b7 e7bd f237 ae3d 0265 bcbc
00000280: ed91 23bd 2163 8abd b41b 8e3d 6e00 e4bd
00000290: 4e8e 273d c34a d2bd df39 00be b1a8 e93c
000002a0: e642 a93b 681d ec3d 1036 883d a942 d53d
000002b0: 2235 7dbc b57a ca3d 4715 a83d c314 8a3d
000002c0: e41a 89bd bb35 59bd ae9f 1c3d fd6e a8bd
000002d0: b046 00be b09a a93d c563 a73c 4b2c 83bd
000002e0: 72fd e1bd 4f58 f53d 0ab8 90bd 88bf b23c
000002f0: 5cb0 06be 4b86 fe3c 419a 8f3d 68c0 45bd
00000300: 82c0 e83b ec32 0ebc eee0 c33d 82c2 07be
00000310: 00f9 033c 4957 e03c d513 07be 7381 92bd
00000320: 30c6 d13d 2bf9 80bd a8b2 f83d 9f23 a13d
00000330: 2e00 943d c20d a93c ecb9 46bd ee8c 9c3c
00000340: 40cd c9bd 6041 a4bd 5810 843d 9eba 933d
00000350: 038e c93c 38fb 373d 8c72 32bd 1781 203d
00000360: 742a 9a3d 08eb 093d c163 bcbd 480a 5dbb
00000370: 9640 9fbd f526 d43d cb46 b03d 5663 b4bd
00000380: 145e 8e3d 8bca 893d 3af6 9c38 2760 3e3d
00000390: 289c ba3d 6ee3 90bb 60ea 933d 0e7f 84bd
000003a0: 77fa e9bd 3196 543c d612 09be f312 a43d
000003b0: 652a ad3d a2fd 3f3c 36ae a13d dda1 8fbd
000003c0: 4821 9dbd 672b 9bbd 492b 97bd 7bfc 133d
000003d0: a902 62bd b40e 973d f15f 843d d65d ae3c
000003e0: 4c7f e0bb dcac e6bd 1b0c 023c 0137 123c
000003f0: f171 86bc e3f9 523d 8c0f 73bd c1e2 9a3d
