BDG2/results/TimeSeriesTransformer-BDG2.pt (torch, 641170 bytes, 47 tensors)

embedding.input_proj.weight f4 [64, 4]
0	0x3e77f8bc	0.24215978
1	0x3f393f75	0.7236245
2	0xbe6ba5f3	-0.23012523
3	0x3b87f615	0.0041492083
4	0xbf091d0d	-0.5355995
5	0xbef11890	-0.47089052
6	0xbde92824	-0.11384609
7	0x3f017829	0.50573975
8	0x3f06689f	0.5250339
9	0x3f3c8933	0.7364685
10	0x3ebff033	0.37487945
11	0xbd8e029a	-0.0693409
12	0x3eb9499c	0.36188972
13	0x3f0d6e2c	0.55246234
14	0x3f026759	0.50938946
15	0xbd19f72f	-0.03758925
16	0x3e42818c	0.1899473
17	0xbe01bd44	-0.12669855
18	0x3f131449	0.5745283
19	0xbe17dc1c	-0.14830059
20	0x3eb4fdb5	0.35349813
21	0xbe889ea4	-0.26683533
22	0x3eb8e189	0.3610957
23	0xbed5f03f	-0.41784856
24	0xbec013e3	-0.37515172
25	0xbf0fa794	-0.5611508
26	0x3cbdd12d	0.023171032
27	0xbe0caaa4	-0.13736969
28	0xbd5a5c57	-0.05331072
29	0x3ed7a677	0.4211919
30	0x3e3b9749	0.1831943
31	0xbf054e34	-0.52072453
32	0xbf0ac62c	-0.54208636
33	0xbf182d8f	-0.59444517
34	0x3e225f32	0.15856627
35	0xbe2b079c	-0.16702121
36	0x3ee686b6	0.4502465
37	0xbcb1f5eb	-0.021723708
38	0xbe2799e1	-0.16367294
39	0xbeeb5156	-0.45960492
40	0x3dbd6f02	0.09249689
41	0x3ee9f0ff	0.45691678
42	0xbd72dc25	-0.059291977
43	0xbe5da1de	-0.21643779
44	0xbe1bcd48	-0.15215027
45	0x3e50280a	0.20327774
46	0x3eadce4e	0.3394646
47	0x3e3847f1	0.17996193
48	0x3e4bc097	0.19897686
49	0x3f0154bd	0.50519925
50	0x3e86ed7e	0.26353067
51	0xbe679af7	-0.22617708
52	0xbdaaa6f2	-0.083326235
53	0xbe5fabfd	-0.21842952
54	0x3efac70b	0.48979983
55	0xbe561469	-0.20906223
56	0xbe40b449	-0.18818773
57	0xbf2a66d7	-0.6656317
58	0xbe15edec	-0.14641541
59	0x3f1be07d	0.60889417
60	0xbe6e2a6a	-0.23258367
61	0x3f3172ae	0.6931561
62	0xbe729ce2	-0.23692659
63	0xbed752de	-0.4205541
64	0xbe8932f9	-0.26796702
65	0xbd1f847d	-0.03894471
66	0xbe827da4	-0.2548648
67	0xbdb0c004	-0.08630374
68	0x3e0679ab	0.1313235
69	0x3f119cdb	0.5687997
70	0x3d70f696	0.058828913
71	0x3ec4f74d	0.38469926
72	0xbcf12f11	-0.029441388
73	0xbf3bfd21	-0.7343312
74	0xbdabb8bd	-0.083848454
75	0x3eaff975	0.34370008
76	0x3d86986f	0.06572043
77	0xbf310ad8	-0.6915717
78	0xbe532831	-0.206208
79	0x3d8af77c	0.06785485
80	0x3e4afdda	0.19823399
81	0xbf1bf424	-0.60919404
82	0xbe496608	-0.19667828
83	0x3f02d7bb	0.5111043
84	0x3dad38df	0.08458113
85	0xbde77ed0	-0.113034844
86	0xbeef05c3	-0.46684083
87	0x3e71c39b	0.23609774
88	0x3e0e5361	0.13898994
89	0x3f115e0a	0.5678412
90	0x3d6bcf47	0.057570722
91	0xbe65788d	-0.22409268
92	0xbe189c2b	-0.14903323
93	0xbe7784ce	-0.24171755
94	0xbefa6080	-0.4890175
95	0x3f1134b9	0.56721073
96	0x3e604b5f	0.21903752
97	0x3d90f5b8	0.07078117
98	0x3dbd0bf7	0.09230798
99	0x3d86ae66	0.065762326
100	0xbcdf78ab	-0.027279219
101	0x3e004f03	0.1253014
102	0xbccc086a	-0.024906356
103	0x3cc3c49e	0.023897465
104	0x3e0b5267	0.13605653
105	0xbf0233ba	-0.5086018
106	0xbe0785d2	-0.13234642
107	0x3f059202	0.52175915
108	0xbea6b7d0	-0.32562113
109	0xbf354536	-0.7080873
110	0xbeb11f2b	-0.34594092
111	0x3f13eed5	0.57786304
112	0xbe411bd7	-0.18858276
113	0x3f0d6164	0.5522673
114	0xbed5c149	-0.41749027
115	0xbf12b2c1	-0.57304007
116	0xbe3d77f0	-0.18502784
117	0x3ec30016	0.38086003
118	0x3e86b3e8	0.26309133
119	0xbe47a8d3	-0.19497995
120	0x3e992d62	0.29917437
121	0x3e9841e0	0.2973776
122	0x3e458696	0.19289622
123	0xbf1d7d9c	-0.6151979
124	0x3e40ac4b	0.18815725
125	0x3f10c581	0.5655137
126	0xbe0a6d1b	-0.13518183
127	0xbe060eb5	-0.13091548
128	0xbe86ea56	-0.2635066
129	0xbf1d6f9e	-0.6149844
130	0xbd1284e3	-0.035771262
131	0x3f08f010	0.53491306
132	0x3ddd53f3	0.10807028
133	0xbead6268	-0.3386414
134	0xbeb0228d	-0.3440136
135	0xbea271da	-0.31727487
136	0xbf087c2f	-0.5331449
137	0xbf0f2086	-0.55909
138	0xbf08b214	-0.53396726
139	0xbdc8081e	-0.09767173
140	0xbd739be0	-0.059474826
141	0x3f0e7339	0.55644566
142	0xbd03804a	-0.032104768
143	0xbed7b10a	-0.42127258
144	0xbf06a2ed	-0.52592355
145	0xbea52ba7	-0.32259867
146	0x3b191182	0.0023356383
147	0xbd56be76	-0.05242773
148	0x3ed0adc8	0.40757585
149	0x3f1f23a1	0.6216374
150	0xbea68c93	-0.32529125
151	0xbe6df9cb	-0.2323982
152	0xbefe8514	-0.49710906
153	0x3e696e5d	0.22796007
154	0xbebb037c	-0.36526096
155	0xbd10e110	-0.035370886
156	0xbe858cec	-0.26084077
157	0x3e59b0ed	0.21258898
158	0x3ecfc2e7	0.40578386
159	0xbeef4380	-0.46731186
160	0xbe4600d8	-0.1933626
161	0x3ed1316f	0.40858027
162	0x3f007e3a	0.50192606
163	0xbf099008	-0.537354
164	0xbeca94a0	-0.39566517
165	0x3eada67a	0.33916074
166	0xbe33c785	-0.1755658
167	0x3e669c4e	0.22520563
168	0x3f14d61c	0.58139205
169	0x3ef7667f	0.48320386
170	0x3a8ee05d	0.0010900606
171	0xbe583438	-0.2111367
172	0xbef1b2aa	-0.47206622
173	0xbf172311	-0.5903788
174	0x3e412089	0.18860067
175	0x3e7f4c9f	0.24931572
176	0x3e9001c1	0.28126338
177	0xbe8c111a	-0.27356797
178	0x3ea69981	0.3253899
179	0xbe7661b3	-0.24060707
180	0x3efdbb27	0.49556848
181	0xbe8ad8c1	-0.27118495
182	0x3d448886	0.04798176
183	0xbe503120	-0.2033124
184	0xbe28e53a	-0.16493693
185	0xbf11f200	-0.5700989
186	0xbe12f8e1	-0.14352752
187	0x3ec13752	0.3773752
188	0xbced36c8	-0.028956786
189	0xbeb7bb98	-0.3588531
190	0xbdaf7c61	-0.08568645
191	0x3dfa8914	0.12233177
192	0x3ec718c9	0.38886097
193	0xbee722a0	-0.45143604
194	0x3eaac427	0.33352777
195	0x3ed9e8f8	0.42560554
196	0xbe8e6d59	-0.278178
197	0xbf028ba1	-0.50994307
198	0xbf07b794	-0.53014493
199	0x3b5d9c4c	0.0033815084
200	0xbee4da0b	-0.44697604
201	0xbedaafa6	-0.42712134
202	0x3eb7139d	0.3575715
203	0xbe999310	-0.29995012
204	0x3e0bdb18	0.13657796
205	0xbf06532d	-0.52470666
206	0x3e90c466	0.2827484
207	0x3e54a6ca	0.2076675
208	0x3eec8cdf	0.46201226
209	0x3e16a044	0.14709574
210	0xbe35b0be	-0.17743203
211	0x3e2d6960	0.16934729
212	0x3e0e624b	0.13904683
213	0x3f112280	0.5669327
214	0xbdd3d26f	-0.103428714
215	0xbebc9082	-0.36829
216	0xbdf33b6b	-0.118765675
217	0x3e9de104	0.30835736
218	0x3ea20078	0.31640983
219	0xbe2bf8fb	-0.16794197
220	0x3ddd1e21	0.10796762
221	0x3f14bd9a	0.5810181
222	0xbd0d0a62	-0.03443373
223	0x3db3ba47	0.08775764
224	0x3ecff714	0.40618193
225	0x3e3c1ece	0.18371126
226	0xbdf1660f	-0.11787044
227	0xbe2b393e	-0.16721055
228	0xbf0a0138	-0.5390811
229	0xbe852181	-0.26002124
230	0xbf08dd0f	-0.5346231
231	0xbd350212	-0.044191428
232	0xbed4583c	-0.41473567
233	0x3ddad1e6	0.10684566
234	0xbe402dd6	-0.18767485
235	0x3f000c99	0.5001922
236	0xbe141f23	-0.14465003
237	0xbeb078ed	-0.3446726
238	0xbd93e22c	-0.07220873
239	0x3e4fa857	0.2027906
240	0xbecd1602	-0.40055853
241	0xbea43b09	-0.3207629
242	0x3e40c84d	0.18826409
243	0xbe0b9d6b	-0.13634269
244	0xbe4af623	-0.19820456
245	0xbf0b5ae8	-0.54435587
246	0x3ea5529d	0.3228959
247	0x3ee93869	0.4555085
248	0xbe47898a	-0.1948606
249	0xbeef4906	-0.467354
250	0xbf11f668	-0.5701661
251	0xbe8f8d30	-0.28037405
252	0x3f0d9cf4	0.55317616
253	0x3f2f7e32	0.68551934
254	0x3eab6d8f	0.33482024
255	0xbf0e9aec	-0.5570514

embedding.input_proj.bias f4 [64]
0	0x3eb86f15	0.3602225
1	0x3ee1c181	0.44092944
2	0x3df84627	0.121227555
3	0xbe8f317d	-0.27967444
4	0xbe7122b4	-0.23548394
5	0xbe623796	-0.22091517
6	0xbd00899e	-0.031381242
7	0xbe1131db	-0.14179175
8	0xbe3fd121	-0.1873212
9	0x3eaf3948	0.3422339
10	0x3d42c811	0.04755408
11	0xbe9077ce	-0.28216404
12	0xbea1ff8d	-0.31640282
13	0xbeb4ffb0	-0.35351324
14	0x3e2eb5d2	0.17061546
15	0xbdcb222b	-0.099186264
16	0xbeec188c	-0.46112478
17	0x3efe128f	0.49623534
18	0x3eda11b3	0.42591628
19	0x3eef4427	0.46731684
20	0x3e325208	0.17414105
21	0x3eab0e0b	0.3340915
22	0xbec32c0e	-0.3811955
23	0x3ef9e896	0.4881026
24	0x3e230570	0.15920043
25	0x3e1e4180	0.15454674
26	0x3d5c4895	0.053780157
27	0xbdc9752f	-0.09836804
28	0x3e29390b	0.16525666
29	0xbee7f329	-0.45302704
30	0xbd8b08d1	-0.06788791
31	0x3e7a1609	0.24422468
32	0x3e098700	0.13430405
33	0xbe795cb2	-0.24351767
34	0x3e29d35c	0.16584533
35	0xbe047870	-0.12936568
36	0x3e97d0ea	0.29651576
37	0x3e3fa92d	0.18716879
38	0x3e80da6d	0.25166646
39	0xbe34ff22	-0.1767545
40	0x3eb948ed	0.3618845
41	0x3e90b529	0.28263214
42	0x3e76f098	0.24115217
43	0x3e33ba58	0.17551553
44	0xbd384d4b	-0.044995587
45	0xbe406e3c	-0.18792051
46	0xbe879817	-0.26483223
47	0x3e2972a8	0.16547644
48	0x3e483766	0.19552383
49	0x3e028598	0.12746274
50	0xbec062dc	-0.37575424
51	0x3e803ebc	0.25047863
52	0xbe22b863	-0.1589065
53	0x3ea68214	0.32521117
54	0x3e245011	0.16046168
55	0xbe5eb153	-0.21747331
56	0xbea02bfa	-0.3128355
57	0x3ed599f3	0.41719016
58	0x3e3275d6	0.17427763
59	0x3df954b2	0.121743575
60	0xbed55a61	-0.41670516
61	0xbeb8201d	-0.35962
62	0x3c496427	0.012291945
63	0x3dd1b071	0.10238732

embedding.pos_encoder.pe f4 [1, 500, 64]
0	0x00000000	0.0
1	0x3f800000	1.0
2	0x00000000	0.0
3	0x3f800000	1.0
4	0x00000000	0.0
5	0x3f800000	1.0
6	0x00000000	0.0
7	0x3f800000	1.0
8	0x00000000	0.0
9	0x3f800000	1.0
10	0x00000000	0.0
11	0x3f800000	1.0
12	0x00000000	0.0
13	0x3f800000	1.0
14	0x00000000	0.0
15	0x3f800000	1.0
16	0x00000000	0.0
17	0x3f800000	1.0
18	0x00000000	0.0
19	0x3f800000	1.0
20	0x00000000	0.0
21	0x3f800000	1.0
22	0x00000000	0.0
23	0x3f800000	1.0
24	0x00000000	0.0
25	0x3f800000	1.0
26	0x00000000	0.0
27	0x3f800000	1.0
28	0x00000000	0.0
29	0x3f800000	1.0
30	0x00000000	0.0
31	0x3f800000	1.0
32	0x00000000	0.0
33	0x3f800000	1.0
34	0x00000000	0.0
35	0x3f800000	1.0
36	0x00000000	0.0
37	0x3f800000	1.0
38	0x00000000	0.0
39	0x3f800000	1.0
40	0x00000000	0.0
41	0x3f800000	1.0
42	0x00000000	0.0
43	0x3f800000	1.0
44	0x00000000	0.0
45	0x3f800000	1.0
46	0x00000000	0.0
47	0x3f800000	1.0
48	0x00000000	0.0
49	0x3f800000	1.0
50	0x00000000	0.0
51	0x3f800000	1.0
52	0x00000000	0.0
53	0x3f800000	1.0
54	0x00000000	0.0
55	0x3f800000	1.0
56	0x00000000	0.0
57	0x3f800000	1.0
58	0x00000000	0.0
59	0x3f800000	1.0
60	0x00000000	0.0
61	0x3f800000	1.0
62	0x00000000	0.0
63	0x3f800000	1.0
64	0x3f576aa4	0.84147096
65	0x3f0a5141	0.54030234
66	0x3f2e7ace	0.68156135
67	0x3f3b54b0	0.731761
68	0x3f087dba	0.53316844
69	0x3f58940d	0.8460091
70	0x3ed190f0	0.4093089
71	0x3f6992c7	0.9123959
72	0x3e9f393e	0.3109836
73	0x3f734e6b	0.9504153
74	0x3e708f25	0.23492105
75	0x3f78d5f1	0.9720145
76	0x3e35233a	0.17689219
77	0x3f7bf683	0.9842302
78	0x3e0825f3	0.13295726
79	0x3f7dba28	0.99112177
80	0x3dcc7576	0.099833414
81	0x3f7eb898	0.9950042
82	0x3d996f36	0.07491915
83	0x3f7f47d1	0.9971896
84	0x3d6636ae	0.05620449
85	0x3f7f9868	0.9984193
86	0x3d2cacfa	0.04215715
87	0x3f7fc5bd	0.999111
88	0x3d01815b	0.031617504
89	0x3f7fdf3c	0.99950004
90	0x3cc23ea5	0.023711512
91	0x3f7fed93	0.99971884
92	0x3c91ab42	0.017781857
93	0x3f7ff5a3	0.99984187
94	0x3c5a7a49	0.013334819
95	0x3f7ffa2c	0.99991107
96	0x3c23d657	0.009999833
97	0x3f7ffcb9	0.99995
98	0x3bf5b916	0.0074988706
99	0x3f7ffe28	0.99997187
100	0x3bb8445a	0.0056233825
101	0x3f7ffef7	0.9999842
102	0x3b8a2e5a	0.0042169513
103	0x3f7fff6b	0.9999911
104	0x3b4f3e1c	0.0031622713
105	0x3f7fffac	0.999995
106	0x3b1b6903	0.0023713715
107	0x3f7fffd1	0.9999972
108	0x3ae91520	0.0017782785
109	0x3f7fffe6	0.99999845
110	0x3aaec98a	0.001333521
111	0x3f7ffff1	0.9999991
112	0x3a83126d	0.0009999998
113	0x3f7ffff8	0.9999995
114	0x3a449489	0.000749894
115	0x3f7ffffb	0.9999997
116	0x3a136a13	0.0005623411
117	0x3f7ffffd	0.9999998
118	0x39dd1721	0.00042169637
119	0x3f7fffff	0.99999994
120	0x39a5cb61	0.00031622782
121	0x3f7fffff	0.99999994
122	0x3978a80d	0.00023713727
123	0x3f800000	1.0
124	0x393a7753	0.00017782794
125	0x3f800000	1.0
126	0x390bd46d	0.00013335208
127	0x3f800000	1.0
128	0x3f68c7b7	0.9092974
129	0xbed51133	-0.41614684
130	0x3f7f5ad9	0.99748
131	0x3d914d53	0.070948265
132	0x3f66f20a	0.9021307
133	0x3edce8b2	0.43146282
134	0x3f3f3511	0.7469035
135	0x3f2a3903	0.6649324
136	0x3f17541b	0.5911271
137	0x3f4e7bec	0.8065784
138	0x3ee9d3b5	0.45669332
139	0x3f63be69	0.8896242
140	0x3eb247f6	0.34820527
141	0x3f6ffaa6	0.93741834
142	0x3e86f082	0.26355368
143	0x3f76f2f5	0.96464473
144	0x3e4b6ff8	0.19866931
145	0x3f7ae5a5	0.9800666
146	0x3e1900d3	0.1494172
147	0x3f7d204f	0.98877424
148	0x3de5d986	0.1122313
149	0x3f7e61f3	0.9936821
150	0x3dac85ae	0.08423935
151	0x3f7f170e	0.99644554
152	0x3d8170c8	0.063203394
153	0x3f7f7cf9	0.9980007
154	0x3d4230aa	0.04740969
155	0x3f7fb64e	0.9988755
156	0x3d11a55c	0.03555809
157	0x3f7fd68e	0.9993676
158	0x3cda7550	0.026667267
159	0x3f7fe8b1	0.99964434
160	0x3ca3d43e	0.019998666
161	0x3f7ff2e5	0.9998
162	0x3c75b751	0.014997319
163	0x3f7ff8a1	0.9998875
164	0x3c38439b	0.011246587
165	0x3f7ffbdb	0.99993676
166	0x3c0a2e0a	0.008433828
167	0x3f7ffdab	0.9999644
168	0x3bcf3dd8	0.006324511
169	0x3f7ffeb1	0.99998003
170	0x3b9b68e7	0.00474273
171	0x3f7fff43	0.99998873
172	0x3b691508	0.0035565514
173	0x3f7fff96	0.9999937
174	0x3b2ec97f	0.0026670394
175	0x3f7fffc4	0.9999964
176	0x3b031268	0.0019999985
177	0x3f7fffdf	0.99999803
178	0x3ac49485	0.0014997876
179	0x3f7fffed	0.99999887
180	0x3a936a12	0.0011246821
181	0x3f7ffff5	0.99999934
182	0x3a5d171f	0.0008433926
183	0x3f7ffffa	0.99999964
184	0x3a25cb60	0.0006324556
185	0x3f7ffffd	0.9999998
186	0x39f8a80c	0.0004742745
187	0x3f7ffffe	0.9999999
188	0x39ba7753	0.00035565588
189	0x3f7fffff	0.99999994
190	0x398bd46d	0.00026670416
191	0x3f800000	1.0
192	0x3e1081c3	0.14112
193	0xbf7d7026	-0.9899925
194	0x3f473cde	0.7782725
195	0xbf20bfce	-0.6279267
196	0x3f7e45d7	0.9932532
197	0xbded7fab	-0.11596616
198	0x3f742163	0.95363444
199	0x3e9a1863	0.3009673
200	0x3f5009c2	0.8126489
201	0x3f152f58	0.58275366
202	0x3f2724b7	0.652904
203	0x3f41e7a2	0.7574407
204	0x3f022f6c	0.5085361
205	0x3f5c6d29	0.86104065
206	0x3ec768a7	0.3894703
207	0x3f6bc937	0.92103904
208	0x3e974e6c	0.2955202
209	0x3f7490ef	0.9553365
210	0x3e646de2	0.22307542
211	0x3f798c92	0.9748012
212	0x3e2beed7	0.16790329
213	0x3f7c5d9e	0.9858035
214	0x3e01332c	0.12617177
215	0x3f7df443	0.9920084
216	0x3dc1ffc0	0.094726086
217	0x3f7ed94f	0.99550337
218	0x3d919306	0.071081206
219	0x3f7f5a3a	0.9974705
220	0x3d5a694e	0.053323083
221	0x3f7fa2c3	0.9985773
222	0x3d23d1c5	0.039994974
223	0x3f7fcb90	0.99919987
224	0x3cf5b91f	0.0299955
225	0x3f7fe283	0.99955004
226	0x3cb84747	0.022494925
227	0x3f7fef6b	0.999747
228	0x3c8a31c6	0.016869437
229	0x3f7ff6ad	0.9998577
230	0x3c4f4446	0.012650555
231	0x3f7ffac1	0.99991995
232	0x3c1b6e0d	0.009486687
233	0x3f7ffd0d	0.999955
234	0x3be91d13	0.0071140616
235	0x3f7ffe58	0.9999747
236	0x3baecfa8	0.005334813
237	0x3f7fff11	0.99998575
238	0x3b831713	0.0040005534
239	0x3f7fff7a	0.999992
240	0x3b449b92	0.0029999954
241	0x3f7fffb5	0.9999955
242	0x3b136f60	0.0022496805
243	0x3f7fffd6	0.9999975
244	0x3add1f17	0.0016870227
245	0x3f7fffe8	0.99999857
246	0x3aa5d156	0.0012650888
247	0x3f7ffff3	0.9999992
248	0x3a78b110	0.00094868336
249	0x3f7ffff9	0.9999996
250	0x3a3a7e09	0.00071141176
251	0x3f7ffffc	0.99999976
252	0x3a0bd97e	0.0005334838
253	0x3f7ffffe	0.9999999
254	0x39d1bea4	0.00040005625
255	0x3f7fffff	0.99999994

embedding.norm.weight f4 [64]
0	0x3f823d63	1.0174984
1	0x3f815a28	1.0105639
2	0x3f84bdb4	1.0370393
3	0x3f833b49	1.0252467
4	0x3f7dadf4	0.99093556
5	0x3f7aa87b	0.9791333
6	0x3f7c71fb	0.9861142
7	0x3f7f0ec5	0.9963191
8	0x3f821069	1.0161258
9	0x3f7c421e	0.98538387
10	0x3f7c5038	0.98559904
11	0x3f7b2bdc	0.981138
12	0x3f81ee54	1.0150857
13	0x3f7a6e95	0.97824985
14	0x3f81c986	1.0139625
15	0x3f7bb625	0.98324805
16	0x3f79ef3e	0.9763068
17	0x3f80392e	1.001745
18	0x3f81fd93	1.015551
19	0x3f7c0bde	0.9845561
20	0x3f83592a	1.0261586
21	0x3f797f7c	0.9746015
22	0x3f805ea5	1.0028883
23	0x3f804f38	1.0024176
24	0x3f78cc30	0.97186565
25	0x3f7c9a0c	0.98672557
26	0x3f808fe5	1.0043913
27	0x3f809076	1.0044086
28	0x3f7dcf5f	0.9914455
29	0x3f78a834	0.9713166
30	0x3f807508	1.0035715
31	0x3f81830d	1.0118119
32	0x3f7f25b8	0.9966693
33	0x3f8146e4	1.0099759
34	0x3f868abd	1.051109
35	0x3f802306	1.0010688
36	0x3f839849	1.0280849
37	0x3f7e814a	0.9941603
38	0x3f81124b	1.0083708
39	0x3f7231d7	0.946073
40	0x3f92e916	1.1477382
41	0x3f74bf43	0.9560434
42	0x3f90e58f	1.1320056
43	0x3f7b29cb	0.98110646
44	0x3f7fae0b	0.99874943
45	0x3f7829f7	0.96939033
46	0x3f80d850	1.0066013
47	0x3f7fe407	0.9995732
48	0x3f7c9199	0.98659664
49	0x3f811b36	1.0086429
50	0x3f7cdd93	0.98775595
51	0x3f73fd57	0.9530844
52	0x3f80b63a	1.0055611
53	0x3f7464a3	0.9546606
54	0x3f7ef734	0.9959595
55	0x3f7c5c4a	0.9857832
56	0x3f816504	1.0108953
57	0x3f81d7e6	1.0144012
58	0x3f7c6e3a	0.9860569
59	0x3f7472bc	0.9548757
60	0x3f7cdfbc	0.9877889
61	0x3f690ffc	0.91040015
62	0x3f818ed6	1.0121715
63	0x3f8004e3	1.0001491

embedding.norm.bias f4 [64]
0	0x3b8b0610	0.004242666
1	0x3a04f547	0.00050719496
2	0x3b90cef2	0.004419201
3	0xbb88f45f	-0.004179522
4	0x3beaa9b2	0.0071613425
5	0xbb982e51	-0.004644193
6	0xbb4b4870	-0.0031018518
7	0x3b868f24	0.004106419
8	0x3bad9312	0.005297073
9	0x3c8c5e46	0.017134797
10	0x3ade4fd7	0.001696105
11	0x3c22d157	0.009937606
12	0x3bd40a04	0.0064709205
13	0x3ca0ef6a	0.019645412
14	0xbbbca995	-0.0057575204
15	0x3cac0c83	0.02100206
16	0x3c790eac	0.015201252
17	0x3c192f99	0.009349727
18	0xbb7122b1	-0.003679436
19	0x3b29b67e	0.0025896127
20	0xbb960f7f	-0.004579484
21	0x3d0866bf	0.03330111
22	0x3c4ebc9f	0.012618213
23	0x3b97b6b5	0.0046299347
24	0x3cb9ba4c	0.022671841
25	0x3c65a600	0.014016628
26	0x3b3ae8ac	0.002852003
27	0x3c20bc41	0.009810508
28	0xbd44a2ea	-0.04800693
29	0x3d29f4d6	0.04149326
30	0xbc05f62e	-0.00817637
31	0x3ba95a21	0.005168215
32	0xbc8e4764	-0.017368026
33	0xbada4f95	-0.0016655797
34	0x3a3d0783	0.0007210897
35	0xbb68bb66	-0.0035512089
36	0xbc3284c0	-0.010895908
37	0xbca049ae	-0.019566383
38	0x3a3832df	0.00070266234
39	0xbd600ad9	-0.054697845
40	0xbc0cf6e9	-0.00860379
41	0xbd3f5de0	-0.046720386
42	0x3bd302f7	0.0064395624
43	0xbcd218e7	-0.02564664
44	0xbb916dd9	-0.0044381437
45	0xbcfdc38c	-0.030977033
46	0x3bb030d5	0.005376915
47	0xbb636e0d	-0.0034703047
48	0x3cd067f3	0.025440192
49	0xbb7a896a	-0.0038228878
50	0x3c9c611f	0.01908928
51	0xbd481625	-0.048849244
52	0x3af0da2b	0.0018375566
53	0xbd485f41	-0.048918966
54	0x3c77d82d	0.015127224
55	0xbca41062	-0.020027343
56	0xbb2af225	-0.002608427
57	0x3a76dc49	0.00094169803
58	0x3c82b25a	0.015954185
59	0xbd4db5fb	-0.05022238
60	0x3c9263b3	0.017869806
61	0xbdc3e174	-0.09564486
62	0x3c4d04cf	0.0125133535
63	0xbc575f68	-0.013145305

encoder.layers.0.self_attn.in_proj_weight f4 [192, 64]
0	0xbdb13df0	-0.08654392
1	0x3d7530ab	0.059860867
2	0xbcde7b04	-0.027158268
3	0x3daa2147	0.083071284
4	0xbd248c89	-0.040173087
5	0xbc2206f6	-0.009889355
6	0xbdd06373	-0.101752184
7	0x3e177d58	0.14793909
8	0x3d641ccc	0.055691525
9	0xbd84179e	-0.06449817
10	0xbdac16b9	-0.084027715
11	0xbd96d70a	-0.07365234
12	0xbdef3af1	-0.11681164
13	0xbd8581ef	-0.065189235
14	0xbc94f59a	-0.018183518
15	0x3ae0435a	0.0017109916
16	0xbe1dd680	-0.15413857
17	0x3e1dbca1	0.15403987
18	0xbd8644e5	-0.06556109
19	0xbe21be68	-0.1579529
20	0xbcae728c	-0.021294855
21	0xbe0c560c	-0.137047
22	0x3d2f8c54	0.042858437
23	0xbbd36b94	-0.0064520333
24	0x3cd3a21e	0.02583414
25	0x3ddbd5f6	0.10734169
26	0xbd8dcf03	-0.0692425
27	0x3cda54e6	0.02665181
28	0xbda21fd1	-0.07916225
29	0xbcdb7cb4	-0.026792862
30	0xbdcae906	-0.09907727
31	0x3d99a6d2	0.075025216
32	0xbdf30f2d	-0.11868129
33	0xbd306377	-0.043063607
34	0x3dc97cf5	0.09838287
35	0x3df5ec2d	0.120079376
36	0x3d66a9c0	0.05631423
37	0x3d69ac6c	0.0570492
38	0x3e1c7034	0.15277177
39	0xbb9158fc	-0.0044356566
40	0x3e1308f2	0.14358881
41	0xbd9b905b	-0.07595893
42	0x3e65ec22	0.22453359
43	0xbd004257	-0.031313267
44	0x3dbe4aa8	0.09291583
45	0x3b5834d7	0.003299048
46	0xbdee4e32	-0.11636008
47	0xbdc49745	-0.09599165
48	0xbdf9ae44	-0.12191442
49	0xbdbf2c1f	-0.09334587
50	0x3c86658b	0.016405841
51	0xbdf8d33c	-0.12149665
52	0xbd950d1d	-0.07277892
53	0xbca044da	-0.019564081
54	0x3e244fc8	0.16046059
55	0x3e035dd4	0.12828761
56	0xbd4b678b	-0.049659293
57	0xbe005c93	-0.12535314
58	0x3d829c5f	0.06377482
59	0xbda93b9a	-0.08263321
60	0x3d6f9f18	0.058501333
61	0x3e1bff92	0.15234211
62	0xbd99c8f9	-0.075090356
63	0x3e11b1fa	0.14228049
64	0x3daf45e4	0.085582525
65	0x3cdb13d7	0.026742859
66	0x3d8dff43	0.06933453
67	0xbb98ec31	-0.004666828
68	0x3d9d3ff5	0.076782145
69	0xbe18b5c3	-0.14913087
70	0x3dabd828	0.08390838
71	0x3df23d29	0.118280716
72	0xbd800e93	-0.0625278
73	0xbc93516d	-0.017983163
74	0x3e075151	0.13214613
75	0xbdd9200c	-0.106018156
76	0x3b21413f	0.002460554
77	0xbc92f674	-0.017939784
78	0xbe0158d6	-0.12631544
79	0xbe08f19a	-0.13373414
80	0xbdad8a38	-0.08473629
81	0xbc175108	-0.009235628
82	0x3e15c5f1	0.1462629
83	0xbde41a02	-0.11137773
84	0xbb8d1a1c	-0.004306091
85	0xbcfc9455	-0.030832449
86	0x3e11a903	0.14224629
87	0x3de39950	0.111132264
88	0xbe370386	-0.17872438
89	0x3cefc1f5	0.02926729
90	0xbd940d8b	-0.072291456
91	0x3e0296e7	0.12752877
92	0x3cc6e29c	0.024277978
93	0x3dc98f48	0.09841782
94	0x3ded5a3e	0.11589478
95	0x3b93839c	0.004501773
96	0x3d922d3b	0.07137533
97	0xbe05161a	-0.12996712
98	0xbd8cc229	-0.068729706
99	0xbcebc46e	-0.028780188
100	0x3d680ff0	0.056655824
101	0xbdeff891	-0.11717332
102	0x3d47fdc9	0.048826013
103	0x3d532e59	0.051557872
104	0xbd3a3245	-0.045458097
105	0x3c2bebc6	0.0104932245
106	0x3ce54137	0.027985198
107	0xbac5b06b	-0.0015082484
108	0xbd52a404	-0.05142595
109	0xbe02c577	-0.1277064
110	0x3d705988	0.058679134
111	0xbddee557	-0.10883587
112	0xbe153306	-0.14570245
113	0xbdc82370	-0.09772384
114	0x3ccb4af3	0.024816012
115	0x3dc50e6b	0.09621891
116	0xbdf7cb42	-0.12099315
117	0x3ca7eac0	0.02049768
118	0xbd7e4669	-0.062078867
119	0x3deaf1dd	0.11471913
120	0x3d335b29	0.04378811
121	0x3d8ddd71	0.06927002
122	0x3dbc1712	0.09184088
123	0xbddf74bc	-0.10910937
124	0x3dd0d874	0.10197535
125	0xbcdd38dc	-0.027004652
126	0xbd281560	-0.04103601
127	0x3d7b4406	0.06134417
128	0x3dc13930	0.09434736
129	0xbdc530c9	-0.09628446
130	0x3d41fbd7	0.047359314
131	0xbdf20674	-0.11817637
132	0x3d8e43fb	0.0694656
133	0x3df80901	0.12111092
134	0xbdefe5d5	-0.11713759
135	0x3d812f72	0.063078776
136	0xbe28468b	-0.1643316
137	0xbda7c2f9	-0.08191485
138	0x3d5acdec	0.05341904
139	0x3c68e5a2	0.014214905
140	0x3d584395	0.052798826
141	0x3ce17da8	0.027525738
142	0xbd266b27	-0.040629532
143	0x3e21f219	0.15815009
144	0xbe0bada1	-0.13640453
145	0xbbd9d185	-0.006647291
146	0x3e0b346a	0.13594213
147	0x3d97cf05	0.07412533
148	0x3df9a0ee	0.12188898
149	0xbda3e587	-0.08002763
150	0xbd9c883c	-0.07643172
151	0x3d5b631c	0.053561315
152	0x3dd524d7	0.10407417
153	0x3de9df02	0.114194885
154	0xbe152dd0	-0.14568257
155	0xbd14ba6a	-0.03631059
156	0xbc2490d5	-0.010044296
157	0xbdbc0154	-0.09179941
158	0x3bb87161	0.00562875
159	0xbbcbfcf3	-0.0062252223
160	0x3c2eb083	0.010662201
161	0xbdba628d	-0.09100828
162	0x3dd2df47	0.10296493
163	0xbc5c5ca6	-0.0134498235
164	0xbde7db6c	-0.11321148
165	0x3db702ee	0.08936106
166	0x3da7318b	0.081637464
167	0x3e00d01e	0.1257939
168	0x3e01e7bc	0.12686056
169	0xbd8cbeaa	-0.06872304
170	0x3e9d24bc	0.3069209
171	0x3dafb3a7	0.08579188
172	0xbdf8f75f	-0.12156557
173	0x3e085a90	0.13315797
174	0xbe2d403a	-0.16919032
175	0x3b1ca143	0.002389983
176	0x3e07817b	0.13232987
177	0x3da362c5	0.07977823
178	0xbdc32fd9	-0.095306106
179	0xbdb0cbbc	-0.08632609
180	0x3ddeebf0	0.10884845
181	0x3df8f2c1	0.12155677
182	0x3dad7703	0.08469965
183	0xbc4b4d79	-0.012408608
184	0xbdb867c8	-0.0900417
185	0xbe137b03	-0.14402394
186	0x3daab25b	0.083348
187	0xbd779864	-0.060448065
188	0x3dbf47f9	0.093398996
189	0x3e036695	0.128321
190	0xbdfa633a	-0.12225957
191	0x3d3a2b89	0.045451675
192	0x3dde1f6b	0.10845836
193	0xbd94ec33	-0.07271614
194	0xbbc20642	-0.005921156
195	0x3dea99ed	0.1145514
196	0x3ce361d3	0.027756607
197	0x3af5a66c	0.0018741614
198	0xbe035f8f	-0.12829421
199	0x3e03796c	0.12839288
200	0xbded7b6e	-0.11595808
201	0xbdad5cf8	-0.08464998
202	0xbda29e45	-0.07940344
203	0x3da6ce3d	0.081448056
204	0x3e0436c3	0.12911515
205	0xbd1f6938	-0.038918704
206	0xbd234a5f	-0.039865848
207	0x3d8d51cd	0.06900368
208	0x3d214e55	0.039381344
209	0x3de5979a	0.11210556
210	0x3dc3e6ba	0.09565492
211	0x3d5fd490	0.054646075
212	0x3ddcfa1b	0.10789891
213	0x3dc4e6ac	0.0961431
214	0xbd6839a4	-0.056695595
215	0xbe00c1fe	-0.12574002
216	0xbdab1387	-0.08353334
217	0x3dd8d243	0.10586979
218	0x3e02ca38	0.12772453
219	0xbda58a58	-0.080830276
220	0xbd832ea2	-0.06405379
221	0xbd7d1cd8	-0.061795086
222	0x3d861312	0.06546606
223	0xbd182d20	-0.03715241
224	0x3e10a891	0.14126803
225	0x3d7ad1e2	0.061235316
226	0xbe20ed6d	-0.15715571
227	0x3c88f374	0.01671765
228	0xbdc6ded4	-0.0971047
229	0x3cc27f29	0.023742275
230	0x3779d3b5	1.4890848e-05
231	0xbd90dee9	-0.07073767
232	0xbc75644b	-0.014977525
233	0x3c850a08	0.016240135
234	0x3dad27ba	0.08454843
235	0x3e13239f	0.14369057
236	0xbe09a9cf	-0.13443683
237	0x3daf3594	0.08555141
238	0xbc8a655b	-0.016894033
239	0x3c0919e1	0.008367986
240	0x3d3f3cdd	0.046688903
241	0x3e07a072	0.13244799
242	0xbd8e8de1	-0.06960655
243	0xbdb63472	-0.08896722
244	0xbc80f55d	-0.015741998
245	0xbe0f29dd	-0.13980813
246	0xbd2132fd	-0.039355267
247	0x3dfd55db	0.12369891
248	0x3dd0c5a4	0.10193947
249	0x3e05b4d1	0.13057257
250	0x3ddf955c	0.1091716
251	0xbd867da3	-0.06566932
252	0x3c4ebd16	0.012618324
253	0xbd307475	-0.043079812
254	0xbe09dce9	-0.13463177
255	0x3d12b1b4	0.035814002

encoder.layers.0.self_attn.in_proj_bias f4 [192]
0	0x3b49717f	0.0030737815
1	0x3c80b628	0.015711859
2	0xbba3f1a6	-0.005003172
3	0xba654e26	-0.0008747302
4	0xb9dcba37	-0.0004210041
5	0x3cf397ea	0.029735524
6	0x3d3a7511	0.0455218
7	0xbbe23eb8	-0.0069044493
8	0x3c3a9775	0.011388649
9	0xbbbb82ef	-0.0057223956
10	0xbcc957d8	-0.02457802
11	0xbc062312	-0.008187072
12	0xbae93fc9	-0.0017795499
13	0x3b259f3c	0.0025271913
14	0x3babc32c	0.005241772
15	0xbc7fbe66	-0.015609359
16	0xbbba8c18	-0.00569297
17	0x3bd019e6	0.0063507436
18	0x3c8b86d8	0.017032072
19	0xbcd69140	-0.026192307
20	0xbcc46ce1	-0.023977699
21	0xbacabb05	-0.0015467113
22	0xba1e74c8	-0.00060446234
23	0xbb422425	-0.0029623595
24	0xbd112a40	-0.035440683
25	0x3bc2000e	0.0059204167
26	0xbc666505	-0.014062171
27	0x3c0167e2	0.007898303
28	0x3c338d49	0.010958978
29	0xbb5eac92	-0.0033977372
30	0xb9b6977c	-0.0003482661
31	0x3be3aedb	0.0069483346
32	0x3b1f1e99	0.0024279712
33	0x3c71df32	0.014762687
34	0x3a554959	0.0008136235
35	0xbc0beca9	-0.008540311
36	0x3c890d36	0.016729932
37	0xbbe962da	-0.0071223797
38	0x3a6ff465	0.0009153544
39	0xbbe35131	-0.006937169
40	0xbbd12fb9	-0.006383863
41	0x3c95abdc	0.018270425
42	0x3ac95f4a	0.0015363481
43	0xba1ada4b	-0.0005907162
44	0x3ae406f7	0.0017397095
45	0xbc047ad2	-0.008085923
46	0x3b52883d	0.0032124661
47	0xbc6d8a02	-0.014498236
48	0x3c29fe95	0.0103756385
49	0x3b48547e	0.003056794
50	0x3b7b608d	0.003835711
51	0xbc18a4eb	-0.009316663
52	0xbc0bfecb	-0.008544634
53	0xbc6753f2	-0.014119135
54	0xbb69d569	-0.003568018
55	0xbc280713	-0.010255593
56	0xba9d1ddb	-0.0011987047
57	0x3c9a7945	0.018856654
58	0xbac4d463	-0.001501691
59	0x3a5d35f1	0.0008438519
60	0xbc867a7b	-0.016415825
61	0x3b266ef7	0.002539573
62	0x3b0818d2	0.0020766747
63	0x3b863aeb	0.004096379
64	0x38e61760	0.000109716086
65	0xba090d1a	-0.00052280875
66	0x3a61d325	0.0008614532
67	0x39c3279b	0.00037222807
68	0x3981fe36	0.000247942
69	0x3ad9fce1	0.001663115
70	0x39bd2abd	0.00036080732
71	0x37fea25f	3.035477e-05
72	0xba0c1f39	-0.0005345229
73	0x3a2ad618	0.0006516888
74	0xba7d8325	-0.0009670726
75	0xb962521c	-0.00021583628
76	0x3932b13b	0.00017041426
77	0xba9e9fa7	-0.0012102023
78	0x38f3e0e1	0.0001162903
79	0xb8540698	-5.055088e-05
80	0xb9626fd6	-0.00021594702
81	0x39bcf754	0.00036042428
82	0x38fad492	0.00011960523
83	0xb98d37e5	-0.0002693526
84	0x3ab7c4b8	0.0014020419
85	0x399913a4	0.00029197067
86	0x3ad5c3d1	0.0016308968
87	0x3a23be17	0.0006246282
88	0x3a0e0b13	0.00054185203
89	0x3a8eccce	0.0010894777
90	0xb9018849	-0.00012353169
91	0x3a86cfb0	0.0010285284
92	0xba6bc140	-0.0008993335
93	0xba7419aa	-0.00093116856
94	0x3adcad87	0.0016836383
95	0xb9e26b85	-0.00043186187
96	0x38b0af73	8.425014e-05
97	0x38659667	5.4737928e-05
98	0x386f6986	5.7080317e-05
99	0xb95d80e7	-0.00021124222
100	0x39627fcf	0.00021600652
101	0x385557a1	5.0864768e-05
102	0xb9221fac	-0.00015461323
103	0x39334558	0.00017096603
104	0xb96c76c5	-0.00022550959
105	0xb51f3d47	-5.9321286e-07
106	0x38389442	4.4007094e-05
107	0xb9be5b29	-0.00036307544
108	0x38e099e4	0.00010709817
109	0xb9b3e9d1	-0.00034315747
110	0xb9705285	-0.00022918925
111	0xb94cc79d	-0.00019529318
112	0xb9a1a72e	-0.00030832872
113	0x3a3508e4	0.0006905927
114	0x3986b2b4	0.00025691616
115	0x3a3a9ca6	0.00071186794
116	0xb9c9425c	-0.0003838715
117	0x3a035ba0	0.00050109066
118	0xb939a318	-0.00017703732
119	0xb7c791b4	-2.3790497e-05
120	0x38c1ff50	9.250513e-05
121	0x38a58f2e	7.8944824e-05
122	0xb89f149e	-7.585551e-05
123	0xb91dbd94	-0.0001504331
124	0xb812bac2	-3.4983044e-05
125	0xb8a90f2e	-8.0613754e-05
126	0x37572ba1	1.2825157e-05
127	0x39d596ef	0.0004073898
128	0x3acb76e5	0.0015523104
129	0x3afb56f3	0.0019175693
130	0x3a924e74	0.0011162297
131	0xbc08b789	-0.008344539
132	0xbc905864	-0.017620273
133	0x3c4d17aa	0.012517849
134	0xbbb23ac4	-0.0054391343
135	0x3a074a8c	0.00051609497
136	0x3bcf25ca	0.0063216435
137	0x3ba044d9	0.00489102
138	0x3c220624	0.009889159
139	0x3c04f870	0.008115873
140	0xbb188422	-0.0023272117
141	0xbaeb4ec0	-0.0017952546
142	0xbbd0fd5d	-0.0063778595
143	0x3bcc905d	0.0062427954
144	0x3b9ae5ef	0.0047271173
145	0x3bc85c57	0.0061145234
146	0xbc0f8f6a	-0.00876222
147	0xbc28c8d0	-0.010301784
148	0xbadc14ef	-0.0016790907
149	0xbc5af6fb	-0.013364549
150	0xbbdf82ff	-0.006821036
151	0x3c09f5a1	0.008420379
152	0xbc0c917a	-0.008579606
153	0xbc48d7d5	-0.01225849
154	0xbc2a7bce	-0.010405494
155	0x3c3961e8	0.011314847
156	0xbb4d9f10	-0.0031375326
157	0x3bf3586b	0.0074263117
158	0xbbbe9354	-0.0058159027
159	0xbb95ec8a	-0.004575317
160	0x3c1ee133	0.009697246
161	0x3b3c0639	0.0028690232
162	0x3b4b9897	0.0031066292
163	0xbc07a7d9	-0.008279764
164	0xbc46231e	-0.0120933335
165	0x3a182693	0.0005804088
166	0xbbaaf71c	-0.005217446
167	0x3bf3075a	0.007416648
168	0xbb82c221	-0.003990427
169	0x3ba20ed1	0.004945614
170	0x3c6d4406	0.01448155
171	0xbc804164	-0.01565618
172	0x3b202c7a	0.0024440573
173	0x3c2f49c2	0.010698738
174	0x3bfba698	0.0076797716
175	0x3bbbf941	0.0057365005
176	0xba4fb8a1	-0.0007923935
177	0xba3f7f64	-0.00073050545
178	0x3ac1fc71	0.0014799965
179	0x3ca42eb4	0.020041801
180	0x3cad530d	0.021157766
181	0x3b1ea2a3	0.0024205826
182	0xbb09a5c0	-0.0021003336
183	0xbba98009	-0.0051727337
184	0x3a3f486a	0.00072968623
185	0xba4bbc8f	-0.0007771933
186	0x3bcb60e8	0.0062066205
187	0x3bcb435c	0.006203098
188	0x3c053fb2	0.008132862
189	0x3c0c5f08	0.008567579
190	0xbbfb346d	-0.0076661617
191	0xbb95e6f6	-0.004574652

encoder.layers.0.self_attn.out_proj.weight f4 [64, 64]
0	0xbdeabab4	-0.11461392
1	0x3b9605f1	0.004578345
2	0x3c4053e6	0.011738753
3	0x3b8e9527	0.0043512764
4	0xbc8eaca3	-0.017416304
5	0xbdfa35a2	-0.12217261
6	0x3cca0d1e	0.024664458
7	0x3c258f17	0.010104916
8	0x3da58537	0.08082049
9	0x3e25ee37	0.16204153
10	0x3cf3cc3f	0.029760478
11	0x3c090f5d	0.008365479
12	0xbd78fcd0	-0.060787976
13	0xbdf81c8e	-0.121148214
14	0x3df3a9ea	0.11897643
15	0x3be515b2	0.0069911117
16	0x3d81e6bd	0.06342838
17	0x3d277094	0.040878847
18	0xbd749ad2	-0.05971796
19	0xbdd991f9	-0.10623545
20	0x3dc9d345	0.098547496
21	0x3d52f76b	0.051505487
22	0xbdfb4a6d	-0.12270055
23	0x3d9445ed	0.072399
24	0xbdecf923	-0.115709566
25	0xbd971ea1	-0.07378889
26	0x3d8b78d3	0.06810155
27	0x3df3cf96	0.11904828
28	0xbd4f8503	-0.05066396
29	0x3bca5c35	0.0061755427
30	0xbd37746b	-0.04478876
31	0x3d2dd206	0.042436622
32	0x3dc30be1	0.0952375
33	0xbd548c9b	-0.051891904
34	0xbdad61eb	-0.08465942
35	0x3dea4786	0.11439423
36	0x3d98cbf3	0.07460775
37	0x3d9e7f71	0.07739151
38	0x3cd42d7a	0.025900591
39	0xbcb05594	-0.021525182
40	0x3c2bfdd8	0.010497533
41	0x3c97e565	0.018542001
42	0x3dd3e1bf	0.10345792
43	0xbdbd1777	-0.09232991
44	0x3cd10767	0.025516225
45	0xbc623945	-0.013807599
46	0xbb673717	-0.003528064
47	0x3bd72663	0.0065658554
48	0xbddd67be	-0.10810803
49	0xbe0200ec	-0.12695664
50	0x3d098e00	0.033582687
51	0x3daba15d	0.08380387
52	0x3d0d84ee	0.0345506
53	0x3d12ad44	0.03580977
54	0x3d025bc4	0.031825796
55	0xbd566a41	-0.052347425
56	0x3db41d8d	0.08794699
57	0x3b8827d4	0.0041551385
58	0xbcfac0b0	-0.030609459
59	0x3d0c7861	0.03429449
60	0xbd00a6a8	-0.031408936
61	0x3d2bceaa	0.041945137
62	0xbba2a2d4	-0.0049632583
63	0x3d3c4f28	0.045973927
64	0x3ce725b6	0.028216224
65	0x3ce031ac	0.027367435
66	0x3baf54ce	0.0053506857
67	0x3da14d26	0.07876043
68	0x3bc68f7b	0.0060595847
69	0xbdba0225	-0.0908244
70	0xbcfce144	-0.030869134
71	0x3d2fee62	0.04295195
72	0x3c14e947	0.009088821
73	0xbe76ea35	-0.2411278
74	0xbaf57f59	-0.0018729969
75	0xbda27480	-0.07932377
76	0xbdcf33f5	-0.10117332
77	0x3df37d1f	0.11889099
78	0x3cfd4067	0.030914498
79	0xbd4e8fd1	-0.050430123
80	0xbd109314	-0.035296515
81	0xbda66c3a	-0.08126111
82	0x3d3df077	0.046371903
83	0xbd917ff9	-0.07104487
84	0xbd015ccc	-0.03158264
85	0xbde956b3	-0.1139349
86	0x3d9dfa4b	0.07713755
87	0xbe06073c	-0.13088697
88	0xbcf5173c	-0.029918306
89	0x3ccf7331	0.025323482
90	0xbd8aa9c2	-0.0677066
91	0xbc8f0b9a	-0.017461587
92	0x3da29a2e	0.07939564
93	0x3c5e3975	0.0135635035
94	0x3db2d439	0.087318845
95	0xbd96a96d	-0.07356534
96	0x3d118eaa	0.035536446
97	0xbdef7f6f	-0.11694228
98	0x3d5eaeb8	0.054365844
99	0xbe0088f8	-0.1255225
100	0x3cd13bb2	0.02554116
101	0xbdbd8f24	-0.092558175
102	0xbdbbbdbb	-0.091670476
103	0x3d410463	0.047123324
104	0x3c8b347a	0.016992796
105	0xbbfd3245	-0.00772694
106	0xbcccad8d	-0.0249851
107	0xbda7de6b	-0.0819672
108	0xbd1de3ce	-0.03854733
109	0x3d529a54	0.05141671
110	0x3e008107	0.1254922
111	0x3d025bbe	0.031825773
112	0xbd48944b	-0.04896955
113	0xbd9713cf	-0.07376825
114	0x3d44e97b	0.048074227
115	0x3dbcf7db	0.09226962
116	0x3dc1a55d	0.09455369
117	0xbd7437bb	-0.05962346
118	0xbdf46913	-0.11934104
119	0x3dce9528	0.10087043
120	0xbc3b3895	-0.011427064
121	0xbd537898	-0.05162868
122	0x3df2964c	0.11845073
123	0xbcd71c41	-0.02625859
124	0x3da3ae4e	0.0799223
125	0x3d45762c	0.0482084
126	0x3d1ac449	0.03778485
127	0x3dd792c1	0.10526038
128	0xbd9f934c	-0.077917665
129	0x3d537dd4	0.05163367
130	0x3ca705de	0.02038854
131	0xbd244f49	-0.040114675
132	0xbdfa6984	-0.12227157
133	0x3d33744e	0.04381209
134	0x3de80cb2	0.113305464
135	0x3c6dae00	0.014506817
136	0x3df37993	0.11888423
137	0x3cb4d12d	0.022072399
138	0x3d98c79b	0.07459947
139	0xbd250a82	-0.040293224
140	0x3d8bdb30	0.06828916
141	0x3d387946	0.04503753
142	0x3d8ec96b	0.06972011
143	0xbdcee242	-0.10101749
144	0x3dcd252b	0.10016855
145	0xbdb1b914	-0.08677879
146	0x3ba0724e	0.0048964387
147	0x3dfc2ab2	0.12312831
148	0x3d9e751a	0.07737179
149	0xbd8434e9	-0.06455404
150	0xbdab2375	-0.08356372
151	0x3dfa4fe8	0.12222272
152	0xbddea069	-0.108704396
153	0x3dbd8c2f	0.092552535
154	0x3e1e8e6d	0.15484019
155	0x3c2a8742	0.010408225
156	0xbd728d20	-0.05921662
157	0xbc8e2664	-0.01735229
158	0xbdfb26ab	-0.12263235
159	0xbd95b1c0	-0.07309294
160	0x3dbe39ca	0.09288366
161	0x3d0be55b	0.034154277
162	0xbc8bb207	-0.017052663
163	0xbd920fdf	-0.071319334
164	0x3e044c13	0.12919645
165	0xbdb3b290	-0.087742925
166	0x3de6819b	0.11255189
167	0x3d1dd787	0.03853562
168	0x3d4d370b	0.05010132
169	0x3dafa803	0.085769676
170	0x3d6d849c	0.057987794
171	0x3d754ff7	0.059890714
172	0x3cc8c874	0.024509646
173	0x3cc97031	0.02458963
174	0x3dbd014a	0.092287615
175	0x3d5ce75e	0.053931586
176	0xbd90f621	-0.07078195
177	0xbd6de873	-0.05808301
178	0xbc8a5d05	-0.016890058
179	0xbce79132	-0.028267477
180	0x3cdea6d7	0.027179165
181	0x3dccb67c	0.09995744
182	0x3cfd4976	0.030918818
183	0x3dee8ecc	0.1164833
184	0xbd7cab76	-0.061686955
185	0x3d1756e1	0.03694809
186	0xbd962705	-0.07331661
187	0x3d9381d1	0.07202495
188	0x3ddc8573	0.10767641
189	0x3d8310fd	0.06399725
190	0xbabc71a1	-0.0014377126
191	0x3db927f5	0.09040824
192	0xbe00f87a	-0.12594786
193	0x3d7d3361	0.061816577
194	0x3abca30c	0.0014391853
195	0xbb95fa3d	-0.00457695
196	0xbd631090	-0.055435717
197	0x3def7785	0.116927184
198	0xbdc41fbd	-0.09576366
199	0x3ba9746b	0.005171349
200	0xbddc45f7	-0.10755532
201	0x3e11d61c	0.14241832
202	0xbbfff4f8	-0.007811185
203	0x3cb98045	0.022644171
204	0x3d27d2f4	0.040972665
205	0xbd9e40db	-0.07727214
206	0xbda3cb71	-0.07997788
207	0xbd105fb6	-0.035247527
208	0xbd4b2ec9	-0.049605165
209	0x3d50bc1a	0.050960638
210	0xbd5d2c39	-0.053997252
211	0xbdc9d040	-0.09854174
212	0x3e06f673	0.1317995
213	0x3df8ad0c	0.12142381
214	0xbd939ea9	-0.072079964
215	0xbcc8bdf4	-0.02450464
216	0x3b1b2ef6	0.0023679114
217	0xbcfe2eb9	-0.031028138
218	0x3df0a90a	0.11750992
219	0xbd705982	-0.05867911
220	0x3d30ea9d	0.043192495
221	0x3d3306a3	0.0437075
222	0xbe0674d0	-0.13130498
223	0x3cd03ee3	0.025420612
224	0x3c5aa260	0.013344377
225	0x3d5072a9	0.0508906
226	0x3d810fc3	0.063018344
227	0xbc1e8a9c	-0.009676602
228	0x3d8b8daa	0.0681413
229	0xbdbf85d9	-0.09351701
230	0xbd01a03f	-0.031646963
231	0xbd67da0b	-0.056604426
232	0x3dcf94f5	0.10135833
233	0x3c549d50	0.012976959
234	0x3d0bc35e	0.034121864
235	0x3c9f7add	0.019467765
236	0x3d91076a	0.07081492
237	0xbdf8d3d0	-0.12149775
238	0x3d00e54f	0.031468686
239	0x3dea326c	0.114353985
240	0xbe0f2c32	-0.13981703
241	0xbdaf01cd	-0.08545265
242	0x3d8f648d	0.070016004
243	0x3d4179c0	0.04723525
244	0xbd527057	-0.051376667
245	0x3dc3eb8b	0.09566411
246	0x3cb060b3	0.021530485
247	0xbcaf18b3	-0.021374082
248	0x3dd6ad5d	0.10482285
249	0x3c44d8f8	0.01201462
250	0x3d80cb7e	0.06288813
251	0xbe08f388	-0.1337415
252	0x3d2fa8e3	0.042885672
253	0xbdcb8203	-0.09936907
254	0xbc1205b4	-0.008912493
255	0xbde2c231	-0.11072195

encoder.layers.0.self_attn.out_proj.bias f4 [64]
0	0xb9eabbed	-0.00044771974
1	0xbbe13d1d	-0.0068737403
2	0xba7bcc35	-0.00096053194
3	0xbba15b22	-0.004924194
4	0x3b6d1eb4	0.003618163
5	0xbb09815a	-0.002098164
6	0xbbb1c80f	-0.00542546
7	0xbb84999f	-0.0040466334
8	0x3aa4c179	0.0012569866
9	0x3ba0643f	0.0048947628
10	0x3bf83c47	0.007575545
11	0x3b9c90d8	0.004778009
12	0xbb5636d1	-0.0032686482
13	0x3b599974	0.0033203037
14	0xbb4bab7a	-0.003107755
15	0x3c185470	0.009297475
16	0x3ca40511	0.020021947
17	0x3bbd695d	0.0057803825
18	0xbb5b4f23	-0.0033463917
19	0x3ac6a438	0.0015155142
20	0xba9c9b8d	-0.0011948213
21	0x3c0ee682	0.0087219495
22	0x3c18af37	0.009319118
23	0xbb030b6d	-0.0019995824
24	0x3c93c4aa	0.018038113
25	0x3bc9ced1	0.0061586876
26	0x3bc30055	0.0059509673
27	0x3b93d712	0.0045117224
28	0xbc1848a8	-0.009294666
29	0x3c889f88	0.016677633
30	0xbb597834	-0.003318322
31	0x3c0ac827	0.008470572
32	0xbb50dffb	-0.0031871784
33	0xbb873750	-0.004126467
34	0x3b0270d8	0.0019903686
35	0xba604240	-0.0008554794
36	0xbc9ccf99	-0.019141959
37	0xbb87f83e	-0.004149466
38	0xbb916ed1	-0.004438259
39	0xbc4096b1	-0.011754678
40	0xbbb51b7f	-0.0055269594
41	0xbc9d12f2	-0.019174073
42	0x3bc8d232	0.006128573
43	0xbca735eb	-0.020411452
44	0xbb2c32e9	-0.0026275462
45	0xbc8f7f87	-0.017516864
46	0x39b24134	0.00033999386
47	0x3a2fd475	0.0006707379
48	0xb9f43e4f	-0.0004658573
49	0xbb0cff41	-0.0021514448
50	0x3c451d0b	0.01203085
51	0xbc72d8ab	-0.0148221655
52	0x3a243681	0.0006264225
53	0xbc8211e3	-0.01587767
54	0x3c595ec4	0.013267223
55	0xbc79c4a7	-0.0152446395
56	0xbb3a489c	-0.0028424626
57	0x3be9f350	0.007139601
58	0x3bebd96c	0.0071975496
59	0xbc8d39b7	-0.017239435
60	0x3c2c630e	0.010521663
61	0xbc0964a0	-0.008385807
62	0x3c09c8e3	0.0084097115
63	0xbb98d1c6	-0.004663679

encoder.layers.0.linear1.weight f4 [128, 64]
0	0x3dd5373a	0.10410924
1	0x3d102f97	0.035201635
2	0xbc9dd23e	-0.01926529
3	0xbd2e0a54	-0.04249032
4	0x3dc3db54	0.09563318
5	0xbd8a5708	-0.06754881
6	0x3d3a24c7	0.04544523
7	0xbd86a8dd	-0.06575177
8	0x3e0f262d	0.13979407
9	0xbdc67af0	-0.09691417
10	0x3db1ada2	0.08675696
11	0xbcd9f746	-0.026607167
12	0x3bed40ee	0.0072404062
13	0x3d001524	0.03127016
14	0xbceef750	-0.029170662
15	0x3d9e3c82	0.07726385
16	0x3d7012f2	0.058611818
17	0x3de4e2fc	0.11176106
18	0x3caae8fc	0.020863049
19	0xbd417fac	-0.047240898
20	0xbd20a77d	-0.03922223
21	0x3d17f94a	0.037102975
22	0x3c8d777b	0.017268887
23	0x3aad75da	0.0013233975
24	0x3c7ca5df	0.015420406
25	0x3cc53590	0.024073392
26	0x3c5e86e9	0.01358197
27	0x3d827fc0	0.06372023
28	0x3d0ab1b2	0.03386087
29	0x3d869ffb	0.065734826
30	0x3caf0ab6	0.021367412
31	0xbd8823a5	-0.06647424
32	0x3dba6dcf	0.091029756
33	0x3d1473f5	0.036243398
34	0x3dfbd9f2	0.12297429
35	0xbe11e971	-0.14249207
36	0xbbd2e011	-0.006435402
37	0x3d692426	0.05691924
38	0xbe0b0b52	-0.13578537
39	0xbcaf36d0	-0.021388441
40	0xbd1231d6	-0.03569206
41	0xbd4c6a76	-0.049906217
42	0xbe00d67c	-0.1258182
43	0xbe082e44	-0.13298899
44	0x3d979f47	0.074034266
45	0xbd319ed3	-0.043364357
46	0x3cbc891a	0.023014594
47	0xbce104e1	-0.027468147
48	0xbcba0bf9	-0.022710787
49	0x3d713e85	0.058897514
50	0xbceac77a	-0.028659571
51	0x3d8a4195	0.0675079
52	0x3da872b2	0.082250014
53	0x3dde6598	0.10859221
54	0xbcd9036b	-0.026490888
55	0xbbbd377f	-0.005774438
56	0xbde7d209	-0.11319358
57	0xbdebe33c	-0.11517951
58	0x3d932d04	0.071863204
59	0x3ddba56f	0.10724913
60	0xba3dca33	-0.0007239908
61	0xbd850846	-0.06495719
62	0x3cd2eea2	0.025748555
63	0xbda0f4b0	-0.078591704
64	0xbcb137d4	-0.021633066
65	0x3dbe0aa2	0.09279372
66	0xbb61f2a0	-0.003447689
67	0x3d9deb6f	0.07710921
68	0xbd8f6f3c	-0.07003638
69	0x3b638531	0.003471684
70	0x3dbee17a	0.0932035
71	0xbd8b62ff	-0.068059914
72	0xbc57f200	-0.013180256
73	0xbcfaf21d	-0.030633027
74	0xbd5bd026	-0.053665303
75	0x3d90cb89	0.07070071
76	0xbde460c7	-0.11151271
77	0xbcc51f73	-0.024062848
78	0x3bf2176c	0.007388046
79	0xbd950ac9	-0.07277448
80	0xbdb33450	-0.08750212
81	0xbd66b077	-0.056320634
82	0xbd43bfc3	-0.0477903
83	0xbc542a7f	-0.012949585
84	0xbc35847c	-0.01107895
85	0xbde588ed	-0.11207757
86	0xbcf26236	-0.029587846
87	0xbd8c38bd	-0.068467595
88	0xbd793168	-0.060838133
89	0xbdc32f57	-0.09530514
90	0x3cd02011	0.025405915
91	0xbcb9faa6	-0.022702526
92	0x3d8cf9d1	0.06883586
93	0xbd32c0b6	-0.043640815
94	0xbc8c3283	-0.01711393
95	0xbcb1dc83	-0.021711593
96	0xbdcf577b	-0.101241075
97	0x3de5bc01	0.112174995
98	0x3dfe0a03	0.12404253
99	0x3d9d53af	0.07681977
100	0xbd86f445	-0.065895595
101	0xbd747ffa	-0.05969236
102	0xbdada767	-0.08479195
103	0xbdb63744	-0.0889726
104	0xbdca0f71	-0.098662265
105	0xbdfd5352	-0.12369408
106	0xbd09dae8	-0.03365603
107	0xbd052487	-0.03250554
108	0xbe0a2fbf	-0.13494776
109	0x3d905e3f	0.07049226
110	0x3d009ab8	0.03139755
111	0x3d12f2cc	0.03587608
112	0xbdd70d32	-0.10500564
113	0x3c83bf1a	0.016082335
114	0xbd49f0f2	-0.04930205
115	0xbcc54359	-0.024079965
116	0xbbf3b932	-0.0074378485
117	0x3d732bc7	0.05936792
118	0x3df2bbda	0.11852236
119	0x3d472844	0.048622385
120	0xbd4f7ac4	-0.050654188
121	0xbd7f490c	-0.062325522
122	0x3dece93a	0.11567922
123	0x3dae2bd0	0.0850445
124	0x3dc7fb0f	0.097646825
125	0x3d0eec09	0.03489307
126	0x3e3d45da	0.18483678
127	0xbdf47d68	-0.11937982
128	0x3dddfd2c	0.10839304
129	0x3e0af3d9	0.13569583
130	0xbd682ada	-0.05668149
131	0xbd510e8c	-0.051039264
132	0x3ddaeaa5	0.10689286
133	0x3db80ecb	0.089871965
134	0xbd1e0404	-0.03857805
135	0xbdc4b4b7	-0.09604781
136	0x3d08d60b	0.033407252
137	0xbdbbf043	-0.09176686
138	0xbdad52ab	-0.08463033
139	0xbd426171	-0.04745621
140	0xbc9899f8	-0.018628106
141	0xbd187ecd	-0.0372303
142	0x3e152570	0.14565063
143	0x3de306a7	0.11085253
144	0xbdafdc2a	-0.08586915
145	0x3cfb2583	0.030657535
146	0xbdd81c3f	-0.105522625
147	0xbd8d560e	-0.06901179
148	0xbc0bc0aa	-0.008529821
149	0x3d153a7c	0.03643273
150	0xbdc00709	-0.09376342
151	0xbd3575ed	-0.044301916
152	0x3dfd9363	0.123816274
153	0x3d2a594d	0.04158907
154	0xbdd7cdba	-0.10537286
155	0x3dad648f	0.08466446
156	0x3d440c9d	0.04786359
157	0xbdd3ce6f	-0.103421085
158	0xbb2dafc6	-0.0026502474
159	0xbd216ecb	-0.0394123
160	0x3db6d3b8	0.08927101
161	0x3e120493	0.14259557
162	0x3db4aaa4	0.088216096
163	0x3d850cd3	0.06496587
164	0x3df634e9	0.120218106
165	0x3d9b0cf2	0.075708285
166	0xb971a5bc	-0.00023045292
167	0xbca6eec5	-0.020377526
168	0x3d881eaa	0.06646474
169	0x3d889c71	0.06670464
170	0xbd91df29	-0.071226425
171	0xbd8a8f9c	-0.067656726
172	0xbd429184	-0.047502056
173	0x3d9d6948	0.076860964
174	0x3dc5a92f	0.0965141
175	0xbdd06e89	-0.10177333
176	0xbe08931d	-0.1333737
177	0xbda06aa6	-0.078328416
178	0x3c72a74b	0.014810394
179	0xba8ad0be	-0.0010590774
180	0x3df449fc	0.11928174
181	0xbcde3cdd	-0.027128631
182	0xbcb6f2cf	-0.022332577
183	0xbd8a4979	-0.06752295
184	0xbd98cebb	-0.07461306
185	0x3dacce8b	0.084378324
186	0x3da3a51d	0.07990477
187	0x3caabcaf	0.020841924
188	0x3dceb5dd	0.100932814
189	0x3c6ac147	0.0143283075
190	0x3d8542c7	0.065068774
191	0xbd07aa83	-0.033121597
192	0x3d1f032b	0.03882138
193	0x3da0c5da	0.07850237
194	0x3da42ba5	0.08016137
195	0xbda81fcd	-0.082091905
196	0xbd82b9b2	-0.06383075
197	0x3ddcb850	0.10777342
198	0xbdc9d230	-0.09854543
199	0x3def76cf	0.11692583
200	0xbcda762e	-0.02666768
201	0x3d9c12cc	0.07620773
202	0xbd4a0050	-0.049316704
203	0x3d35b40f	0.04436117
204	0xbdc6dea7	-0.09710436
205	0x3dfd1766	0.123579785
206	0x3e02be19	0.12767829
207	0xbd5aa4d7	-0.05337986
208	0xbdb2e6ec	-0.08735451
209	0xbd8924d1	-0.06696475
210	0xbd5deee5	-0.054182906
211	0x3d7a6be3	0.061138045
212	0xbde02015	-0.10943619
213	0xbda6c417	-0.0814287
214	0x3dc59e31	0.09649313
215	0xbdc34afd	-0.09535787
216	0x3d262430	0.040561855
217	0x3dd5ef41	0.10446025
218	0xbddecf77	-0.108794145
219	0xbdd21f27	-0.10259848
220	0xbdf67bc1	-0.12035323
221	0x3d118e1f	0.035535928
222	0xbdee1562	-0.11625172
223	0xbdc4185c	-0.09574959
224	0xbbf19ae6	-0.0073732017
225	0x3bedb1da	0.0072538676
226	0xbd98122e	-0.074253425
227	0x3decf246	0.115696475
228	0xbe07690e	-0.13223669
229	0xbdbfbff8	-0.09362787
230	0xbca1611f	-0.019699631
231	0xbd53679c	-0.05161248
232	0xbdabbd61	-0.083857305
233	0x3c69bb5b	0.01426586
234	0xbd775942	-0.060387857
235	0xbd972180	-0.073794365
236	0xbcf35ba1	-0.029706778
237	0xbd517256	-0.05113443
238	0x3d87f523	0.06638553
239	0xbcd5586c	-0.02604314
240	0x3c1b0e13	0.009463805
241	0x3cc9cd0b	0.024633905
242	0x3d86f6b6	0.06590025
243	0x3dc4f171	0.09616364
244	0x3d80cb7b	0.06288811
245	0xbda777d5	-0.08177153
246	0xbc839d0e	-0.0160661
247	0xbd408eee	-0.04701131
248	0xbdbefb60	-0.0932529
249	0xbd257227	-0.040392067
250	0xbd9b8f1f	-0.075956576
251	0x3dc366f6	0.095411226
252	0xbd8051b7	-0.06265586
253	0xbe0186cd	-0.12649079
254	0xbb1d85ed	-0.0024036125
255	0x3d252621	0.040319566

encoder.layers.0.linear1.bias f4 [128]
0	0xba940503	-0.0011292998
1	0x3dc05839	0.09391827
2	0xbd42a426	-0.047519825
3	0x3da03b10	0.07823765
4	0xbdb64840	-0.08900499
5	0xbd37a051	-0.044830624
6	0x3c8b06c0	0.016970992
7	0xbb85c5bf	-0.004082411
8	0x3d80896a	0.0627621
9	0xbde116b2	-0.10990657
10	0x3d204c7a	0.039135434
11	0xbda33b09	-0.079702444
12	0xbd8adecc	-0.067807764
13	0xbd9c126f	-0.076207034
14	0x3de5e6fc	0.112256974
15	0x3cc96511	0.024584325
16	0x3d10d5d5	0.035360176
17	0x3d5ebd2d	0.05437963
18	0x3dbbdd33	0.0917305
19	0xbdac8ea9	-0.08425648
20	0x3da18bad	0.07887969
21	0xbdb4304e	-0.08798276
22	0x3d2d60a9	0.04232851
23	0xbdb947c1	-0.09046889
24	0xbda6e1da	-0.081485465
25	0xbdcb59b4	-0.09929219
26	0x3cbb2ce6	0.022848558
27	0xbde040b4	-0.10949841
28	0x3df86aa3	0.12129714
29	0x3d8668a5	0.06562928
30	0xbda31bfb	-0.07964321
31	0xbe06adad	-0.1315219
32	0xbd181357	-0.03712782
33	0xbdbca563	-0.092112325
34	0x3de29f3b	0.11065527
35	0x3d308ce4	0.043103114
36	0x3dd009a6	0.1015809
37	0x3cf8c4b8	0.03036724
38	0x3ca3e2b7	0.020005567
39	0xbdf81142	-0.12112667
40	0xbd153691	-0.03642899
41	0xbdd09e70	-0.101864696
42	0xbbaa6090	-0.0051994994
43	0xbe12b5ed	-0.14327212
44	0x3d025976	0.031823598
45	0xbcf923bd	-0.03041255
46	0x3deea4b1	0.11652506
47	0xbda3d8bd	-0.08000324
48	0x3dcaffde	0.09912084
49	0xbe0b53f2	-0.13606241
50	0x3da19ff2	0.07891835
51	0xbdac9e3c	-0.08428618
52	0xbc1feacb	-0.009760569
53	0x3d062337	0.032748427
54	0xbd963d11	-0.07335866
55	0xbdde3459	-0.10849828
56	0xbda03d97	-0.07824247
57	0xbddc47ae	-0.10755859
58	0xbe07affb	-0.13250725
59	0x3df07ced	0.11742578
60	0xbd93a8be	-0.072099194
61	0x3daaa1f0	0.083316684
62	0xbd584c8a	-0.05280737
63	0xbdc3a4cc	-0.09552917
64	0x3d979f26	0.07403402
65	0x3da7d919	0.08195705
66	0xbcc4349a	-0.023950864
67	0x3daa747d	0.083229996
68	0x3dbed923	0.09318759
69	0x3c8a6154	0.016892113
70	0x3cc28157	0.023743315
71	0xbd9e08b1	-0.077165015
72	0x3c87a3eb	0.016557654
73	0x3de61923	0.11235263
74	0x3d855d3d	0.065119244
75	0xbd2da071	-0.042389337
76	0xbcc33107	-0.023827089
77	0x3dce5179	0.100741334
78	0xbd8bc873	-0.06825342
79	0xba991c18	-0.0011681346
80	0x3de866a9	0.11347706
81	0xbcaa23dc	-0.020769052
82	0x3d6b3f2a	0.057433285
83	0x3b5ccc21	0.0033691006
84	0x3a1224b1	0.00055749255
85	0xbd21a686	-0.03946545
86	0xbc091c2e	-0.008368535
87	0xbba8649c	-0.0051389467
88	0xbdb4cfff	-0.088287346
89	0x3dbbdaba	0.09172578
90	0xbdd283d2	-0.10279049
91	0x3de1ca47	0.110249095
92	0xbcdeeb2b	-0.027211746
93	0x3d309944	0.043114915
94	0x3dac3f1a	0.08410473
95	0xbdc683e8	-0.09693128
96	0xbda8ea7d	-0.0824785
97	0x3daac58f	0.083384626
98	0x3d06d2eb	0.03291599
99	0x3d48ac7c	0.04899262
100	0xbdfa246f	-0.122139804
101	0xbc8ee0c9	-0.01744117
102	0x3e03d111	0.12872721
103	0xbdac3b5a	-0.08409758
104	0x3da66d4c	0.081263155
105	0x3da2df62	0.07952763
106	0x3dd0e143	0.10199215
107	0xbce626ac	-0.028094612
108	0xbd96273b	-0.07331701
109	0xbde5d210	-0.11221707
110	0x3c996b1f	0.018727837
111	0x3df85611	0.12125791
112	0x3dbac626	0.09119825
113	0xbdf85543	-0.121256374
114	0x3cc19b8c	0.02363374
115	0x3d24d104	0.040238395
116	0x3dc8201f	0.097717516
117	0xbd80372d	-0.06260524
118	0x3d0072dd	0.031359542
119	0x3d0df18c	0.034654185
120	0xbdecff66	-0.11572151
121	0x3cbba950	0.022907883
122	0x3d31c871	0.043404046
123	0xbcf1f2a2	-0.029534642
124	0xbd92d444	-0.07169393
125	0x3cf02a23	0.029316967
126	0x3d4c1913	0.0498286
127	0x3d7ffb9c	0.062495813
