BDG2/results/TimeSeriesTransformer-BDG2.pt (torch, 641170 bytes, 47 tensors)

embedding.input_proj.weight f4 [64, 4]
00000000: d510 a1be c287 c7be 6792 cf3d a5d9 abbe
00000010: 910c 3bbd 9362 213f 0e5c 943e 379e a93e
00000020: 9b96 73bb 533b 09bf 06dc 1cbe 4599 c83e
00000030: f4c3 433e 4ef2 87be e17b 023f f7a3 b03e
00000040: 5fc3 e83e ded2 bc3e bf8d e7bd ece4 d3be
00000050: b22d 48be f2c4 b3bd 5efd 413e be9e c43d
00000060: 0a3a 403d 6419 95be 35c6 cbbe e469 b7be
00000070: 52ec c73d c3a1 0ebf 4815 0dbf 71f6 103d
00000080: 7b96 2ebd 0852 b93e 750d debe 1dc6 cb3e
00000090: 59bd 933e 28a8 63be 93cd 8fbd ae3b 9abe
000000a0: 5048 fb3e 5e4c f63e 1dea d33c e3eb cfbe
000000b0: 4a94 f0be 06ef 0abf 5ca7 db3d 350f 773e
000000c0: e7d9 20be 358a 163e 868d 2ebe 9d4f 93be
000000d0: 5c93 0dbe 80e7 d5be 535c be3e 6fa3 933d
000000e0: 7a3f 923d a502 093f e109 ec3e d2d2 3cbe
000000f0: 68e5 093d 8d8e 533e 4a63 c8be 8ef4 dfbd
00000100: 6703 7c3e 6b61 02bf 4dde a8be 59d1 7e3c
00000110: 0740 adbe fb7c 213f 2f13 ee3e 73fd b93e
00000120: 4744 843c ca48 1a3f 3e8d cabd cefe b0be
00000130: a800 de3e 7a37 d63e 08a3 5fbe 751b c03d
00000140: 554e a43e 6439 5e3e 9dd5 053e a56e 753e
00000150: 47de cebd 18cf d63e 53f4 923e cdb8 15bf
00000160: 47fc 283e b5f6 493e 316d b7be df24 9cbe
00000170: 1de6 1abe 1ce0 a3be cf93 a03e 4856 063e
00000180: f915 d5be 77a8 b03d 4607 3ebd 4f73 96be
00000190: d404 7abd b298 05bf d5e3 4f3e ac59 d83d
000001a0: 49cf 7c3e 1025 193f d6c9 f0bd f428 c5be
000001b0: 3e98 9fbe c6dd b63e 162b 3a3e 6b4a 8cbe
000001c0: 51fd 7bbe a244 0dbf 8ad9 a53e f30f b4be
000001d0: 597a 4ebe 0e3a cbbd 4f84 f03e b347 adbd
000001e0: 0d1a 9abe 1eb8 923d 411a b0be a32b cc3e
000001f0: 5655 823d fe74 6cbe 07f4 81be a707 883e
00000200: 47a4 b3bc 341b c53e 397f 92be 8776 cb3d
00000210: e742 b23e 575b aabe 3165 0dbe e43d 363e
00000220: e16b 83bd 6de2 9f3d c470 c2be 8fc9 3ebe
00000230: a5fe 08bc 44de 12be 3702 efbd 2d61 203e
00000240: 3ec3 2e3c 2126 f53e f601 0d3f eee2 04bf
00000250: 056a 0dbe 9203 9cbe adf8 b6be 6764 9abd
00000260: bc73 263e d220 01bf 0828 d0be f0fa b13e
00000270: cd5e 043d e122 ae3e e240 d73e e030 aebe
00000280: aa15 e83e 2fe5 e83e 890b 373e d557 57be
00000290: 3568 93be 5916 073f a915 b83e 7ec4 7abe
000002a0: 5de0 1fbe 7d3b 583e d32c 7ebe 9055 63be
000002b0: 1d16 94bd 2487 1fbf 19ef 99be 4dd7 b9be
000002c0: 74d8 0d3e a9af d2bd 5036 26be 4113 733e
000002d0: 9c88 d6be a453 42bc fd54 fc3d 6bef cd3e
000002e0: d21d a9be f4fd cebe 62b2 803d 5dd0 ec3e
000002f0: 9fa9 013f dde0 0f3f b0b9 abbd 49ec 0abf
00000300: a6ff d5be a3b4 233d 079d edbe 2174 56be
00000310: eb9d acbe a16a a43e 9075 8c3e f176 58bc
00000320: ba1d a6bd 0497 b53e 3eac ecbd 1e87 45be
00000330: 154b e3be a1a8 e0bd 5f0c 963e d6d6 ed3e
00000340: 1930 dbbe 0bf2 15bf c9f5 60be 0c31 a0be
00000350: 44b6 a5be 053f 71bd 915d 08bf cfa6 803e
00000360: e5a3 ffbe 9d0e 1dbf a3cd dabe 5167 ce3e
00000370: fc7b bfbb 5241 b53d fd67 233e 5dfd 703c
00000380: 973f f93e d685 103e df18 063e 9d3c febd
00000390: 0357 c5bd 1c0c 11bf 9114 833e 4486 d3be
000003a0: 74ed 9bbd 5fb2 27bf 2fe3 99be 7c51 19be
000003b0: 49ac bb3e 572e f3bd e965 45bd 1dbf 2b3d
000003c0: dba9 93be 46d7 2dbf 8f55 23be c223 c4be
000003d0: be07 143f 240c d1bc 8548 823e 819d 583e
000003e0: f6a9 bfbe 1a8f 50be 8417 91be e2dd a8be
000003f0: d099 423e 7b6f 1dbf fe8c 9abe 53a6 c03e
-0.31458154 -0.38970762 0.10135346 -0.33564487 -0.04566628 0.6304104 0.28976482 0.3312852
-0.0037168625 -0.53606147 -0.15318307 0.39179435 0.19117719 -0.2655205 0.50970274 0.34500095
0.45461556 0.3687963 -0.11306333 -0.4138559 -0.19548681 -0.08777799 0.18944308 0.0960059
0.04693035 -0.29120934 -0.39799657 -0.35822976 0.097618714 -0.5571558 -0.551106 0.035391275
-0.042623978 0.36195397 -0.43369642 0.39799586 0.28855398 -0.22232115 -0.07021632 -0.30123657
0.49078608 0.4810514 0.02586847 -0.40609655 -0.46988136 -0.5427097 0.10725281 0.24126895
-0.15708123 0.1470116 -0.17046174 -0.28771678 -0.13825744 -0.41778183 0.37179813 0.07208907
0.071410134 0.5351966 0.46101287 -0.18439797 0.033666044 0.20659848 -0.39138252 -0.10935317
0.24610673 -0.509299 -0.32982102 0.015552842 -0.3383791 0.6308133 0.4649901 0.3632618
0.016145838 0.6026732 -0.09890221 -0.345694 0.43359876 0.418392 -0.21839535 0.09380237
0.32091013 0.2170158 0.13069768 0.23967989 -0.1010099 0.41954875 0.2870203 -0.5848511
0.16502486 0.19723018 -0.35825494 -0.3049688 -0.15126844 -0.3200692 0.3136277 0.13118851
-0.41618326 0.08625882 -0.046393655 -0.29384848 -0.06103976 -0.5218612 0.20301755 0.105639786
0.24688448 0.5982218 -0.11757247 -0.38507807 -0.3117084 0.35716075 0.18180498 -0.27400526
-0.24608351 -0.5518285 0.32392532 -0.35168418 -0.2016386 -0.099231824 0.46975943 -0.08460941
-0.30098 0.07164024 -0.3439503 0.39877042 0.06363933 -0.23091504 -0.2538149 0.26568338
-0.02192892 0.38497317 -0.28612688 0.09934717 0.34816667 -0.33272812 -0.13808133 0.17797047
-0.06417061 0.07806859 -0.37976658 -0.18631576 -0.008361493 -0.143426 -0.11670344 0.1566207
0.010666667 0.47880653 0.5508112 -0.5190877 -0.13809974 -0.30471474 -0.357366 -0.075386815
0.16255087 -0.50440705 -0.4065554 0.34761763 0.03231697 0.34010985 0.4204169 -0.34021664
0.45329028 0.45487353 0.17875494 -0.21029599 -0.2879044 0.52768475 0.35954025 -0.24489018
-0.15612932 0.21116443 -0.24821787 -0.22200608 -0.0723078 -0.62315583 -0.3006523 -0.36297074
0.13852102 -0.10287411 -0.16231656 0.23737814 -0.419011 -0.011860762 0.12320898 0.40221724
-0.33030564 -0.40428126 0.06284024 0.4625272 0.50649446 0.5620249 -0.083850265 -0.5426679
-0.41796607 0.03996719 -0.46408865 -0.20942737 -0.33714232 0.321126 0.27433443 -0.013211952
-0.08111139 0.35466778 -0.1155629 -0.19289824 -0.4439322 -0.109696634 0.29306313 0.4645297
-0.42810133 -0.58572453 -0.2196876 -0.3128742 -0.3236562 -0.05889799 -0.5326777 0.25127265
-0.4992973 -0.61350423 -0.42735013 0.403132 -0.0058436375 0.088503495 0.15957637 0.014708844
0.48681328 0.14113554 0.13095425 -0.12413905 -0.09635737 -0.566591 0.25601628 -0.41313374
-0.0761365 -0.6550655 -0.3005614 -0.1497249 0.3665488 -0.11874073 -0.048192892 0.041930307
-0.28840527 -0.67906606 -0.15950607 -0.3830853 0.57824314 -0.025518484 0.25445953 0.21153833
-0.37434357 -0.20367089 -0.28338253 -0.32981783 0.19003987 -0.6149823 -0.30185694 0.37626895

embedding.input_proj.bias f4 [64]
00000000: f61c b53e 287c 293e ed4a 833d a897 1f3e
00000010: abd5 c8be 2d00 a13d 50e8 933e d6d3 8bbe
00000020: 740e 883e 2082 9cbd d150 4abc 97d2 81be
00000030: a34f e23e 6a1d d73e c59f f9be 2449 88be
00000040: fdb0 7c3e 5c29 fb3e ed7a e3bd 10a4 6bbd
00000050: 06e4 dbbd 7f93 ae3e f3ab 89be bbec d73d
00000060: 7489 e23e 2213 153e 5985 d7be 39ad 363e
00000070: 2f46 373c 3a26 83bc 03cf a73e 5396 66bd
00000080: 4bde f23e 135b f1bd b52f d73c ad0c 9bbd
00000090: 52af afbe c4e9 afbe 07cc dbbe ab6c 84be
000000a0: 1d84 d73e 1f6d 933e 0dd9 9dbe f155 793e
000000b0: edea 30be 588d fe3d d1d8 72be 2252 cf3e
000000c0: bbfb b13e 0ee2 3e3e 9612 89be 5645 6c3e
000000d0: 1ad2 1b3e 28c7 63be 87a5 b7bd 987f b8be
000000e0: d094 ff3d 17fe 263d e08d 9a3e 39fb 973e
000000f0: 2323 88be 2071 6b3e 27b5 a5be 5132 84bd
0.35373658 0.16551268 0.06410775 0.15585196 -0.39225516 0.07861362 0.28888178 -0.27310055
0.26573527 -0.07642007 -0.01234837 -0.2535598 0.44201383 0.4201463 -0.48754707 -0.26618302
0.2467689 0.49054992 -0.111074306 -0.05752951 -0.107368514 0.34096906 -0.26889 0.105432
0.44245493 0.1455808 -0.42093924 0.17839517 0.011186167 -0.016009439 0.32775125 -0.056295704
0.4743522 -0.11784949 0.026267866 -0.07570777 -0.34313446 -0.34358037 -0.42929098 -0.25864157
0.42092982 0.2879419 -0.3082966 0.2434919 -0.17277117 0.12429303 -0.23715521 0.4049235
0.34762368 0.1864092 -0.26771992 0.23073325 0.15216866 -0.22243941 -0.08967119 -0.36034846
0.124795556 0.040769663 0.30186367 0.29683855 -0.26589307 0.22992373 -0.3236477 -0.064549096

embedding.pos_encoder.pe f4 [1, 500, 64]
00000000: 0000 0000 0000 803f 0000 0000 0000 803f
00000010: 0000 0000 0000 803f 0000 0000 0000 803f
00000020: 0000 0000 0000 803f 0000 0000 0000 803f
00000030: 0000 0000 0000 803f 0000 0000 0000 803f
00000040: 0000 0000 0000 803f 0000 0000 0000 803f
00000050: 0000 0000 0000 803f 0000 0000 0000 803f
00000060: 0000 0000 0000 803f 0000 0000 0000 803f
00000070: 0000 0000 0000 803f 0000 0000 0000 803f
00000080: 0000 0000 0000 803f 0000 0000 0000 803f
00000090: 0000 0000 0000 803f 0000 0000 0000 803f
000000a0: 0000 0000 0000 803f 0000 0000 0000 803f
000000b0: 0000 0000 0000 803f 0000 0000 0000 803f
000000c0: 0000 0000 0000 803f 0000 0000 0000 803f
000000d0: 0000 0000 0000 803f 0000 0000 0000 803f
000000e0: 0000 0000 0000 803f 0000 0000 0000 803f
000000f0: 0000 0000 0000 803f 0000 0000 0000 803f
00000100: a46a 573f 4151 0a3f ce7a 2e3f b054 3b3f
00000110: ba7d 083f 0d94 583f f090 d13e c792 693f
00000120: 3e39 9f3e 6b4e 733f 258f 703e f1d5 783f
00000130: 3a23 353e 83f6 7b3f f325 083e 28ba 7d3f
00000140: 7675 cc3d 98b8 7e3f 366f 993d d147 7f3f
00000150: ae36 663d 6898 7f3f faac 2c3d bdc5 7f3f
00000160: 5b81 013d 3cdf 7f3f a53e c23c 93ed 7f3f
00000170: 42ab 913c a3f5 7f3f 497a 5a3c 2cfa 7f3f
00000180: 57d6 233c b9fc 7f3f 16b9 f53b 28fe 7f3f
00000190: 5a44 b83b f7fe 7f3f 5a2e 8a3b 6bff 7f3f
000001a0: 1c3e 4f3b acff 7f3f 0369 1b3b d1ff 7f3f
000001b0: 2015 e93a e6ff 7f3f 8ac9 ae3a f1ff 7f3f
000001c0: 6d12 833a f8ff 7f3f 8994 443a fbff 7f3f
000001d0: 136a 133a fdff 7f3f 2117 dd39 ffff 7f3f
000001e0: 61cb a539 ffff 7f3f 0da8 7839 0000 803f
000001f0: 5377 3a39 0000 803f 6dd4 0b39 0000 803f
00000200: b7c7 683f 3311 d5be d95a 7f3f 534d 913d
00000210: 0af2 663f b2e8 dc3e 1135 3f3f 0339 2a3f
00000220: 1b54 173f ec7b 4e3f b5d3 e93e 69be 633f
00000230: f647 b23e a6fa 6f3f 82f0 863e f5f2 763f
00000240: f86f 4b3e a5e5 7a3f d300 193e 4f20 7d3f
00000250: 86d9 e53d f361 7e3f ae85 ac3d 0e17 7f3f
00000260: c870 813d f97c 7f3f aa30 423d 4eb6 7f3f
00000270: 5ca5 113d 8ed6 7f3f 5075 da3c b1e8 7f3f
00000280: 3ed4 a33c e5f2 7f3f 51b7 753c a1f8 7f3f
00000290: 9b43 383c dbfb 7f3f 0a2e 0a3c abfd 7f3f
000002a0: d83d cf3b b1fe 7f3f e768 9b3b 43ff 7f3f
000002b0: 0815 693b 96ff 7f3f 7fc9 2e3b c4ff 7f3f
000002c0: 6812 033b dfff 7f3f 8594 c43a edff 7f3f
000002d0: 126a 933a f5ff 7f3f 1f17 5d3a faff 7f3f
000002e0: 60cb 253a fdff 7f3f 0ca8 f839 feff 7f3f
000002f0: 5377 ba39 ffff 7f3f 6dd4 8b39 0000 803f
00000300: c381 103e 2670 7dbf de3c 473f cebf 20bf
00000310: d745 7e3f ab7f edbd 6321 743f 6318 9a3e
00000320: c209 503f 582f 153f b724 273f a2e7 413f
00000330: 6c2f 023f 296d 5c3f a768 c73e 37c9 6b3f
00000340: 6c4e 973e ef90 743f e26d 643e 928c 793f
00000350: d7ee 2b3e 9e5d 7c3f 2c33 013e 43f4 7d3f
00000360: c0ff c13d 4fd9 7e3f 0693 913d 3a5a 7f3f
00000370: 4e69 5a3d c3a2 7f3f c5d1 233d 90cb 7f3f
00000380: 1fb9 f53c 83e2 7f3f 4747 b83c 6bef 7f3f
00000390: c631 8a3c adf6 7f3f 4644 4f3c c1fa 7f3f
000003a0: 0d6e 1b3c 0dfd 7f3f 131d e93b 58fe 7f3f
000003b0: a8cf ae3b 11ff 7f3f 1317 833b 7aff 7f3f
000003c0: 929b 443b b5ff 7f3f 606f 133b d6ff 7f3f
000003d0: 171f dd3a e8ff 7f3f 56d1 a53a f3ff 7f3f
000003e0: 10b1 783a f9ff 7f3f 097e 3a3a fcff 7f3f
000003f0: 7ed9 0b3a feff 7f3f a4be d139 ffff 7f3f
0.0 1.0 0.0 1.0 0.0 1.0 0.0 1.0
0.0 1.0 0.0 1.0 0.0 1.0 0.0 1.0
0.0 1.0 0.0 1.0 0.0 1.0 0.0 1.0
0.0 1.0 0.0 1.0 0.0 1.0 0.0 1.0
0.0 1.0 0.0 1.0 0.0 1.0 0.0 1.0
0.0 1.0 0.0 1.0 0.0 1.0 0.0 1.0
0.0 1.0 0.0 1.0 0.0 1.0 0.0 1.0
0.0 1.0 0.0 1.0 0.0 1.0 0.0 1.0
0.84147096 0.54030234 0.68156135 0.731761 0.53316844 0.8460091 0.4093089 0.9123959
0.3109836 0.9504153 0.23492105 0.9720145 0.17689219 0.9842302 0.13295726 0.99112177
0.099833414 0.9950042 0.07491915 0.9971896 0.05620449 0.9984193 0.04215715 0.999111
0.031617504 0.99950004 0.023711512 0.99971884 0.017781857 0.99984187 0.013334819 0.99991107
0.009999833 0.99995 0.0074988706 0.99997187 0.0056233825 0.9999842 0.0042169513 0.9999911
0.0031622713 0.999995 0.0023713715 0.9999972 0.0017782785 0.99999845 0.001333521 0.9999991
0.0009999998 0.9999995 0.000749894 0.9999997 0.0005623411 0.9999998 0.00042169637 0.99999994
0.00031622782 0.99999994 0.00023713727 1.0 0.00017782794 1.0 0.00013335208 1.0
0.9092974 -0.41614684 0.99748 0.070948265 0.9021307 0.43146282 0.7469035 0.6649324
0.5911271 0.8065784 0.45669332 0.8896242 0.34820527 0.93741834 0.26355368 0.96464473
0.19866931 0.9800666 0.1494172 0.98877424 0.1122313 0.9936821 0.08423935 0.99644554
0.063203394 0.9980007 0.04740969 0.9988755 0.03555809 0.9993676 0.026667267 0.99964434
0.019998666 0.9998 0.014997319 0.9998875 0.011246587 0.99993676 0.008433828 0.9999644
0.006324511 0.99998003 0.00474273 0.99998873 0.0035565514 0.9999937 0.0026670394 0.9999964
0.0019999985 0.99999803 0.0014997876 0.99999887 0.0011246821 0.99999934 0.0008433926 0.99999964
0.0006324556 0.9999998 0.0004742745 0.9999999 0.00035565588 0.99999994 0.00026670416 1.0
0.14112 -0.9899925 0.7782725 -0.6279267 0.9932532 -0.11596616 0.95363444 0.3009673
0.8126489 0.58275366 0.652904 0.7574407 0.5085361 0.86104065 0.3894703 0.92103904
0.2955202 0.9553365 0.22307542 0.9748012 0.16790329 0.9858035 0.12617177 0.9920084
0.094726086 0.99550337 0.071081206 0.9974705 0.053323083 0.9985773 0.039994974 0.99919987
0.0299955 0.99955004 0.022494925 0.999747 0.016869437 0.9998577 0.012650555 0.99991995
0.009486687 0.999955 0.0071140616 0.9999747 0.005334813 0.99998575 0.0040005534 0.999992
0.0029999954 0.9999955 0.0022496805 0.9999975 0.0016870227 0.99999857 0.0012650888 0.9999992
0.00094868336 0.9999996 0.00071141176 0.99999976 0.0005334838 0.9999999 0.00040005625 0.99999994

embedding.norm.weight f4 [64]
00000000: faff 7e3f cadb 813f aea7 7e3f 84ba 813f
00000010: f7fa 803f d222 793f ff5c 753f e0f8 803f
00000020: a734 7b3f 62e9 723f d219 823f 101d 7c3f
00000030: a06b 7a3f 1379 713f c48d 803f 5db7 7c3f
00000040: 4d43 7e3f c593 813f b645 7f3f 1c1b 803f
00000050: a956 813f 595b 7f3f a416 723f 6e83 803f
00000060: 7c3f 7c3f 56af 7e3f 246f 833f 94b8 7c3f
00000070: 47fb 7e3f 4260 793f 7911 803f f8e6 7e3f
00000080: fe08 7e3f 3120 803f 541d 7b3f dba6 763f
00000090: b7f8 843f 512f 803f dd75 823f 461e 803f
000000a0: 91f5 8e3f d7c2 7d3f d67d 7b3f 419f 803f
000000b0: cf42 7d3f 5b8e 773f 0fa2 833f 1e91 7b3f
000000c0: 74cc 7c3f cb71 7f3f 7181 7f3f 3f81 7b3f
000000d0: 6c79 833f f669 803f 0ccc 803f 5921 7a3f
000000e0: 1216 833f 5e62 7d3f 09f5 823f 7638 7e3f
000000f0: 7dab 803f c261 7f3f 69d6 803f eaaf 7f3f
0.9960934 1.0145199 0.9947461 1.0135045 1.0076588 0.97318757 0.95845026 1.0075951
0.98127216 0.94887364 1.016413 0.98481846 0.9782047 0.9432537 1.0043263 0.9871729
0.9932144 1.0123221 0.99715745 1.0008273 1.0104572 0.9974876 0.94565797 1.0040109
0.9853437 0.9948629 1.0268292 0.98719144 0.9960217 0.974125 1.0005332 0.9957118
0.9923247 1.0009824 0.98091626 0.9634835 1.0388402 1.001444 1.0192219 1.0009239
1.1168691 0.99125427 0.98238885 1.00486 0.98930067 0.9670159 1.0283831 0.98268306
0.9874947 0.9978301 0.99806887 0.9824409 1.027143 1.0032337 1.006227 0.97707134
1.024111 0.9897822 1.0231029 0.993049 1.0052334 0.9975854 1.0065433 0.998778

embedding.norm.bias f4 [64]
00000000: ae77 073b c4fa e0ba 219e 003c 1937 c43b
00000010: bff8 63ba 82c2 77bb f5bb 243c 42b8 af3a
00000020: 0d6f 053c f09b c03c fb2d e63b fad7 573c
00000030: b63c 873c 3675 553d 5d0e c43b 85b4 7a3c
00000040: 1dd0 253c 8099 0bbb 3143 533c 6c7f 993b
00000050: d80a f33b 864c 033c 3d78 5f3c fb01 7a3b
00000060: 751b 7e3c d2e2 4d3b 8c36 de3b 46e0 4c3c
00000070: 1616 17bc 53a6 aa3c 1a3a 663a 74ef 9f3b
00000080: 7893 0cbc 4fe8 4dbc 176c 86bc 062d 13bd
00000090: bcce ed3a 933f 9cbb 8b32 02bc 99ec e2bb
000000a0: eeeb 223c 8963 60bc 0a3c 963c d4dd e3ba
000000b0: acc5 823c 1e0f 0bbd 9d0a 0dbb 6d58 dabc
000000c0: 5105 1b3c 8486 45bb 041c 983c 871e 96bc
000000d0: 6198 8ab9 9754 9cbb bed5 acba d06b 7ebc
000000e0: 5f7b 9cb9 31c0 52bc 3be4 6ebb 68d4 ebbb
000000f0: 366e 583c a872 25bc 99c1 403b d435 18bc
0.00206707 -0.0017164578 0.007850201 0.0059880135 -0.0008696429 -0.0037805145 0.010054578 0.0013406354
0.008144152 0.023511857 0.0070245243 0.013174051 0.016508441 0.052113734 0.0059831575 0.015301828
0.010120419 -0.002130121 0.012894438 0.0046843793 0.007417064 0.00801385 0.013639507 0.0038148153
0.015509476 0.0031415713 0.006781405 0.012504643 -0.009221574 0.020831263 0.00087824615 0.00488084
-0.008580081 -0.012567594 -0.016408963 -0.03593161 0.0018143277 -0.004768321 -0.007946621 -0.0069251773
0.009943945 -0.013695606 0.018339176 -0.0017384836 0.015963398 -0.033949964 -0.0021521219 -0.026653493
0.009461717 -0.0030139992 0.018568046 -0.018325103 -0.00026434942 -0.004770826 -0.0013186259 -0.015528634
-0.00029846557 -0.012863205 -0.0036451954 -0.0071969517 0.01320987 -0.010098137 0.0029412268 -0.009290177

encoder.layers.0.self_attn.in_proj_weight f4 [192, 64]
00000000: 32f2 23be 0afe cc3c e39c bc3d e976 c6bd
00000010: 30d2 d23d 7efa 963d 0ca5 f7bc 2c6d babd
00000020: 84b5 a9bb aec7 03be 553c 87bd 949d 383d
00000030: 4b45 15be d73d 043d f9f2 0cbd bfbe 603c
00000040: e866 be3d 555c 193e 0602 1a3e 170a 133d
00000050: 34c6 96bc 9daf e63d 2b64 22bd 46e8 52bd
00000060: 8c35 c0bd 1622 1c3d 3814 0abe ee55 22bd
00000070: 79f9 50bd 19d1 1bbe 0a14 76bd 5ad1 c4bd
00000080: c2d6 ed3d 38b9 00be 0b7a aebd 99c7 15bd
00000090: 801f 3d3e 7aca e3bc 868a e53d ff3b 95bd
000000a0: 0ccd 053e 57f8 41bd 5bb5 02be 86df 58bd
000000b0: 7fd7 4a3d 45bd 93bd d917 4d3d 6ea1 57bd
000000c0: d904 25be c511 f8bd f067 c43d 9601 863d
000000d0: 9327 cd3c 0a14 343d 2c18 8fbd 88e2 84bc
000000e0: f77c 483b c253 eebd b75c a23d 90ed c8bd
000000f0: 6bf5 fabd 1c7b 253e 9bec 2f3c b00d 1a3e
00000100: b802 843d 7909 b43d 1b16 00be 1650 9fbd
00000110: a007 d1bd 2acf 6d3c e69b 93bd 8257 98bd
00000120: 6e6b 91bd 00d8 163b ee6e 9cbd 4e02 0cbe
00000130: 83b8 a63d 9f2d ffbd 0314 b2bd ec87 a5bc
00000140: 8b6a aabd 6956 c33d f5eb 193e 7979 023e
00000150: bb12 15be 7285 18be 726f 16bd b435 b13d
00000160: f234 3f3c 1a73 8e3d 8390 2a3e e552 1a3e
00000170: ce27 203e a1f6 efbd c052 0b3c d8b8 ee3d
00000180: ee44 183e 2a4d 203d 6b72 c4bd 84e7 fdbd
00000190: 7011 743c 623f 62bd 0915 ae3c b2b7 dcbd
000001a0: b358 87bc 9c89 7cbd 5a76 f63d f5a0 0e3b
000001b0: a1b9 503d afe7 35bd 43ab cdbd a4cc e63c
000001c0: 6d3e 4cbb 99b9 083c 77ee 3d3d 6ef9 803c
000001d0: f03c 513d 5d38 ba3c 6447 7cbd 05c4 75bc
000001e0: 8674 dbbd e8b7 b03d 387b 023e 90b9 4abc
000001f0: 26a8 bb3d 10e3 adbd 4ef8 003d ff71 6cbd
00000200: 5f32 77bc 4998 32bd 503e bfbd 67a1 433d
00000210: 3f20 98bd 03b5 08be 0246 1e3d d517 16bd
00000220: 63bd 0a3e 4829 483d e63b 523d 9e20 c1bc
00000230: fd0d e73d ea94 0d3e fd23 023d 9614 05be
00000240: 2802 babd 75e1 493d ae21 11be 2c58 eebd
00000250: 7831 86bd 3b5f c8bd e1fb d5bd 67a7 15be
00000260: 21d0 9f3d dc07 993a 214c 363d 4b33 19be
00000270: f8a7 a5bd 2cb9 a4bd 8c4d b1bd ffac 31bd
00000280: 7fda f6bd 660d 2f3d e90e e23c 0c0e 723d
00000290: 4e8e cbbd 4313 c43d 5f9b 6d3d 7b2b 79bd
000002a0: da56 063c 6cf3 babd 4150 183e e488 0ebe
000002b0: 33e1 433d 8988 c23d 129e 87bc 6034 5abd
000002c0: 1f41 bebd ad2d 743d b7b0 063e 8ca5 3dbc
000002d0: da4d 06be 9816 00be 8389 f13c 1b19 cfbd
000002e0: e4f2 073d 8d53 c1bd ff46 d63d 1547 5bbd
000002f0: 3144 6d3d 4b25 a73c 5502 0f3c a2fa d4bd
00000300: 4f2b e7bd af18 21bd b1f4 6c3d d9bf 9dbc
00000310: 542a 33bd 1599 f0bd 6e7f cbbd 4d10 36bd
00000320: 7d2b e83c 248a 46bd b026 2a3d d960 603d
00000330: 2fe1 183e 8e32 8abd 11af 75bd 41bb ef3c
00000340: d72f 94bd 800c 243e 3dbb 1f3e 5830 8ebc
00000350: 9e2c a6bd f9fc 203e 8ae0 9d3d 89ad 16be
00000360: f06c 11bc 75b0 8bbd a400 dd3d 7d5f 063e
00000370: 667c bf3d cdef d7bd 1b8d 4f3d 88bb cf3d
00000380: 8a7f c3bd 5fef 153e d356 983d 38a9 10bd
00000390: 8fd7 073e f4e6 03be bebc 05bc 286b ca3d
000003a0: d145 473e 0104 ba3d ac41 aa3b 6940 6ebc
000003b0: 4161 5e3d 3db3 d8bd 51c6 d83c 068d 3dbd
000003c0: d658 de3c 578d ef3d bec5 443d d223 00be
000003d0: edb8 d63c aef9 6d3c 8bdf c0bd e987 a4bd
000003e0: a495 eb3d 8d46 8f3c c4ae 59bd 65d5 5dbc
000003f0: 98fa b7bd 9501 dfbb f784 99bd fe2a afbd
-0.16010359 0.025023479 0.09209611 -0.09690649 0.10293996 0.07371996 -0.030230068 -0.09102854
-0.005179109 -0.1286914 -0.06603304 0.045072153 -0.14577214 0.032285538 -0.034411404 0.013717352
0.092969716 0.14976628 0.15039834 0.035898294 -0.018405057 0.11263964 -0.03964631 -0.051491044
-0.09385213 0.038118444 -0.13484275 -0.03963273 -0.051019166 -0.15216483 -0.060077704 -0.09610243
0.116132274 -0.12570655 -0.085193716 -0.036567304 0.18469048 -0.02780651 0.11208062 -0.07286834
0.130665 -0.047355976 -0.12764494 -0.052947544 0.04952192 -0.07213835 0.05007157 -0.052644186
-0.1611513 -0.12112764 0.09590137 0.06543271 0.025043285 0.043964423 -0.06987032 -0.0162213
0.0030592063 -0.11637069 0.0792784 -0.098109365 -0.12253841 0.16160244 0.0107375635 0.15044284
0.06445831 0.08790869 -0.12508433 -0.07778947 -0.102065325 0.014514724 -0.0720747 -0.07438566
-0.07100569 0.002301693 -0.07638346 -0.13672754 0.081406616 -0.124598734 -0.08695223 -0.020206414
-0.08321103 0.09537966 0.15031417 0.1274165 -0.14557926 -0.14894655 -0.036727376 0.08652821
0.011670338 0.06955548 0.1665669 0.15070684 0.15640184 -0.117169626 0.008503616 0.1165635
0.14870045 0.03913609 -0.09592136 -0.12397674 0.014896736 -0.055236228 0.021250265 -0.107772246
-0.016521787 -0.061654672 0.120342925 0.0021763418 0.05095828 -0.044410404 -0.10042431 0.028173752
-0.0031165138 0.008345031 0.046369996 0.015743937 0.051083505 0.022731954 -0.06159152 -0.015000348
-0.107155845 0.08628827 0.12742317 -0.012373343 0.09162931 -0.08490574 0.0314868 -0.057725903
-0.015087693 -0.04360226 -0.09338057 0.047761347 -0.074280255 -0.133503 0.038640983 -0.03664382
0.13548808 0.048867494 0.051326655 -0.023575123 0.11281965 0.13826337 0.031772602 -0.12996134
-0.090824425 0.04928728 -0.14173004 -0.11637911 -0.06552404 -0.09783789 -0.10448433 -0.1461464
0.07803369 0.0011675316 0.044506196 -0.14960973 -0.08088678 -0.08043131 -0.08657369 -0.043377873
-0.120533936 0.042737387 0.027595 0.059095427 -0.09939252 0.095739864 0.0580095 -0.06083248
0.008199418 -0.0912846 0.14874364 -0.13919407 0.04782219 0.09498698 -0.016554866 -0.053272605
-0.092897646 0.059613872 0.13153349 -0.011575114 -0.13115636 -0.12508619 0.029484516 -0.1011221
0.033190623 -0.09439764 0.1046276 -0.053534586 0.05792636 0.020403525 0.008728583 -0.10399367
-0.11287557 -0.03933018 0.057850543 -0.01925652 -0.04374154 -0.11747948 -0.09936415 -0.04444914
0.02834105 -0.048471585 0.0415408 0.05477986 0.1492965 -0.06747924 -0.05998141 0.029264094
-0.07235687 0.16020393 0.1559877 -0.017357036 -0.08113979 0.15721501 0.07708843 -0.14714636
-0.00887607 -0.06820766 0.10791138 0.13122363 0.09349899 -0.10543785 0.050671678 0.101431906
-0.095458105 0.14642094 0.074384354 -0.03531763 0.13265823 -0.1288107 -0.008162675 0.0988372
0.19460227 0.09082795 0.005195817 -0.014541724 0.054291967 -0.10581062 0.026461752 -0.04627707
0.02714197 0.1169688 0.048040144 -0.12513664 0.026211226 0.01452486 -0.094176374 -0.08033735
0.11503151 0.017489696 -0.053145185 -0.013539647 -0.08983344 -0.0068056085 -0.07496064 -0.08553122

encoder.layers.0.self_attn.in_proj_bias f4 [192]
00000000: 7935 273b d949 ec3b 7a60 9a3b 0f38 8cbc
00000010: 7970 e8bb 0f28 a3bc 9175 843b c359 e6bb
00000020: 7180 46bc b3d8 8b3c c2f0 46bc 86b5 b23a
00000030: fcad 5fbb 147b e6bb 00f1 8c3c 9ea7 c7bb
00000040: 8205 5abc 46b9 26bd 48d6 9cbc 2d51 9cbb
00000050: 1ebf 4abc 6b36 9bbb 7a50 463c 16e7 33bc
00000060: 02bf 303d 516a 22bb 18c1 573b 9fe1 bc3c
00000070: 1e50 253c 22f5 e83a bc43 09bb 6b64 ab3b
00000080: 7245 0a3c de5a 363c 953f 553a 33fe beb8
00000090: e25a 35bc a8ee ee3a 8708 58bb 7f9b ac3b
000000a0: 0ad5 d7ba 00e7 6bbc e0e0 1cbc d28b 1c3c
000000b0: 5bd0 3a3b afbe 9a3b f091 d93a e67c 363b
000000c0: a836 a0bb 14df f03c fc5f 833a 6cd1 afbb
000000d0: a34a ac3c c54f 843b 2e61 c6bc 1aef 673c
000000e0: 3d57 67bc f2a2 c6bb 9f1f 9c3b d15c 40bc
000000f0: eaa4 a3bc 59ed 4b3c 6c6a 943b 1fca 093c
00000100: 2c0f 00b9 c7e6 8c38 9b23 9eb9 bd96 94b9
00000110: 120f d2b9 6f49 e8b9 2547 3f38 5c7f 22ba
00000120: 5076 f3b7 3f3f 1d3a c123 bd39 5dc2 553a
00000130: 96fc 9a38 3376 edb8 5465 2b39 b8c0 1eb8
00000140: 0c57 5039 07de e4ba e59e f839 0b28 9d3a
00000150: c909 15ba 40c7 593a 63c6 3a3a 385d bcb9
00000160: 2d1d 6a3a f185 22b5 8301 5d39 f867 87b9
00000170: 0932 233a 48e4 3c3a 2f2c b439 63b0 97ba
00000180: 161b b539 95c9 a839 489f 2739 037f d6b9
00000190: 83dd 043a a3eb 0f38 fc5f 15b9 83db c7b9
000001a0: b911 2b37 779b 0a3a a360 9439 afc0 13b8
000001b0: 02ba 1b3a 2db9 c5b8 deff 4ab9 1e02 ad39
000001c0: ae64 c938 ff4e b039 1ede 0438 7633 f7b7
000001d0: 6f4d 8538 076a c2b9 216d 09ba fb01 193a
000001e0: e209 aab8 a260 a538 6219 4639 8ebe 62b8
000001f0: 3ffb b3b8 e285 04b9 b6a9 b339 a814 ecb8
00000200: 32b8 7cbb 70dd af37 7c76 cdbb f9cf c5ba
00000210: 127b c1b7 c685 a1b9 2ff2 af3a 5576 bf3b
00000220: 6417 1ebc 301d e83b 524d 923a 441f 94bb
00000230: 3c59 72b8 314e 953b eab0 13bc 9957 b03b
00000240: 604c 193b f58e b33b 42ba 3a3b 6b8c 4a3c
00000250: 8fcc 243c 72a2 d93b 2124 62bb 30d4 e43b
00000260: c4a3 88bb 4a91 573b b93f 583c 8f8f e3bb
00000270: b337 083b 63b9 be3b 352f 103c 11b7 ab3b
00000280: 9a71 a33c ee70 ca3b 0a7f 6abb 437c 4bbb
00000290: cd43 95ba f76a abbb 0513 ac3b f0d3 4dbc
000002a0: 2f9b d4ba 237c c9bb c2b9 1b3a 9a05 e33b
000002b0: 57d7 453a f0e4 183c 84ae 9f3a c0d7 93bb
000002c0: efa5 853c be0c 3b3a 36c5 cbbb 4753 57bb
000002d0: c4ee 703c 949b 5a3b eb6b b8b9 4afb a1bb
000002e0: b9a0 86ba 640c bebb 2a8f bbbc 00c5 383a
000002f0: 17da 063b cf1a f8ba 17be 09bb 5c57 8d3a
0.002551405 0.0072109518 0.004711208 -0.017116575 -0.007093486 -0.019916562 0.0040423353 -0.0070297434
-0.012115584 0.017071104 -0.012142362 0.001363442 -0.0034130802 -0.007033715 0.017204762 -0.0060929796
-0.013306977 -0.040704034 -0.019145146 -0.004770419 -0.012374667 -0.0047367117 0.012104148 -0.010980388
0.04315091 -0.0024782608 0.003292149 0.023056803 0.010089902 0.0017773251 -0.0020944914 0.0052304766
0.008439409 0.011130063 0.00081347796 -9.107254e-05 -0.011069031 0.0018229084 -0.0032964067 0.00526756
-0.0016466689 -0.014398336 -0.009575099 0.00955482 0.0028505537 0.0047224383 0.0016599279 0.0027845441
-0.004889328 0.029403247 0.0010023112 -0.005365541 0.021031683 0.0040378296 -0.02421626 0.014156127
-0.01411992 -0.006061905 0.0047645117 -0.011740879 -0.019976098 0.012446725 0.004529288 0.008410006
-0.00012212683 6.718706e-05 -0.00030162637 -0.00028341069 -0.0004006555 -0.000443052 4.5604207e-05 -0.00061987876
-2.9022951e-05 0.0005998499 0.00036075528 0.00081542676 7.39034e-05 -0.00011323057 0.00016345578 -3.784962e-05
0.00019868853 -0.0017461189 0.00047420632 0.0011990083 -0.0005685357 0.00083075836 0.0007124899 -0.00035927608
0.0008930739 -6.0544613e-07 0.00021076766 -0.0002582667 0.00062254124 0.00072056474 0.00034365195 -0.0011572953
0.0003454319 0.00032193647 0.00015985698 -0.00040911892 0.0005068408 3.431331e-05 -0.00014245504 -0.00038119787
1.0196521e-05 0.00052874483 0.0002830076 -3.522698e-05 0.0005940498 -9.428184e-05 -0.00019359539 0.0003299871
9.60318e-05 0.00033628193 3.1678115e-05 -2.9468658e-05 6.356357e-05 -0.0003708156 -0.0005242397 0.0005836782
-8.1080725e-05 7.8858124e-05 0.00018892207 -5.4060067e-05 -8.582183e-05 -0.00012638376 0.00034267985 -0.000112572045
-0.0038561937 2.096474e-05 -0.006270228 -0.0015091888 -2.3064702e-05 -0.00030807982 0.0013423617 0.0058429637
-0.009649131 0.0070835575 0.0011161959 -0.0045203287 -5.7780402e-05 0.0045564403 -0.009014348 0.005381536
0.002339147 0.0054796883 0.0028492366 0.01236258 0.010058536 0.0066416794 -0.0034506398 0.0069833025
-0.004169913 0.0032892996 0.013198786 -0.0069446038 0.0020785152 0.0058204397 0.0088003175 0.005240329
0.01995163 0.006178013 -0.0035781288 -0.0031049408 -0.0011388004 -0.005231257 0.0052512907 -0.012562737
-0.0016220565 -0.0061488315 0.0005940461 0.006928158 0.0007547042 0.009331927 0.0012182747 -0.0045118034
0.016314475 0.00071353826 -0.0062185777 -0.0032856034 0.014705364 0.0033356892 -0.0003517562 -0.004943286
-0.0010271288 -0.005799817 -0.022895414 0.0007048398 0.002057677 -0.0018928888 -0.0021017843 0.0010783481

encoder.layers.0.self_attn.out_proj.weight f4 [64, 64]
00000000: bd13 cabd 55ca bb3d ddb4 c23b 658e 1c3d
00000010: 22d2 93bd cf09 e73d c23b 12bd 2508 e0bc
00000020: 7061 813b ef6b e43c 0374 fdbd d052 43bd
00000030: ab1b fe3c 5ad0 81bd ae88 25bd 4b22 083d
00000040: 4e24 473d c098 babd c372 c1bb 4f83 643d
00000050: cf64 1f3d fb50 003e fe5b a13d 92aa 63bd
00000060: ace0 5dbd abde 00bd 7316 63bd b6b8 c43d
00000070: 1913 eebc a53f 83bc 3782 89bd ec6e 86bd
00000080: 2870 b43b 9ae4 20bc 0537 1dbd e36c 853d
00000090: 0d8d a53d 13a3 a23d edd6 d9bc d9f3 ee3d
000000a0: 5806 053e d1b6 783c 5339 e9bd 1dac c53d
000000b0: 8517 56bd c06f f1bd a5f0 893d d089 a2bd
000000c0: 4038 c9bd ba18 953d 1d66 3abd 996b 243d
000000d0: 818e a9bd 42b1 5d3c 591a 6abd ab73 823d
000000e0: 013b fa3d 25e3 a33d 4130 b7bd ed30 afbd
000000f0: 054c 183d 7af7 a0bd 4fdd 29bd 0c9d 7bbd
00000100: 33df f9bd ee2d 00be 673f 873b b769 09bc
00000110: 3dbc dd3d 4323 d8bd f524 d5bd 42dc 52bd
00000120: ef21 0fbe fa5d 90bd 7941 b03d 2bb0 07bd
00000130: d370 18be 3460 b43b 283b 02be 5827 1fbe
00000140: eec4 a9bb a967 bd3d f7e9 c63d 5cdb 6e3d
00000150: def0 c0bd da73 7dbd 15aa 96ba 9138 d93d
00000160: 2597 853b e791 2d3c b594 f3bc dfc5 af3d
00000170: 3cfd 91bd 1d0e f63d d4a4 a03c 4da0 6e3d
00000180: a043 833d 8c93 7f3d b9e7 8e3d cacb ee3d
00000190: 187f ee3d 3735 263d eb85 d83c 07ae 723c
000001a0: 0511 273d 9a9e e0bd 1a5b 3cbd c703 d7bd
000001b0: 543c d63d 3a3d 87bd b943 d83d ad41 20bc
000001c0: 1219 9ebc 84e7 80bd 0ebb 7fbc dfad 34bd
000001d0: fe3f a43d 24e5 c73d 74c3 8c3d 4aaf aabb
000001e0: 0a9d bcbd 88a5 d8bd 1a55 a7bc e57b 4e3d
000001f0: b2aa 983d 4602 993d 4007 2b3c e497 b0bd
00000200: 2e35 5b3d ab0c 803c 43fa aabd 6764 25bd
00000210: f9ec 94bd 6b46 bf3c ad37 d2bb 5ac3 03bd
00000220: 9e12 e23d e147 493d 3d57 18bd fdb4 7bbd
00000230: cb55 b33b 9d36 b13d 48dc debd 07d0 143e
00000240: 549f 113a fae8 323d 65d1 cb3d a5c4 0bbd
00000250: bcac 5c3c f6d5 813d f9b0 9dbd fc28 bfbd
00000260: 8ba1 443d cd74 153a 920a aabd f846 0d3e
00000270: c032 ad3d 177d a6bd 7b81 883d 75e0 f9bd
00000280: d845 8ebd e5bc 14bd 4f5c 83bd 1035 e93c
00000290: c6b2 023e b3eb 65bd a417 d7bd ceee 2d3d
000002a0: 9ba9 bebd c545 b0bc c8d1 a23d 23ea f2bd
000002b0: 8bf0 793d f6e5 d7bd a5e7 88bd 7d42 b03c
000002c0: 5e04 853d b8c0 f63a 0e32 b0bd 18a5 4cbd
000002d0: 88b4 053d 6f21 923d 2070 a93d 72a6 673d
000002e0: efea c23d 2b3c e0bd 3b7d 423c f008 d73d
000002f0: 5e16 403d 2d1d e6bb f9e5 93bc 83ed 99bc
00000300: f5ef 44bd 85bc f3bd 9cfe 053d 2002 e4bd
00000310: 7625 36bd 8a7d bcbd 9651 a43d 08a1 a93d
00000320: 5a18 483c b5f4 f2bd 4f8c b53d 92e7 5bbd
00000330: c1af 0ebe 8527 2fbd 356c 7f3d 286f ff3c
00000340: e738 fcbd da33 163d d3d1 38bd 70f0 61bd
00000350: 2821 8cbd f14d 1ebd 0e56 613b f865 aa3d
00000360: 6f0f 633c be09 0a3e b595 c23d aebc 453d
00000370: 4c4d ab3d ce8d f23d 0abd d33d 15d8 07bc
00000380: 41f1 0abb c2f0 8f3c 046b f93c e879 65bd
00000390: 6b20 8f3b 6b4c e13c 3360 3d3d bb28 c4bc
000003a0: c58e bd3d 9601 493d 1d82 97bb b649 6a3d
000003b0: de27 5bbc ce3d 8abd 8e23 ea3d 4b35 a3bd
000003c0: d359 59bd 6b87 a43d 3236 87bd f74d 91bc
000003d0: 5961 a2bc f321 ec3b 6c71 96bd 3fd7 f23c
000003e0: 9d46 a93d b471 be3d 45b8 2f3d 2d28 22bd
000003f0: 2f87 77bc 56b8 0bba 107f e53a 15a4 1e3c
-0.09867046 0.09169451 0.0059419707 0.038221736 -0.07217814 0.11281168 -0.03570152 -0.027347634
0.003948383 0.027883498 -0.12375643 -0.047686398 0.031019052 -0.06338568 -0.04041355 0.03323583
0.048618607 -0.09111166 -0.0059035732 0.055789288 0.038914498 0.12530892 0.07878874 -0.05558259
-0.054169342 -0.031462353 -0.05544133 0.09605543 -0.02906184 -0.016021559 -0.0671429 -0.065641254
0.005506534 -0.009820128 -0.03838255 0.06514909 0.08083544 0.0794126 -0.026591742 0.11667604
0.12990701 0.015180306 -0.11387887 0.09651969 -0.052268524 -0.11788893 0.067353524 -0.07936442
-0.09825182 0.07280107 -0.04550754 0.040141676 -0.082791336 0.013531031 -0.057154033 0.06369718
0.12218285 0.08002309 -0.089447506 -0.08554254 0.037181873 -0.078597024 -0.041470822 -0.06142907
-0.12200775 -0.12517521 0.004127431 -0.008387021 0.10826919 -0.10553601 -0.104074396 -0.051479585
-0.13977788 -0.070491746 0.08606238 -0.03312699 -0.14886789 0.0055046324 -0.12717879 -0.15542352
-0.0051809466 0.09248287 0.09712594 0.058314666 -0.09420942 -0.061878063 -0.001149478 0.10606492
0.0040768557 0.010593868 -0.029733995 0.08582663 -0.07128379 0.12014411 0.019609846 0.058258343
0.06409383 0.06239657 0.06977791 0.116599634 0.11645335 0.040578093 0.026431045 0.014811999
0.040787715 -0.10967751 -0.04598532 -0.10498767 0.104607254 -0.06603475 0.10559792 -0.009781283
-0.019299064 -0.06294158 -0.015608562 -0.04411113 0.08020018 0.09760502 0.06873217 -0.0052088844
-0.0920964 -0.105784476 -0.020426322 0.050411124 0.074544325 0.07471137 0.01043874 -0.08622721
0.053517513 0.01563104 -0.08348515 -0.040378954 -0.072717614 0.023349008 -0.0064153285 -0.032168724
0.11038707 0.049140815 -0.037192572 -0.0614519 0.005472874 0.08652995 -0.10881859 0.14532481
0.0005555053 0.043679215 0.09952048 -0.03412308 0.013468917 0.06339638 -0.076997705 -0.09333989
0.048005622 0.00057013036 -0.083027974 0.13796604 0.084569454 -0.08129328 0.066653214 -0.12201015
-0.069469154 -0.036312956 -0.06414091 0.028467685 0.12763509 -0.056132983 -0.10502556 0.04246407
-0.093096934 -0.021517644 0.07950169 -0.11861064 0.061020415 -0.105419084 -0.06684808 0.02151608
0.064949736 0.0018825745 -0.08603297 -0.049962133 0.03264287 0.07135283 0.08273339 0.05655522
0.09517466 -0.10948976 0.011870678 0.104997516 0.04689633 -0.007022521 -0.018053995 -0.018790012
-0.048080403 -0.119011916 0.032713518 -0.11133218 -0.04446932 -0.09203632 0.08023374 0.082826674
0.012212837 -0.118630804 0.08864652 -0.05368764 -0.13934232 -0.042762298 0.062359054 0.031180933
-0.12315541 0.036670543 -0.04512198 -0.05516094 -0.068422616 -0.03864855 0.0034383568 0.0832023
0.01385866 0.13480279 0.095012106 0.048275642 0.083643526 0.11843453 0.10338791 -0.008291264
-0.0021200927 0.017570857 0.030446537 -0.056024462 0.004367878 0.02750226 0.04623432 -0.023945203
0.09255747 0.049073778 -0.004623665 0.057199202 -0.013376204 -0.067500696 0.11432563 -0.07969149
-0.05306418 0.080336414 -0.06602134 -0.017737372 -0.01982181 0.0072061955 -0.07345852 0.029643653
0.082654215 0.09299031 0.042900342 -0.039589096 -0.015107914 -0.00053298974 0.0017509181 0.009682675

encoder.layers.0.self_attn.out_proj.bias f4 [64]
00000000: 267c afba 2cc9 aaba 3632 c83b 782e c23b
00000010: 1d29 5fba 29fe b8ba 7211 faba 6052 633b
00000020: ddc6 4ab8 7261 263c 2288 b33b 1c16 ba3b
00000030: f176 393c ae38 8a3c 5d0c 633b b1ce 69ba
00000040: 0ea0 55bb a425 d9bb f542 293c 4c4c 243b
00000050: 8a26 313b e90e 623b 2a41 3c3c cd85 38bb
00000060: 4233 df3b 55f1 9fb9 8524 563b b5a7 a73c
00000070: 5ed7 0ebb 305c 103c ac0c af3b 220b 513b
00000080: 3579 bdba 9723 0abc 280e fabb 8ee2 e5bb
00000090: ee79 5a3b dbf3 aa3a 21e6 df39 4628 50bc
000000a0: fc15 1a3c 55df 24bc 68eb 8b3c 1f62 853a
000000b0: ae5e 873b 3704 31bd 8aab 76ba f59f 44bc
000000c0: 5ade 21bc bc81 063a 2386 963c 9e43 6fbc
000000d0: 68f3 6bbb 66f5 a4ba c61e b3bb 6ec9 87bc
000000e0: 13b4 e8bb d9d9 cbbc c018 1dbb 574c 9bbc
000000f0: eb24 2e3c c2e1 cdbb 21bb ad3a 13ad 05bc
-0.001338844 -0.0013029925 0.0061095012 0.0059259497 -0.0008512901 -0.0014113832 -0.0019078685 0.003468655
-4.834576e-05 0.010155069 0.005478875 0.005678905 0.011319862 0.01687273 0.003464482 -0.0008919044
-0.003259662 -0.0066268016 0.010330905 0.002506989 0.0027031028 0.003449375 0.011490146 -0.0028155923
0.0068115303 -0.0003050665 0.0032675576 0.020465711 -0.002179585 0.008811042 0.005342087 0.0031897505
-0.0014455678 -0.008431337 -0.007631082 -0.007015533 0.0033336836 0.0013042645 0.00042705334 -0.012704914
0.009404656 -0.010063012 0.017080024 0.0010176337 0.0041311597 -0.04321691 -0.00094097166 -0.012001027
-0.009879673 0.0005131026 0.018374508 -0.014603524 -0.0036003236 -0.0012585341 -0.005466315 -0.016575541
-0.0071015446 -0.024884151 -0.002397105 -0.0189573 0.010628919 -0.006283016 0.0013254621 -0.00815894

encoder.layers.0.linear1.weight f4 [128, 64]
00000000: b525 b53d ac59 b6bc 1f83 083d 2d7b 05be
00000010: dce7 983d 1bf4 c5bb c216 563c 0b4f 7abd
00000020: b5cb 013e a53f c7bd dd35 ca3c 95bc 40bd
00000030: 7771 e83d 757a fe3d 4608 953d f1cb d23d
00000040: 9ed4 da3d e0a3 06bd bee6 723d c07d f63d
00000050: f4f8 79bd 7e0d 863c 427f f7bd 87e8 a4bd
00000060: 19ee 833c 98cc a23d 3248 1c3e da55 a33d
00000070: 0f6b dcbd cff1 f7bd 83f7 3fbd 389e c3bd
00000080: 15d2 0e3c 74c5 2d3d 7853 ac3d 1563 033e
00000090: 7a88 cb3d ffe4 96bd 5dd7 94bd 37ef 903d
000000a0: 630d c43d 56b7 2cbd f02c ab3d cf81 03be
000000b0: 76a6 e4bd 65b4 a4bd 607b b0bd f21d 84bd
000000c0: 022f 51bd bd1f 9dbd 181e 433c 9262 c73d
000000d0: 7f10 973c b87a 193d c712 613d ee90 a9bd
000000e0: bcee 3ebd a366 5e3d cf18 09be 1700 a8bd
000000f0: 441b b13d 8494 4b3d 9152 09be 2f17 e3bd
00000100: bc99 e43d 9111 c33d 2ea6 0b3d 73cc c03d
00000110: 99c3 91bd 7868 a4bd e780 07be e8f8 6e3d
00000120: a3a3 fdbd 5027 78bd daf5 12bd be7e a43d
00000130: f008 b9bd 5814 02be a30d 503d 1a9e 15bd
00000140: 859a 4f3d 394a 133e 5a7c 2cbd 557d e43d
00000150: f988 153e 6118 de3d d477 a13d 5f10 c9bd
00000160: 1141 dbbc b7c2 d53c 3702 eb3d 0212 003d
00000170: 4ee0 ce3d bc13 b0bd a2a9 adbd fe46 3dbd
00000180: c91d 813d b42a f73d e42b 8b3c ed45 253c
00000190: 00ea 353e ad0e 83bd a032 aebd 275c d9bd
000001a0: f192 93bd cdf4 fc3d 603c f53b 09f1 d93d
000001b0: a813 75bc cfa9 9fbd 6d4c fa3b 1855 dabd
000001c0: 13b2 a3bc f99f eb3c e545 13bc b564 76bc
000001d0: 65f9 d9bd 6d7c dfbb 5e02 93bc 7c94 4ebd
000001e0: 54ce 9c3d c272 b8bd 4eb9 ac3d ea2e f13d
000001f0: 684b 7ebd 6e51 b33d a4ac 85bc e9e2 f73c
00000200: 96bd c4bd f823 89bd fa11 f03d 54d7 e1bd
00000210: 5aee 00bb b20d a53c 1ed9 c83d 9fad e8bc
00000220: aa5f c33d 48fb f8bd 6740 df3c da1b d6bd
00000230: 8ff1 2c3d 57fc d0bd 2abc 983d 7da9 d13c
00000240: a2db 1fbd e5b1 35bc f1db 1b3d 45fd 823c
00000250: fc0a a3bd ffa1 cd3b 110f 0a3c e941 f03d
00000260: 4e9e ba3d ef9f d2bc a996 db3c dde5 d6bd
00000270: 1fd3 59bd 9b6e a93d af72 833d 5e15 cbbc
00000280: af55 063e abe0 e23c 9e6f abbd 4a53 6d3d
00000290: fa3c 8bbd 2d79 cfbd 9b36 853d a09d e23d
000002a0: 89a1 03bd 4820 833a 998d c7bd 25eb e2bd
000002b0: e897 9d3d 6024 ccbd f691 bfbd 0892 27bd
000002c0: 29eb f8ba b131 c6bd e781 7e3d 456e ee3d
000002d0: 7acf 2e3d cd80 dfbc 1cae df3d 53f0 813d
000002e0: 14e2 ecbd 77e7 163c 536b ef3d b6c9 64bd
000002f0: 754c 033e 979d 9abd f43e 553d 159b 083d
00000300: 4ffa ccbd 200b c83d 24d2 153d 931c 31bd
00000310: 51a7 003d 3c1c 3e3c 9697 d43d 0eee fa3d
00000320: 1561 41bd 7f71 48bd 59ff adbd 0ca7 c0bd
00000330: 9dc6 d1bd 7512 843c 26d1 a9bd b1ec d73d
00000340: 00f9 c9bd c7c1 2fbc 87a7 9bbd 7527 aabd
00000350: ce02 793b 08a7 9c3d 1096 ffbd 7d57 88bc
00000360: 8853 623c 7885 e93d 3d56 5fbd 89b6 2e3c
00000370: 327f 043d 1ab9 df3d 2854 f53d c26c 08bc
00000380: 1d60 f23b 3a0e d7bc 1e05 dabd ce5a d33d
00000390: ab27 edbd 76cc b03d 03c2 83bc 62b7 2f3c
000003a0: 88ed ed3c ca0a 8d3d 9171 253d 33e9 d63d
000003b0: b5bb 62bc 952b a13b 09f8 75bd e02b 913b
000003c0: ef34 0b3e 858d 2fbc 7731 19bd eabf 00bd
000003d0: fda3 0c3e dbe0 f0bc bd34 b7bd 673a 4cbd
000003e0: f44c bcbd f0cd d13c 362c d83d eb40 91bc
000003f0: e298 4cbc 8747 b6bc 3ec4 adbc b1e4 a53d
0.08845083 -0.022259556 0.03332817 -0.13035269 0.07466099 -0.0060410625 0.013066949 -0.061110537
0.12675364 -0.09728936 0.024683887 -0.047054846 0.11349767 0.124257006 0.07276969 0.10292805
0.10685085 -0.032871127 0.059302084 0.12035704 -0.061028436 0.016363855 -0.120848194 -0.080521636
0.016104745 0.079491794 0.15261915 0.07975359 -0.10762607 -0.12106668 -0.046866905 -0.09551662
0.00871708 0.042424634 0.08414358 0.12830766 0.0993814 -0.07367896 -0.0726764 0.070768766
0.09572866 -0.04216703 0.083581805 -0.12842487 -0.111645624 -0.0804222 -0.08617282 -0.06451024
-0.05107022 -0.07672069 0.01190903 0.09735598 0.018440483 0.03747055 0.054949548 -0.08279596
-0.046614394 0.0542971 -0.1338837 -0.08203142 0.08647779 0.049702182 -0.13410403 -0.11088406
0.11162135 0.09524835 0.03409403 0.094139956 -0.071173854 -0.08027738 -0.13232766 0.058342844
-0.12384727 -0.060584366 -0.035878994 0.08031987 -0.09034908 -0.12703073 0.050794255 -0.03652773
0.05068447 0.14383782 -0.04211078 0.11156718 0.14603032 0.10844494 0.078841835 -0.09817576
-0.026764425 0.026093824 0.11475032 0.031267174 0.101013765 -0.08597514 -0.084796205 -0.04621028
0.06304509 0.12068692 0.016988702 0.010087472 0.17765045 -0.063992836 -0.0850575 -0.1061328
-0.07205761 0.123513795 0.007484004 0.10641677 -0.0149583 -0.0779606 0.007638505 -0.106607616
-0.019982373 0.028762804 -0.008988832 -0.015038659 -0.10643271 -0.0068202526 -0.017945465 -0.050434574
0.076565415 -0.09006263 0.084337816 0.11776526 -0.06208363 0.08755766 -0.016317673 0.030259566
-0.09606473 -0.066963136 0.11722179 -0.11027399 -0.0019673319 0.020148132 0.09807037 -0.028403101
0.09539731 -0.12157303 0.02725239 -0.10454531 0.042222556 -0.1020438 0.074577644 0.025593514
-0.039027818 -0.011089777 0.03805155 0.015989909 -0.079610795 0.006275415 0.008426444 0.11731321
0.091122255 -0.025711028 0.026805239 -0.10493062 -0.053179856 0.082730494 0.064183585 -0.024790462
0.13118623 0.02769502 -0.08370899 0.05794076 -0.0679874 -0.10130534 0.06504556 0.11065221
-0.032136474 0.0010004127 -0.097438045 -0.110800065 0.076949894 -0.099678755 -0.09354012 -0.04091075
-0.0018990982 -0.09677447 0.062135603 0.11642126 0.042678334 -0.027283097 0.109218806 0.06344666
-0.115665585 0.009210459 0.11690392 -0.05585643 0.12822135 -0.07549589 0.05206199 0.033351023
-0.1000868 0.09767747 0.03657736 -0.04324014 0.031409565 0.011603411 0.10380475 0.122524366
-0.047211725 -0.048936363 -0.08495969 -0.09406862 -0.102429606 0.016122082 -0.08291845 0.10543192
-0.09861946 -0.010727352 -0.07600313 -0.08308307 0.0037996056 0.07649046 -0.12479794 -0.01664328
0.013813861 0.1140241 -0.054525603 0.010663637 0.032347865 0.10923977 0.11978942 -0.008326711
0.0073967115 -0.026251901 -0.10645507 0.10320054 -0.11579832 0.08632748 -0.016083723 0.010724874
0.029043928 0.068868235 0.04039151 0.10493698 -0.013838698 0.0049185255 -0.060050998 0.004430279
0.13594411 -0.010714893 -0.03740069 -0.031433024 0.13734432 -0.029404094 -0.08945606 -0.049860384
-0.09194365 0.025610894 0.105553076 -0.01773115 -0.012487622 -0.022250904 -0.02121174 0.0810026

encoder.layers.0.linear1.bias f4 [128]
00000000: 4edf cabd 6a58 2b3d 2b4c 84bd 2366 043e
00000010: c746 83bd ea3e c13d 8a7d fd3c 49a2 68bd
00000020: e908 eb3d d00c c13c 54c2 a13d 8e18 efbd
00000030: 4e2a d9bd 356b 4f3d 5ceb 9cbd 2a73 8f3d
00000040: 12fe f0bd f4c7 6b3d 6c4d e83d 3615 42bc
00000050: fd3c 553d 6df3 c03d c79d df3c f4fd 63bd
00000060: dc94 08be a575 663d 6288 46bc 5e58 cbbd
00000070: db8e a83d 2cf5 63bc 0d7b 72bd 661e 8a3b
00000080: 885f f4bd f598 8f3d d51a 01be 2b14 643d
00000090: 3569 34bd 4e97 873c f9d9 e6bd 9751 bbbd
000000a0: 9de9 6c3d 9205 9e3d c618 e43d 4a93 353d
000000b0: 5399 a7bd f708 cd3d 41ee ab3d d326 683d
000000c0: 0a07 f0bc 1e41 1abd d64a 3e3d 6c8e cb3d
000000d0: bacb c0bc f7cb f0bb 2f49 fbbd 2d7a 863d
000000e0: 8552 aabd 149a afbd 762f bbbc 3e2a 86bd
000000f0: 9afd c9bc 6618 25bc 5166 c3bd 65ce be3d
00000100: 8cba 31bc a01b fc3c 3b1e ebbd 75da 943d
00000110: a3ac 343d 1a4a 5ebc aae9 cbbd 657e 2a3d
00000120: 7abf 90bd c947 383d 1bb2 21bd 3df2 503d
00000130: f07d 47bd ec62 aabd 817a 4cbc d1bd 10bd
00000140: 249e 183d 88c0 edbb f726 a03d c285 7bbc
00000150: a5e1 1ebd b8b8 9b3d 3278 adbd c630 a0bd
00000160: 0449 ebbd 500f 51bd fbfa 923c fab9 75bd
00000170: e2e1 78bd 019c 803d 1d9e 89bd 4db4 0c3d
00000180: 2aa1 433d cad3 f8bd f4f8 623d 52e2 3cbc
00000190: 0511 c6bd d5bb 21bd 000a d83d 1d28 22ba
000001a0: 68ec 3e3d 3d9b a43c dbe2 5e3d 81ff a5bd
000001b0: 3e15 6ebd 53b9 aebd 61ca 87bd b99d 763d
000001c0: 6fcd 05be 4878 ddbc 8379 ca3b 65e9 493d
000001d0: 2b16 e4bc 4b46 8e3d 9de8 3c3b d381 47bd
000001e0: 66a5 a93c d039 793c fa53 edbd b7f1 193d
000001f0: c53f fabc 509f c73d 8b4d 963d 7ab2 d739
-0.09905873 0.041832365 -0.064598404 0.12929587 -0.06409984 0.09435828 0.03094365 -0.056795392
0.11476309 0.02356568 0.07898393 -0.11674605 -0.10603772 0.05063935 -0.07662079 0.07004388
-0.1176721 0.057563737 0.11342892 -0.011845877 0.052060116 0.0942143 0.027296914 -0.05566211
-0.13338035 0.05626454 -0.012117477 -0.09928964 0.082303725 -0.013913434 -0.05919938 0.0042150496
-0.11932284 0.07011596 -0.12607892 0.055683296 -0.044045646 0.01655164 -0.11272044 -0.091464214
0.05783998 0.07715906 0.11137538 0.04432992 -0.08183541 0.100114755 0.08395053 0.05667765
-0.029300231 -0.037659757 0.046458088 0.09939274 -0.023534644 -0.0073485333 -0.12269818 0.06566272
-0.083165206 -0.0857431 -0.02284978 -0.06551026 -0.02465706 -0.010076618 -0.09541 0.093167104
-0.010847699 0.030774891 -0.114803754 0.0726823 0.04410995 -0.013567472 -0.09956677 0.041624445
-0.07067771 0.044990335 -0.039476495 0.051012266 -0.048704088 -0.08319649 -0.012480379 -0.035337273
0.03726019 -0.0072556175 0.07819932 -0.015351715 -0.03878941 0.07603592 -0.08470191 -0.07821803
-0.11488536 -0.051039994 0.017941942 -0.059991814 -0.060762294 0.062797554 -0.06719611 0.034351636
0.04776112 -0.121497706 0.0554132 -0.011528568 -0.09671215 -0.03948577 0.10548782 -0.0006185787
0.046612173 0.020093555 0.054415565 -0.08105374 -0.058125727 -0.085314415 -0.066303976 0.06020901
-0.13066648 -0.027034894 0.006179036 0.049294848 -0.027842602 0.06947001 0.0028825172 -0.048707794
0.020708751 0.0152115375 -0.11588283 0.037584033 -0.030547986 0.09747183 0.07339009 0.0004114097
